tests/ExampleModel.pth (torch, 37879 bytes, 18 tensors)

model_state f4 [64, 20]
0	0xbe46590c	-0.19369906
1	0xbf0ad11a	-0.54225314
2	0x3f4e6247	0.8061871
3	0x3e99b428	0.3002026
4	0x3df3e5f9	0.11909098
5	0xbda3a0ae	-0.079896316
6	0x3f0074c1	0.5017815
7	0xbdca657e	-0.09882639
8	0x3fc3124f	1.5239962
9	0x3f52fcbc	0.8241689
10	0xbe846654	-0.2585932
11	0x3cf392de	0.029733118
12	0x3f08cfa6	0.53441846
13	0x3f07bde5	0.5302413
14	0x4075e105	3.841859
15	0x3d86b8d7	0.06578224
16	0x3da8a6c6	0.082349345
17	0x3e97bad3	0.29634723
18	0x3f8970e6	1.0737579
19	0xbd4a1556	-0.049336754
20	0x3e37b6cf	0.1794083
21	0x3faa027a	1.3282006
22	0x3f895c96	1.073138
23	0x3e024359	0.12721004
24	0x3eb47715	0.35247102
25	0x3fab1b14	1.3367639
26	0x3ef6863c	0.48149288
27	0x3e9a23f4	0.30105555
28	0x3f750399	0.95708615
29	0x3f0d86cf	0.55283827
30	0x3cac2f24	0.021018572
31	0x3f4b41c2	0.79397213
32	0x3ef925ca	0.48661643
33	0x3e2e6682	0.17031291
34	0x3f1369bd	0.5758322
35	0x3f718ed2	0.9435855
36	0xbf1249fa	-0.5714413
37	0xbe8e6923	-0.27814588
38	0x3fadf82a	1.3591359
39	0x3f10973e	0.5648078
40	0x3d26a1fb	0.04068182
41	0x3e5c92cf	0.21540378
42	0x3f062535	0.52400523
43	0x3e8ec063	0.27881154
44	0xbf83627c	-1.026443
45	0x3ea092d1	0.31362012
46	0x3f25892d	0.6466244
47	0xbdb996f7	-0.090619974
48	0x3dae3936	0.08507006
49	0x3f06109c	0.52369094
50	0x3bfc5422	0.007700459
51	0x3eee7cf6	0.46579713
52	0xbdcaddf0	-0.099056125
53	0xbfa00f12	-1.2504599
54	0x402e4b07	2.7233293
55	0x3f20fa3d	0.62881833
56	0x3f5f3acd	0.871991
57	0xbd4aac02	-0.049480446
58	0x3fdb8fa6	1.7153213
59	0x3f04837b	0.51763123
60	0xbeeca887	-0.46222326
61	0xbfeef41d	-1.8668247
62	0x3f7ceea1	0.9880162
63	0xbf19a4e0	-0.60017204
64	0xbf57b874	-0.8426583
65	0xbf6abbb2	-0.9169265
66	0x3f39fbbf	0.7264976
67	0xbf81b496	-1.0133235
68	0x3fb7f089	1.437028
69	0xbeacbf1a	-0.3373955
70	0xbcd7a6ed	-0.026324714
71	0x3f2d703d	0.6774939
72	0xbe425559	-0.1897787
73	0x3d7b4ab6	0.061350547
74	0x3f1bfc5c	0.60931945
75	0x3eec997f	0.46210858
76	0x3f3466f0	0.7046957
77	0xbf1981c4	-0.5996363
78	0x3fd9579b	1.697986
79	0x3e0ab866	0.13546905
80	0x3ecd1218	0.40052867
81	0xbd8000cf	-0.06250154
82	0xbd8471ba	-0.06467004
83	0x3f994acf	1.1975955
84	0xbc996cbd	-0.018728608
85	0xbe6a4579	-0.22878064
86	0xbf9ee560	-1.241375
87	0x3fd78d81	1.6840059
88	0x3f6fd0d4	0.9367802
89	0x4019e869	2.4048102
90	0x3f885efe	1.0653989
91	0x3f9f1cdb	1.2430681
92	0x3f01b4bb	0.506664
93	0xbf291bfd	-0.6605833
94	0x3ef11172	0.47083622
95	0x3ef2d2b1	0.4742637
96	0x3fa9cdee	1.326597
97	0x3fbb854e	1.4650056
98	0xbe3926e4	-0.18081242
99	0x3f2f10dd	0.68385106
100	0x3d9b7562	0.07590748
101	0x3f60e81e	0.8785418
102	0xbf8df72e	-1.1091058
103	0x3c076c92	0.008265631
104	0x3f029d70	0.5102148
105	0xbe583652	-0.21114472
106	0x3e33d1e7	0.1756054
107	0x3ed5a919	0.41730574
108	0xbfce010c	-1.609407
109	0xbe4ceafd	-0.20011516
110	0xbef91eea	-0.48656398
111	0xbe4611c8	-0.1934272
112	0x3ea17efa	0.31542188
113	0xbf0bdca1	-0.5463353
114	0xbece7563	-0.40323934
115	0xbebcafb6	-0.36852807
116	0xc066677e	-3.6000667
117	0xbe87197f	-0.2638664
118	0xc0021e03	-2.0330818
119	0xbee83106	-0.45349902
120	0xbf71a0b6	-0.9438585
121	0x3e8976ca	0.2684844
122	0xbf9fd1b7	-1.2485875
123	0xbe2a9e9e	-0.1666207
124	0x3ebdceeb	0.37071928
125	0xbec43200	-0.38319397
126	0xc007aeb8	-2.120039
127	0xbf31af5a	-0.6940819
128	0xbfd6d0a3	-1.6782421
129	0xbfa745a4	-1.3068128
130	0xbf207661	-0.6268063
131	0xbc67d32c	-0.014149468
132	0xbfb8b971	-1.4431592
133	0xbf657c5e	-0.89642894
134	0xbf8f0b36	-1.1175296
135	0xbcfdc347	-0.030976905
136	0xbf55dd12	-0.8354045
137	0xbf32bea3	-0.6982214
138	0xbe80bb64	-0.25142968
139	0xbf97dc4e	-1.1864107
140	0x3ed99436	0.42495888
141	0xbe4be8e3	-0.19913058
142	0x3ea8dcfc	0.32981098
143	0x3e6bc85b	0.23025648
144	0x3f0e55e2	0.55599797
145	0xbe084bbf	-0.13310145
146	0xbfda8dd1	-1.7074529
147	0x3e9b0f02	0.30284888
148	0xbca619d6	-0.020275991
149	0xbece1260	-0.40248394
150	0x3f14af3b	0.5807988
151	0xbf0d5aee	-0.5521687
152	0xbed84738	-0.42241836
153	0xc04f0061	-3.2343981
154	0xbf9b0521	-1.211094
155	0xbe0b80d6	-0.13623366
156	0xbe7f1bc7	-0.2491294
157	0x3f5ac56d	0.854575
158	0xbe587632	-0.21138838
159	0x3e468058	0.19384897
160	0x3ec8aea3	0.39195737
161	0x3e5f36aa	0.21798196
162	0x3eb17e68	0.34666753
163	0x3ee011bc	0.4376353
164	0x3c152b36	0.009104541
165	0x3ea79802	0.3273316
166	0x3ebcb876	0.36859483
167	0xbe0a0ad8	-0.13480699
168	0x3ee99baf	0.4562659
169	0x3f5b7142	0.8571969
170	0xbed64cf4	-0.41855586
171	0x409051d0	4.509987
172	0xbe83afd1	-0.25720075
173	0x3e7c5f55	0.24645741
174	0x3cabb6f7	0.020961268
175	0xbe1eafec	-0.15496796
176	0xbee69714	-0.45037138
177	0xbe90732a	-0.28212863
178	0xbede370f	-0.4340138
179	0x3f28a7e5	0.65881187
180	0x3e8b4172	0.27198368
181	0xbf4c8bd9	-0.7990089
182	0xbf948266	-1.1602294
183	0x3f403b33	0.7509033
184	0x403d4498	2.9573116
185	0xbf9d620f	-1.229555
186	0x3caa0173	0.020752644
187	0xbf12c6a8	-0.57334375
188	0x3f818c2e	1.0120904
189	0xbf0498d4	-0.517957
190	0x3f18a1ab	0.59621686
191	0xbe9c7f2c	-0.30565774
192	0x3f5bfbc9	0.8593107
193	0xbec0e71b	-0.3767632
194	0xbeff2b8e	-0.49837917
195	0x3f0a78f2	0.540908
196	0x3ed9e2a6	0.42555732
197	0x3f190da7	0.59786457
198	0xbdd09e00	-0.10186386
199	0x3f75b3cc	0.95977473
200	0x4009bf63	2.1523063
201	0x3dcea90e	0.100908384
202	0x3eb3603e	0.35034364
203	0x400f22f9	2.2365096
204	0xbd72ba17	-0.0592595
205	0x3df7e535	0.12104265
206	0xbe7ed97a	-0.24887648
207	0x40244688	2.566805
208	0x4026f2a4	2.6085596
209	0x40181bf6	2.3767066
210	0x400c4ec5	2.1923077
211	0xbe06ee89	-0.13176931
212	0x40497b4b	3.1481502
213	0x3ca1759f	0.019709406
214	0xbe9d0a11	-0.30671743
215	0xbe53c8e4	-0.20682102
216	0xbe65ae0c	-0.22429675
217	0x40595044	3.395524
218	0xbf1b9666	-0.60776365
219	0x40109a60	2.2594223
220	0xbe72f454	-0.23726016
221	0xbed392d7	-0.41322967
222	0x400d27d7	2.2055566
223	0x3deb275e	0.11482118
224	0xbe9f1a6f	-0.31074855
225	0xbd69c704	-0.05707456
226	0x3f8d47d8	1.103755
227	0xbd770d26	-0.060315274
228	0x3fe31f5b	1.7743944
229	0xbda961f0	-0.08270633
230	0xbe417b02	-0.1889458
231	0x3db022eb	0.0860041
232	0x3ec43518	0.38321757
233	0x40921b27	4.5658145
234	0x3f1e57fd	0.6185301
235	0xbe1fb3bd	-0.15595908
236	0x3ec24647	0.37944242
237	0xbe336574	-0.1751917
238	0x3fbbdca2	1.4676707
239	0x3ea5b2d8	0.3236301
240	0x3e5be8db	0.21475546
241	0x3ea0e188	0.31422067
242	0xbf583476	-0.8445505
243	0x3f185cf8	0.5951686
244	0x3fe00145	1.7500387
245	0x3eaa2f07	0.33239004
246	0xbfb1f972	-1.390425
247	0xbe0be217	-0.13660465
248	0x3f286a13	0.65786856
249	0xbeef241f	-0.46707246
250	0x3f17f306	0.593552
251	0xbf2fe006	-0.6870121
252	0xbdbb5eea	-0.09148963
253	0xbd9f9ebe	-0.077939495
254	0xbf87aaa2	-1.0598948
255	0xbeecf4c2	-0.46280485

model_state f4 [64]
0	0xbf4f20d2	-0.80909455
1	0xc0348eca	-2.8212152
2	0x3f73bd99	0.9521118
3	0x3f7eab37	0.99480003
4	0x3f186421	0.59527785
5	0x3f9648b4	1.1740937
6	0x3fba810b	1.4570631
7	0xbfd1c0ac	-1.6386924
8	0x3f382218	0.7192702
9	0xc08a31b3	-4.318567
10	0xbf81409c	-1.0097842
11	0xbebec0b5	-0.372564
12	0xbf88b8ec	-1.0681434
13	0x3e9c7ce1	0.30564025
14	0x4002652d	2.0374253
15	0x3fa6eedd	1.3041645
16	0x3e9c6d59	0.30552176
17	0xbca2ed9d	-0.019888693
18	0xbefffda0	-0.49998188
19	0x3f5098cc	0.8148315
20	0x400dc39e	2.2150645
21	0x3f722b2f	0.9459714
22	0xbe65bce5	-0.22435339
23	0xc02fe50d	-2.7483552
24	0xbfea0058	-1.8281355
25	0xbe87aead	-0.26500455
26	0x4032d6ec	2.7943678
27	0x3f33e764	0.7027495
28	0x3ece17bc	0.40252483
29	0xbfdc6150	-1.7217197
30	0xbf28485b	-0.65735406
31	0xbe42c29e	-0.19019553
32	0xbf5e7606	-0.8689884
33	0x3f1dd81c	0.6165788
34	0x3fd9bd93	1.7010978
35	0x3f958228	1.1680346
36	0x3f14708d	0.5798424
37	0x3d91d01a	0.0711977
38	0x4088583e	4.2607718
39	0xbf105e0e	-0.56393516
40	0x3f1c158c	0.6097038
41	0x4009ab2e	2.151073
42	0xbd9700e1	-0.073732145
43	0xbf1451b5	-0.57937175
44	0xbed64385	-0.41848388
45	0x3ecf4ded	0.4048914
46	0xbf1eb614	-0.6199658
47	0x3fc39aa6	1.528157
48	0x400598f5	2.0874608
49	0xbfe69efa	-1.8017266
50	0x3f80c332	1.0059569
51	0x3e6a3e79	0.22875394
52	0xbe56930c	-0.20954531
53	0x3ed42dbb	0.4144114
54	0xbd28f14f	-0.041245755
55	0x3e7a6356	0.24451956
56	0xc007c404	-2.1213388
57	0x3f8217a2	1.0163462
58	0x3f83bb4a	1.0291531
59	0xbf8cfc65	-1.1014525
60	0xbf541f06	-0.8285984
61	0x3e939daf	0.2883124
62	0xbf08f730	-0.5350218
63	0x40496350	3.1466866

model_state f4 [64]
0	0x3fc2322d	1.5171562
1	0x3fdc611a	1.7217133
2	0x3f8ec95f	1.1155204
3	0x3f879b84	1.0594335
4	0x3e2212da	0.15827504
5	0x3faf1382	1.3677828
6	0x3fcb500e	1.5883806
7	0x3fa5d0fd	1.2954403
8	0x3fd155cb	1.6354307
9	0x3ec2c8b8	0.3804376
10	0x40062c86	2.0964675
11	0x40504d8e	3.2547336
12	0x3fb858b1	1.4402066
13	0x3f59ca62	0.85074437
14	0x4004d575	2.0755284
15	0x3fc97af3	1.5740646
16	0x3ef1f066	0.47253722
17	0x3f17bed1	0.5927554
18	0x3f407788	0.7518239
19	0x3fd29cbb	1.645408
20	0x3f840971	1.0315381
21	0x3fecafe9	1.8491184
22	0x3fa9054a	1.3204739
23	0x3fa38117	1.277377
24	0x3fce27dd	1.6105915
25	0x3f9433b6	1.1578281
26	0x3f81131c	1.0083957
27	0x3f0986b8	0.5372119
28	0x3f273788	0.6531911
29	0x3f764c44	0.9621012
30	0x3f1c8944	0.6114695
31	0x3f45e0ca	0.77296126
32	0x3f7c31d1	0.98513514
33	0x3f8ab06f	1.0835093
34	0x3f3c5bd4	0.7357762
35	0x3f90bbb1	1.1307279
36	0x3ea970a6	0.33093756
37	0x406937ce	3.644031
38	0x4009b475	2.1516392
39	0x3fa3b5a0	1.2789803
40	0x3eadec89	0.33969525
41	0x3faba89a	1.3410828
42	0x3f15f2f9	0.5857387
43	0x3fc7f10b	1.5620435
44	0x3f3aa1d9	0.7290321
45	0x3f808a99	1.0042297
46	0x3fb3aea7	1.4037675
47	0x3f82eb44	1.0228047
48	0x3f922b67	1.1419495
49	0x3ff6f806	1.9294441
50	0xbe82a743	-0.25518236
51	0x3fd2c753	1.6467079
52	0x3f85cca8	1.0453081
53	0x3fb11480	1.3834381
54	0x3fe81e84	1.8134313
55	0x3ea535df	0.32267663
56	0x4008a38f	2.1349828
57	0x3e9220f8	0.28540778
58	0x3f57b181	0.84255224
59	0x3f280f0a	0.6564795
60	0x4014a01a	2.3222718
61	0x3f3fd246	0.74930227
62	0x3f18d0fb	0.5969388
63	0x4042a565	3.041345

model_state f4 [64]
0	0x3f5b6dee	0.85714614
1	0xbf0f276e	-0.5591954
2	0x3e6b00ba	0.22949496
3	0x3fc1a7b1	1.51293
4	0x3f9e17fa	1.2351067
5	0x3f017172	0.5056373
6	0xbdf5f018	-0.12008685
7	0x3f3532b7	0.7078051
8	0x3f964176	1.1738727
9	0x3fe831e9	1.8140231
10	0x3ff094f3	1.8795456
11	0x3fd55980	1.6667938
12	0x3e5bc3c8	0.21461403
13	0x3e516224	0.20447594
14	0x3f94a719	1.1613494
15	0x3f423e1d	0.7587603
16	0xbec7016c	-0.38868272
17	0x3fb9a9ec	1.4504981
18	0x3e8e4c8a	0.2779277
19	0x3eeee4a9	0.4665883
20	0x3f03f7cf	0.5155
21	0x403802ff	2.8751829
22	0x3eabed78	0.33579612
23	0x3f20b01f	0.6276874
24	0x3f7580b2	0.958995
25	0x3f8c1d3c	1.0946422
26	0x3ee97a02	0.45600897
27	0x4000cfcd	2.0126832
28	0x3eb6ced0	0.3570466
29	0x3fb646a7	1.4240311
30	0x3f888ea4	1.066853
31	0x3f7ba9ee	0.9830617
32	0xbeb4d67c	-0.3531989
33	0x3ffc3e4c	1.9706511
34	0x3f342daa	0.7038218
35	0x3f98b9d7	1.1931714
36	0x3f9f69b1	1.245413
37	0x3febedde	1.8431966
38	0x404dc762	3.2152944
39	0x3f4d00f5	0.80079585
40	0x3e1eaab9	0.15494813
41	0xc014dcb0	-2.3259697
42	0x3e911667	0.28337404
43	0x3e887725	0.266534
44	0x3fda829d	1.707111
45	0xbf702337	-0.93803734
46	0x3f6d67e2	0.9273664
47	0x3f09eb72	0.53874886
48	0x3ee97d84	0.45603573
49	0x3e8281fe	0.254898
50	0x3fc39e29	1.5282642
51	0x3efe43cc	0.496611
52	0x3f96e94e	1.1789949
53	0xbe73df23	-0.23815589
54	0x3fe6affb	1.8022455
55	0x3f8f704b	1.1206144
56	0x3ffc14b4	1.9693818
57	0x3ff2c02d	1.8964897
58	0x3f8cbe69	1.0995609
59	0x3f711a0f	0.9418039
60	0x3f161210	0.5862131
61	0x3f303bb8	0.68841124
62	0x3fbc5325	1.4712874
63	0x3fd129c5	1.6340872

model_state f4 [64]
0	0x4026d886	2.6069655
1	0xbea79b28	-0.32735562
2	0x405c6a1e	3.4439769
3	0x3ffa8909	1.957307
4	0x3f995944	1.1980367
5	0xbf535f46	-0.8256725
6	0xbf85c793	-1.045153
7	0xc09e1d66	-4.9410887
8	0x4010c9d6	2.262319
9	0xc0941f0c	-4.62879
10	0xbf805f92	-1.0029166
11	0x405e6084	3.4746408
12	0xc0428987	-3.039644
13	0x3f782162	0.9692594
14	0x408f89c7	4.4855685
15	0x407a9b88	3.9157429
16	0xbd9761c5	-0.07391695
17	0x3ed8fc1b	0.4237984
18	0xbfcad627	-1.5846604
19	0xc02d214d	-2.7051575
20	0x404e6e38	3.2254772
21	0x405b6054	3.4277544
22	0xbfe923dc	-1.8214068
23	0xbf6d9255	-0.9280141
24	0x3ff1b1f9	1.8882438
25	0x3f246883	0.6422197
26	0x3f4ad6b9	0.7923389
27	0x3f4cbf81	0.7997971
28	0xbf84c10a	-1.0371411
29	0xc0368836	-2.8520637
30	0xbff14314	-1.8848596
31	0x3e6904bb	0.22755711
32	0xbef78006	-0.48339862
33	0x3fca49cd	1.5803772
34	0xbdaa697f	-0.08320903
35	0xbf298f7b	-0.6623456
36	0x3f9f7170	1.2456493
37	0x3feefae0	1.8670311
38	0x40ab06e8	5.344593
39	0x3f5180e1	0.8183728
40	0xbdd83ffd	-0.1055908
41	0x40351a48	2.829729
42	0xbfa08ea9	-1.2543536
43	0x3f80e81c	1.0070834
44	0xbf00a77f	-0.5025558
45	0x404adc96	3.1697135
46	0x3fc00ed2	1.5004523
47	0xbed42af6	-0.41439027
48	0x40927805	4.577151
49	0x3f0aaa76	0.5416635
50	0x3f4dd228	0.803988
51	0xc001eeb9	-2.0301955
52	0x3ec57c25	0.38571277
53	0x40209f0a	2.509707
54	0x3fb7b883	1.4353184
55	0x3e6b48b5	0.22976954
56	0xc08bf609	-4.3737836
57	0x3f4d6484	0.802315
58	0x4006fef2	2.1093106
59	0xbfadfa7e	-1.3592069
60	0x3e475cf0	0.19469047
61	0xbf3a69a1	-0.72817427
62	0x3f041394	0.51592374
63	0x3f97cebb	1.1859964

model_state f4 [64]
0	0x40bbe5e4	5.871813
1	0x40a33d5c	5.10124
2	0x409ec100	4.9610596
3	0x403ee35a	2.9826264
4	0x3fc4fada	1.5389054
5	0x40bba89a	5.8643312
6	0x4097efe4	4.7480335
7	0x40c35a03	6.1047378
8	0x40980b18	4.751354
9	0x40092b2b	2.1432598
10	0x3fce62e2	1.6123927
11	0x413775e4	11.466282
12	0x4092b699	4.5847898
13	0x401f3db7	2.4881418
14	0x40ef0913	7.4698577
15	0x40b6ae89	5.7088056
16	0x3f9f4859	1.2443954
17	0x400f5f6e	2.2401996
18	0x40064518	2.0979671
19	0x40c01931	6.003075
20	0x402f0b6b	2.735072
21	0x409de41a	4.9340944
22	0x406dafbf	3.7138517
23	0x40ac3779	5.3817716
24	0x40ce100c	6.439459
25	0x404d2ee5	3.2059872
26	0x40b5ad1e	5.6773825
27	0x3fdd4062	1.7285273
28	0x3ff51239	1.9146186
29	0x403306c2	2.7972875
30	0x3ffa5174	1.9556108
31	0x401803b1	2.3752253
32	0x3fc369c1	1.5266649
33	0x40522466	3.2834716
34	0x4066ce66	3.6063476
35	0x40b98b61	5.798264
36	0x3fc5a755	1.5441691
37	0x4102afef	8.167953
38	0x409b88d0	4.8604507
39	0x40500e17	3.25086
40	0x3ff88060	1.9414177
41	0x405ceb0a	3.4518456
42	0x3fed9387	1.8560647
43	0x4095fc94	4.6870823
44	0x401de539	2.4671156
45	0x407d0827	3.9536226
46	0x40af699f	5.481643
47	0x4078fc82	3.8904119
48	0x40a03e38	5.007595
49	0x40dd22b7	6.9104877
50	0x3fc21f44	1.5165792
51	0x40d0caca	6.5247545
52	0x40267dfb	2.6014392
53	0x408850e9	4.2598767
54	0x408c41c7	4.3830295
55	0x3fd51127	1.664586
56	0x415b3808	13.7011795
57	0x3fcc31f5	1.5952746
58	0x4023f3d3	2.5617568
59	0x3fbd8795	1.4807001
60	0x408e6134	4.4493656
61	0x401307fa	2.2973619
62	0x40292d59	2.6433928
63	0x417267e4	15.150364

model_state f4 [64, 64]
0	0xbf1b1bc9	-0.6058927
1	0x3d776b7b	0.060405236
2	0x3f4797ef	0.7796621
3	0x3dd6ebe8	0.10494214
4	0x3f48a3f8	0.78375196
5	0xbf0c2eed	-0.54759103
6	0x3ebb3f35	0.3657166
7	0x3f9e51cb	1.2368711
8	0x3e9cd4e1	0.30631164
9	0x3e83b251	0.25721982
10	0xbd647616	-0.055776678
11	0xc01227da	-2.2836823
12	0xbea22105	-0.31665817
13	0x3c3039f8	0.010756008
14	0x3fd1c90c	1.638948
15	0xbf523e1d	-0.8212603
16	0x3f2c9f24	0.6743033
17	0x3ebe92e2	0.37221438
18	0xbe707ed9	-0.23485889
19	0x3f12028b	0.5703513
20	0xbf3d478c	-0.73937297
21	0x3f87d594	1.0612054
22	0xbddc0584	-0.107432395
23	0xbf91523e	-1.1353223
24	0xbf76f4e1	-0.96467406
25	0x3e5c836e	0.21534511
26	0xbfe625c3	-1.7980274
27	0x3f1323df	0.5747661
28	0xbd733927	-0.059380677
29	0xbe4fa7ae	-0.20278808
30	0x3f352bb4	0.7076981
31	0x3fb1fb3d	1.3904797
32	0x3ee43c4b	0.4457725
33	0xbd3730f7	-0.04472443
34	0x3f23f380	0.64043427
35	0xbf1fb0c0	-0.62379074
36	0xbf11491f	-0.567522
37	0xbef68f6e	-0.48156303
38	0x3e6d1b03	0.23154835
39	0x3eeb704a	0.45984107
40	0xbeac580c	-0.33660924
41	0x3df90bb3	0.121604346
42	0xbf5cacc1	-0.862011
43	0xbf827bd4	-1.0194039
44	0xbeb266ca	-0.34844047
45	0xbe827a19	-0.25483778
46	0xbe418586	-0.18898591
47	0xbd884c12	-0.06655134
48	0xbeaf01da	-0.341811
49	0x3dd3e26b	0.1034592
50	0x3ea14782	0.3149987
51	0x3ecc149e	0.3985948
52	0xbf8ec796	-1.1154659
53	0xbf280540	-0.6563301
54	0x3f020ac8	0.507977
55	0x3f76a797	0.9634947
56	0x3f23edb0	0.6403456
57	0xbf263ba7	-0.6493477
58	0xbf3324ff	-0.69978327
59	0xbe0faa60	-0.14029837
60	0x3f387f46	0.72069204
61	0xbe374a2a	-0.17899385
62	0xbf20f0ae	-0.6286725
63	0xbe590e35	-0.21196826
64	0x3e578be8	0.21049464
65	0xbfa4a169	-1.2861758
66	0xbd659e70	-0.0560593
67	0x3df13618	0.11777896
68	0xbdbee95c	-0.093218535
69	0xbef3b79a	-0.47601014
70	0x3ea904a3	0.3301135
71	0x3f090cff	0.53535455
72	0xbe8c53d3	-0.27407703
73	0xbf3c39b9	-0.7352558
74	0xbebe5c4c	-0.37179792
75	0xbeadf46d	-0.33975545
76	0x3e9410d4	0.2891909
77	0xbf57f8d3	-0.8436405
78	0xbf0436dc	-0.5164621
79	0xbea01d28	-0.31272244
80	0x3e27abb3	0.16374092
81	0x3f0f2e4f	0.55930036
82	0xbe5915aa	-0.2119967
83	0x3eaa3e36	0.33250588
84	0xbedd709a	-0.4324997
85	0xbe184726	-0.14870891
86	0x3f232ffb	0.6374509
87	0xc009b892	-2.1518903
88	0xbf4bcc3f	-0.7960853
89	0xbe6ea585	-0.23305328
90	0x3e39e11e	0.18152282
91	0x3d1c9fce	0.03823834
92	0x3e1b0afb	0.15140907
93	0x3e19f8e0	0.15036345
94	0xbddf5431	-0.1090473
95	0xbcf4b586	-0.029871713
96	0x3f85bdc2	1.0448534
97	0xbeeba842	-0.46026808
98	0xbdd08cec	-0.10183129
99	0x3ef6a667	0.4817383
100	0xbf51b307	-0.819138
101	0xbfc4f072	-1.5385878
102	0xbfed81bc	-1.8555217
103	0xbf57389e	-0.84070766
104	0x3ea8b4a9	0.32950333
105	0xbecbba7c	-0.39790714
106	0xbe619e8e	-0.2203314
107	0xc029238a	-2.6427941
108	0xbe06c1a1	-0.13159801
109	0xbf04f938	-0.5194278
110	0xbfd74c4f	-1.6820163
111	0x3f4d7a06	0.8026432
112	0xbdbea9bd	-0.09309719
113	0xbfc872ae	-1.5659997
114	0xbe167e74	-0.14696676
115	0x3e83060c	0.2559055
116	0xbf1fdea5	-0.62449104
117	0xbfafb246	-1.372628
118	0xbe823898	-0.25433803
119	0x3e3c5085	0.18390091
120	0x3fb21f1f	1.3915747
121	0xbee08487	-0.4385111
122	0xbddc28f4	-0.10749999
123	0xbf0c35d4	-0.54769635
124	0xbefc5f22	-0.4929133
125	0xbbe662b6	-0.00703081
126	0xbf265497	-0.64972824
127	0x3f9310ba	1.148948
128	0x3f03912e	0.513934
129	0x3fa2f44e	1.2730806
130	0x3ff13be3	1.8846401
131	0x3ef17416	0.4715888
132	0x3f597b5a	0.84953845
133	0xbdbf073a	-0.0932755
134	0x3da302d5	0.079595245
135	0xbf3472ce	-0.7048768
136	0x3e42da3d	0.19028564
137	0x3f07a4ab	0.5298564
138	0x3e63117b	0.22174637
139	0x3f796ed1	0.9743472
140	0xbf40c4e6	-0.75300443
141	0x3f184ba6	0.5949043
142	0xbde9404e	-0.11389218
143	0x3fce79a9	1.6130878
144	0x3f0374b7	0.5134997
145	0x3ef96d8c	0.4871639
146	0x3fa2e638	1.2726507
147	0xbf1fe565	-0.62459403
148	0xbf62e1a1	-0.8862553
149	0x3fed45be	1.8536909
150	0x3e8c4b8a	0.27401382
151	0x3e383598	0.17989194
152	0x3f934a94	1.1507134
153	0x3ecd175e	0.4005689
154	0xbf156582	-0.58358014
155	0x3e216d10	0.1576426
156	0x3f0e5e5b	0.55612725
157	0xbdc7873e	-0.09742592
158	0xbeec1c08	-0.46115136
159	0x3eb708a8	0.35748792
160	0xbfe87832	-1.8161681
161	0xbf718660	-0.94345665
162	0xbf2cd679	-0.6751476
163	0xbdb8f076	-0.09030239
164	0xbf6b074b	-0.91808003
165	0xbf01c781	-0.50695044
166	0x3fce3a95	1.6111628
167	0x3e046c84	0.1293202
168	0x3f7739b6	0.96572435
169	0xbcb3f494	-0.02196721
170	0xbdf6118a	-0.12015064
171	0x3fab374e	1.3376253
172	0x3e270b1e	0.16312835
173	0x3f9917c3	1.1960377
174	0x3ee16877	0.44025013
175	0x3fbcefd1	1.4760686
176	0x3f968dd4	1.1762033
177	0x3ebce4be	0.36893266
178	0xbe1c5835	-0.15268023
179	0xbeb58db5	-0.35459676
180	0x3f0c5f24	0.54832673
181	0x3f03cc06	0.5148319
182	0x3f834b97	1.0257443
183	0x3f1e46c0	0.61826706
184	0x3e4eb12a	0.2018477
185	0x3e3afdfa	0.18260947
186	0x3f2a7e58	0.66599035
187	0xbf0ea0a3	-0.5571386
188	0x4033e4ac	2.810832
189	0x3dd509bd	0.10402248
190	0x3f43a711	0.764268
191	0x3d95fab8	0.073232114
192	0xbfb80d71	-1.4379102
193	0xbd7672b4	-0.060167983
194	0x3e952ed5	0.29137293
195	0xbf6f7699	-0.9354034
196	0x3f5c5293	0.860635
197	0xbee643ba	-0.44973546
198	0x3ebb2f74	0.3655964
199	0x3f2ad4ed	0.6673115
200	0x3fb6bbdf	1.4276084
201	0x3fe87d6d	1.8163277
202	0xbe2bc49b	-0.16774218
203	0xc01b661f	-2.428108
204	0x3f9e9f4a	1.2392361
205	0x3e9943a7	0.29934427
206	0xbe87ec4f	-0.26547477
207	0xbf928e0b	-1.1449598
208	0xbf37f121	-0.7185231
209	0xbf09edc2	-0.53878415
210	0xbd6438ef	-0.05571836
211	0x3f47c26f	0.7803106
212	0x3e790433	0.24318008
213	0xbee82fda	-0.45349008
214	0xbf640ee7	-0.8908524
215	0xbec7ee11	-0.39048818
216	0xbf7acb08	-0.9796605
217	0x4005b82f	2.0893667
218	0x3da31cd0	0.0796448
219	0x3ea157a4	0.31512177
220	0xbf23588a	-0.63806975
221	0x3eae88b8	0.34088683
222	0x3f81b2fd	1.0132748
223	0x3e9feae1	0.31233886
224	0x3cf76496	0.03019933
225	0x3f5bf2cd	0.8591736
226	0x3ecabc0f	0.39596602
227	0xc00b06b4	-2.1722841
228	0x3fc65d86	1.5497291
229	0x3ee748e1	0.4517279
230	0x40606ffa	3.5068345
231	0xbea328f5	-0.31867185
232	0xbede39e3	-0.4340354
233	0xbd0d1fcb	-0.03445415
234	0x3f8ef099	1.1167175
235	0xbde6ad76	-0.11263554
236	0xbfa57670	-1.2926769
237	0xbce43bd2	-0.027860556
238	0x3f8ae399	1.0850707
239	0xbef2ec88	-0.47446084
240	0xbf848ab4	-1.0354829
241	0x3e6a8e13	0.2290576
242	0xbf20ce0a	-0.6281439
243	0x3e7b6227	0.24549161
244	0xbf948cd9	-1.1605483
245	0x3da2fbcf	0.07958185
246	0xbfad16af	-1.3522547
247	0xbdc36e25	-0.09542493
248	0xbe817781	-0.25286487
249	0x3ea5bdd8	0.32371402
250	0xbefdc42f	-0.4956374
251	0x3f2808f4	0.6563866
252	0xbf77c54c	-0.96785426
253	0x3dbb34ba	0.09140916
254	0xbd3c8a6e	-0.046030454
255	0xbf626440	-0.8843422

model_state f4 [64]
0	0x3ed367f0	0.41290236
1	0xbef8f3a5	-0.48623386
2	0x3e86548c	0.2623638
3	0x3f2b6848	0.66955996
4	0xbea683e7	-0.32522509
5	0x3f89c65f	1.0763663
6	0xbec7cc6f	-0.39023158
7	0xbdf0f9f1	-0.117664225
8	0x3e4488c3	0.19192795
9	0x3e3dc778	0.18533123
10	0x3f193386	0.59844244
11	0xbe2d6b78	-0.16935527
12	0xbf3bf2c8	-0.7341733
13	0xbfef2dbf	-1.8685836
14	0x3d8837ea	0.0665129
15	0xbf9c5ce6	-1.221585
16	0xbf3b9569	-0.73274857
17	0xbf1f1f4d	-0.62157136
18	0x400f5d41	2.2400668
19	0x3dfd508c	0.12368879
20	0x3fd0a307	1.6299752
21	0x3fa472fb	1.2847589
22	0x3e3e9d4d	0.18614693
23	0xbdf86366	-0.12128334
24	0xbf3551ba	-0.7082783
25	0x3f5a665e	0.8531245
26	0xbf6f1bfb	-0.9340207
27	0x3d5f9a4e	0.054590516
28	0x3e4f4077	0.20239435
29	0xc05037ff	-3.2534177
30	0x3f338dc1	0.70138174
31	0x3e8f1571	0.27946046
32	0xbde01231	-0.1094097
33	0xbf8cd598	-1.1002684
34	0xbf03eb18	-0.515306
35	0x3e1e60dc	0.15466636
36	0x4032c6ae	2.7933764
37	0xbe217e2f	-0.15770791
38	0x402d1a9d	2.7047493
39	0x3c984a05	0.018589983
40	0x3ea6b4fd	0.32559958
41	0xbddcfdb7	-0.1079058
42	0xbe92d826	-0.28680533
43	0x3bc8a65d	0.0061233477
44	0xbe9f0ad7	-0.31062958
45	0x3f84925c	1.0357165
46	0x3d49fb59	0.04931197
47	0x3fdf8fa1	1.7465707
48	0x3eca6cc7	0.39536116
49	0xbe64dd1e	-0.22349975
50	0xbf8be1ba	-1.0928261
51	0xbf0bfd0b	-0.5468299
52	0x3fc2b13b	1.5210336
53	0xbd016b4c	-0.031596467
54	0x3f3c0b75	0.7345498
55	0x3ec7a011	0.38989308
56	0xbec880c7	-0.3916075
57	0xbf2839eb	-0.65713376
58	0xbf8d5cb0	-1.1043911
59	0xbf95cbd6	-1.1702831
60	0xc0039540	-2.0559845
61	0xbec74a12	-0.389237
62	0x3f33bf3d	0.7021368
63	0x3fad8c51	1.3558446

model_state f4 [64]
0	0x3c64e8f9	0.013971561
1	0x3dee4e26	0.116359994
2	0x3e462397	0.19349514
3	0x3da34963	0.07972982
4	0x3dd7ce37	0.10537379
5	0x3bd980ad	0.006637654
6	0xbc8b985b	-0.017040422
7	0x3d0d1dec	0.034452364
8	0x3dd846bc	0.105603665
9	0x3ea9af67	0.33141634
10	0xbb327ce3	-0.0027235083
11	0x3c644ec1	0.013934792
12	0xbd19d35f	-0.037555095
13	0x3db40a17	0.08790987
14	0x3c1457d1	0.00905414
15	0x3e0242a0	0.12720728
16	0x3d7521e6	0.05984678
17	0x3dae68fa	0.085161164
18	0x3e8367b2	0.2566505
19	0x3c8dd4fe	0.017313477
20	0x3e0a781f	0.13522385
21	0x3cad8d57	0.02118556
22	0xbbd83a31	-0.006598734
23	0x3e1af327	0.15131818
24	0x3d06fceb	0.032956045
25	0x3d145a21	0.036218766
26	0x3dcf9153	0.1013514
27	0x3e1b003a	0.15136805
28	0x3e686f4c	0.22698706
29	0x3e1ef7f4	0.15524274
30	0x3e34dd09	0.17662443
31	0x3e8888c1	0.26666835
32	0x3e6bc9b3	0.23026161
33	0x3da0a30f	0.07843601
34	0x3d649c45	0.055813093
35	0x3da00227	0.078129105
36	0x3dc44752	0.09583916
37	0x3d16b730	0.036795795
38	0x3d1cfeb2	0.038328834
39	0xbb91ac95	-0.004445622
40	0x3d959681	0.07304097
41	0x3d915f0e	0.07098208
42	0x3dd1220a	0.102115706
43	0xbc60bb71	-0.0137165645
44	0x3d2acac0	0.041697264
45	0x3edcc2a5	0.43117252
46	0x3e4caeb9	0.19988526
47	0x3e177546	0.1479083
48	0x3da44baf	0.08022248
49	0x3cea33ba	0.028589118
50	0x3dae9f31	0.08526457
51	0x3e266008	0.1624757
52	0x3dfb4ae3	0.12270143
53	0x3e2c052e	0.16798851
54	0x3e3c881e	0.184113
55	0x3e82f573	0.25577888
56	0x3d1a648f	0.037693556
57	0x3ea094e9	0.3136361
58	0x3debbbbc	0.11510417
59	0x3e8d4aab	0.2759603
60	0x3dc1f660	0.094708204
61	0xbce260e3	-0.02763409
62	0x3ed6d56a	0.41959697
63	0x3e4401c5	0.191413

model_state f4 [64]
0	0xbe08ac38	-0.13346946
1	0xbe5f918a	-0.21832862
2	0xbe939308	-0.28823113
3	0xbcaa4e78	-0.02078937
4	0xbe8e1441	-0.27749828
5	0xbe299f59	-0.16564693
6	0xbe348aac	-0.17631024
7	0xbe28d53a	-0.1648759
8	0xbe794096	-0.24341044
9	0xbe0886c5	-0.1333266
10	0xbdec29fd	-0.11531446
11	0xbe002735	-0.12514956
12	0xbdfd8554	-0.12378946
13	0xbd7305f3	-0.059331845
14	0xbe37811f	-0.1792035
15	0x3ce264a6	0.027635884
16	0xbe181150	-0.14850354
17	0xbe2e0bf2	-0.16996744
18	0x3d92e1b0	0.07171953
19	0xbdb6471d	-0.089002825
20	0xbe8399cc	-0.25703275
21	0xbe01be3c	-0.12670225
22	0xbde30e9f	-0.11086773
23	0xbefc833b	-0.4931887
24	0xbe322b04	-0.17399222
25	0xbe08a800	-0.13345337
26	0xbe80ec99	-0.2518051
27	0xbea8110b	-0.32825503
28	0xbe43f7b4	-0.1913746
29	0x3cacb4db	0.021082332
30	0xbd95c887	-0.07313638
31	0xbd87b40e	-0.066261396
32	0x3c99118c	0.018685125
33	0xbe479992	-0.19492176
34	0xbdc1af03	-0.09457209
35	0xbe6c8053	-0.23095827
36	0xbd218a38	-0.039438456
37	0xbd243d2f	-0.04009741
38	0x3d44d271	0.048052255
39	0xbe00629a	-0.12537614
40	0xbe6a94f5	-0.22908385
41	0xbe8a0f93	-0.26965007
42	0xbe9d7609	-0.30754116
43	0xbdcba668	-0.09943849
44	0xbe8dc49d	-0.27689067
45	0xbdd642a6	-0.10461931
46	0x3c19984e	0.009374691
47	0xbd00fa30	-0.031488597
48	0xbe6d329a	-0.23163834
49	0xbb9b17ba	-0.004733053
50	0xbe19d54f	-0.15022777
51	0x3cf0a758	0.02937667
52	0xbea68029	-0.32519653
53	0xbd79e0f6	-0.061005555
54	0xbd14dd4f	-0.03634387
55	0x3ca3a2d8	0.01997511
56	0xbdef9d00	-0.11699867
57	0xbdb7455c	-0.08948776
58	0xbec19ce3	-0.37815008
59	0x3e0235c5	0.12715824
60	0xbdde807f	-0.108643524
61	0xbeb5b39d	-0.35488597
62	0xbeacfd2b	-0.33786902
63	0xbdfdb8fb	-0.12388798

model_state f4 [64]
0	0xbfa26b23	-1.2688946
1	0xc1ae33e5	-21.77534
2	0x41ee3fe5	29.781199
3	0x3ff460cb	1.9092039
4	0xc1c7add2	-24.959873
5	0x407ef561	3.9837267
6	0x40a76eeb	5.23229
7	0xc193a7cd	-18.456934
8	0x40288eab	2.6337078
9	0xc2034b77	-32.823696
10	0xbfdbf8dc	-1.7185321
11	0xc1699d1d	-14.600858
12	0xc17bf70b	-15.747813
13	0x414840ef	12.515853
14	0x40b7bb74	5.7416325
15	0x40e7a80b	7.239263
16	0xc155e11b	-13.367457
17	0xc0d7b60e	-6.7409735
18	0x41898ab0	17.192719
19	0xc113dff1	-9.242173
20	0x4067002c	3.6093855
21	0xbf8dd7a8	-1.1081438
22	0xc11c81d9	-9.781701
23	0xc1036f99	-8.2147455
24	0xc1453f57	-12.327964
25	0xc0c82810	-6.2548904
26	0xc139adde	-11.604948
27	0xc16a33ce	-14.637648
28	0x41c87780	25.05835
29	0xc11c0d91	-9.753312
30	0xc1a7f873	-20.996313
31	0xc18f7282	-17.930912
32	0x40e094bc	7.018156
33	0xc0e73e89	-7.2263837
34	0xc20f6246	-35.84597
35	0xc1bd156f	-23.635466
36	0xc19a7603	-19.307623
37	0xbfa7a520	-1.3097267
38	0xc0ad6f23	-5.4198165
39	0xc02961fe	-2.646606
40	0xc1a12507	-20.14308
41	0xbfa1308e	-1.2592943
42	0xc165a8cc	-14.35371
43	0xc0924ba0	-4.5717316
44	0xc0e59253	-7.174112
45	0xc19181b8	-18.18834
46	0xc15f9933	-13.974902
47	0x40a61b4d	5.1908326
48	0xc0f44806	-7.633792
49	0x40c8e620	6.2780914
50	0xc1e5fe0b	-28.749044
51	0xc12ac45e	-10.672941
52	0x408dca37	4.4309344
53	0xc1967451	-18.806795
54	0x412b2e5c	10.698818
55	0xc14cd5d4	-12.802204
56	0xc1a3bd3c	-20.4674
57	0xc1a42f91	-20.523226
58	0xc0918b8a	-4.5482836
59	0x420fd17a	35.954567
60	0xc0c4ca9c	-6.1497326
61	0xc1c7d3aa	-24.978352
62	0xc13af5fa	-11.685053
63	0xc17110b0	-15.066574

model_state f4 [64]
0	0x42df6eec	111.716644
1	0x4430a54a	706.58264
2	0x441979c7	613.9028
3	0x43c61d82	396.23053
4	0x43a132c8	322.39673
5	0x439e11c5	316.13882
6	0x42762460	61.535522
7	0x434d3fce	205.24924
8	0x434b207e	203.12692
9	0x44971085	1208.5162
10	0x42f8df49	124.436104
11	0x428b7678	69.731384
12	0x430160c8	129.37805
13	0x43a45516	328.66473
14	0x434ac2e0	202.76123
15	0x43a24ccc	324.59998
16	0x43b0b164	353.38586
17	0x43b4809b	361.00473
18	0x448b08fd	1112.2809
19	0x437787c2	247.5303
20	0x43c0cd11	385.60208
21	0x43430810	195.0315
22	0x4287b389	67.850655
23	0x4265e52c	57.4738
24	0x431f6bf8	159.42175
25	0x42a5c3e7	82.88262
26	0x425e8105	55.625996
27	0x434a04ae	202.01828
28	0x441a3b51	616.9268
29	0x44353371	724.8038
30	0x44374a67	733.16254
31	0x44923fb6	1169.991
32	0x442bced8	687.23193
33	0x4324b7f2	164.71854
34	0x43ecd081	473.62894
35	0x427b9dce	62.904106
36	0x43958664	299.04993
37	0x4391a14f	291.26022
38	0x439dece0	315.8506
39	0x42d7fc4f	107.99279
40	0x4316ce62	150.80618
41	0x4218bb47	38.182888
42	0x4283e55d	65.947975
43	0x4309b50b	137.7072
44	0x420498eb	33.149334
45	0x448fe079	1151.0148
46	0x44156675	597.6009
47	0x442a7ec4	681.9807
48	0x42abd55c	85.91672
49	0x4388be0e	273.4848
50	0x4379455f	249.27098
51	0x444cd915	819.3919
52	0x43984519	304.53983
53	0x440bb41d	558.8143
54	0x444c6ca1	817.6973
55	0x44580f22	864.23645
56	0x424a05dc	50.505722
57	0x44648f52	914.2394
58	0x430b2b67	139.16954
59	0x44a2adba	1301.429
60	0x43948826	297.06366
61	0x438b3f6c	278.49548
62	0x447baa71	1006.66315
63	0x4451b79a	838.8688

encoder.mean_encoder.weight f4 [10, 64]
0	0x3d9f1293	0.077672146
1	0x3bb3a16b	0.005481889
2	0x3cd303c3	0.02575863
3	0xbe317548	-0.17329895
4	0x3e14fcbe	0.14549538
5	0xbd8a77a9	-0.067611046
6	0xbe29be31	-0.16576459
7	0xbf00209e	-0.5004977
8	0x3e3e1717	0.18563496
9	0xbc47b524	-0.012189183
10	0xbd8e982c	-0.06962618
11	0x3cfc8422	0.030824725
12	0xbcbf631c	-0.023362689
13	0x3ee9b779	0.4564779
14	0x3ddba1cf	0.10724222
15	0x3fbbde42	1.4677203
16	0x3e83af21	0.2571955
17	0x3e0df2c5	0.1386214
18	0x3c81799b	0.015805056
19	0x3ecd9a45	0.4015676
20	0x3e791ed5	0.24328168
21	0x3d51c8bb	0.051216822
22	0xbf674c64	-0.9035094
23	0xbe5e81c1	-0.21729185
24	0xbd3bd614	-0.045858458
25	0xbd895b78	-0.067068994
26	0xbe59521a	-0.21222726
27	0xbe49fd68	-0.19725573
28	0xbdd1694c	-0.10225162
29	0x3ea6ce77	0.32579395
30	0xbdcccc9e	-0.09999965
31	0xbec7a651	-0.38994077
32	0x3e83d80e	0.25750774
33	0x3c5cc894	0.013475556
34	0xbf4791bf	-0.77956766
35	0xbe04e801	-0.12979127
36	0xbeaf7e86	-0.34276217
37	0xbcbb0fd9	-0.022834705
38	0x3daedc8d	0.085381605
39	0xbd33766b	-0.043814104
40	0x3c3eaef4	0.011638392
41	0x3d247836	0.040153705
42	0xbd225bd7	-0.039638367
43	0xbd8710d5	-0.06595007
44	0xbb2c0489	-0.002624782
45	0xbccf2c0d	-0.02528956
46	0xbe3cf93a	-0.18454447
47	0xbe9f49ad	-0.31110898
48	0xbf298bac	-0.6622875
49	0xbe58fec2	-0.21190932
50	0xbf026e7d	-0.5094984
51	0xbec22388	-0.37917733
52	0x3ea89c93	0.32931957
53	0xbdb438fc	-0.087999314
54	0xbe544f74	-0.20733434
55	0x3e5ce7d2	0.21572807
56	0xbed8f584	-0.42374814
57	0xbdc83902	-0.097764984
58	0xbd55be33	-0.05218334
59	0xbde44c92	-0.11147417
60	0x3e09940c	0.13435382
61	0x3e36bcf9	0.17845525
62	0x3d31d7fe	0.043418877
63	0x3d7a2f11	0.061080042
64	0xbd4d298f	-0.05008846
65	0xbe5f5ea9	-0.21813454
66	0xbe37c032	-0.1794441
67	0x3f243793	0.641473
68	0x3db28735	0.08717195
69	0xbf3dcfd7	-0.74145263
70	0x3ed57241	0.4168873
71	0xbf1295de	-0.5725993
72	0x3e048268	0.12940371
73	0xbf56e4b0	-0.839427
74	0xbea89730	-0.32927847
75	0xbe0fd04d	-0.14044304
76	0xbf012c88	-0.50458574
77	0x3eaf7696	0.3427016
78	0x3ef9af7a	0.4876669
79	0xbd9c76da	-0.07639857
80	0xbe8aa4cf	-0.27078864
81	0xbcbf8185	-0.02337719
82	0xbf2ba7ac	-0.6705272
83	0xbeca1cb2	-0.39475018
84	0xbd429a41	-0.04751039
85	0x3ef8fccd	0.48630372
86	0xbd690cc4	-0.05689694
87	0xbd292e56	-0.041303955
88	0xbc6b8e01	-0.014377118
89	0xbd62e877	-0.055397477
90	0xbe8e21ff	-0.27760312
91	0xbc1bdb84	-0.009512786
92	0xbe54ae92	-0.20769718
93	0x3f3381b3	0.7011978
94	0x3d78ede8	0.06077376
95	0xbce8c9e6	-0.028416585
96	0x3e2b6ff5	0.16741927
97	0x3af9c89f	0.0019056982
98	0xbe100baf	-0.14066957
99	0xbe9035b2	-0.28165966
100	0xbe2c6bda	-0.16838017
101	0xbe0ed397	-0.13947903
102	0x3f721c73	0.9457466
103	0x3e173a2c	0.14768285
104	0xbe5a8857	-0.21341072
105	0xbd5a41f7	-0.053285565
106	0xbef7827a	-0.48341733
107	0xbbcee08f	-0.0063133906
108	0xbe908883	-0.2822915
109	0x3e2e6961	0.17032386
110	0xbe2d54a6	-0.16926822
111	0xbf0821eb	-0.53176755
112	0xbd38f7b1	-0.045158092
113	0x3e27f23c	0.16400999
114	0xbe021aa9	-0.12705483
115	0x3e10cf4d	0.14141579
116	0x3ebe7550	0.37198877
117	0x3ab52642	0.0013820606
118	0xbdc1c5e8	-0.09461576
119	0x3c69d494	0.014271874
120	0xbc2db27c	-0.010601636
121	0xbbda40ee	-0.0066605723
122	0x3ce194b1	0.027536722
123	0x3f909e94	1.1298394
124	0xbefeb3d2	-0.49746567
125	0xbe5b0c3d	-0.21391387
126	0xbdcc1816	-0.099655315
127	0x3bfbc2a0	0.007683113
128	0xbecdd635	-0.4020249
129	0xbd93dfd3	-0.072204255
130	0x3d5b8570	0.053594053
131	0x3e0b65f8	0.13613117
132	0xbf00feaf	-0.50388616
133	0x3f251eb4	0.64499974
134	0x3deb6460	0.114937544
135	0x3e4f3096	0.20233378
136	0xbde0404b	-0.10949763
137	0xbe85bd5c	-0.26121032
138	0x3e59e632	0.21279219
139	0xbe0ff514	-0.14058334
140	0xbcb7f19a	-0.022454072
141	0xbb89587a	-0.0041914554
142	0xbe20844d	-0.15675469
143	0x3df800f9	0.121095605
144	0x3e3e5441	0.18586828
145	0x3e1b8435	0.15187152
146	0xbd3ed505	-0.04658987
147	0x3f75b70b	0.95982426
148	0x3e88c71b	0.26714405
149	0x3e05785e	0.13034198
150	0x3e3fac14	0.18717986
151	0xbe756df7	-0.2396773
152	0xbcda08a9	-0.026615458
153	0x3cba96e7	0.022777034
154	0xbe64edf2	-0.22356394
155	0x3e99bee8	0.30028462
156	0xbdbad8e4	-0.091234
157	0x3ea152b1	0.315084
158	0xbeb43d1b	-0.3520287
159	0xbd54e41e	-0.051975362
160	0xbd2326a0	-0.039831758
161	0xbe0597f7	-0.13046251
162	0xbe3ca9eb	-0.18424194
163	0x3c5ab3f4	0.013348568
164	0x3dfa8170	0.122317195
165	0x3d7ba683	0.061438095
166	0xbf310f6c	-0.69164157
167	0xbd83cf34	-0.06436005
168	0xbd55fc20	-0.0522424
169	0x3db5922c	0.08865771
170	0x3da1a162	0.078921095
171	0x3e886432	0.26638943
172	0x3d88ba0b	0.0667611
173	0x3c885dcb	0.016646286
174	0x3d98c108	0.07458693
175	0xbf1ae11f	-0.6049976
176	0xbdffc202	-0.12488176
177	0xbf36e58d	-0.71444017
178	0x3d736232	0.05941982
179	0x3d086366	0.03329792
180	0x3d0ac9cc	0.033883855
181	0xbe28d112	-0.16486004
182	0xbe28f317	-0.16498981
183	0x3e468ec9	0.19390406
184	0xbe929dbf	-0.28635976
185	0x3dbfb669	0.09360964
186	0x3d9f8b80	0.077902794
187	0x3ea8adff	0.32945248
188	0xbe28803b	-0.16455166
189	0xbc30119a	-0.010746384
190	0xbd353d0f	-0.044247683
191	0x3e1c2ed0	0.15252233
192	0x3e90fa12	0.28315789
193	0xbcf53adb	-0.029935291
194	0xbd096025	-0.033538956
195	0x3f785e99	0.97019345
196	0xbdae8b0d	-0.085226156
197	0x3ec7e81c	0.39044273
198	0x3e990084	0.29883206
199	0x3e0956b0	0.13411975
200	0x3e4fdc66	0.20298919
201	0x3d70dcc3	0.058804285
202	0xbe9a3931	-0.3012176
203	0xbdf19449	-0.11795861
204	0xbec2e459	-0.3806484
205	0xbe8108fc	-0.25202167
206	0x3ec8341f	0.39102265
207	0x3eb651fa	0.35609418
208	0xbe8a83f9	-0.27053812
209	0x3e0fb723	0.14034705
210	0xbe952755	-0.2913157
211	0xbef73137	-0.48279735
212	0x3e77114c	0.24127692
213	0x3ea64da1	0.324811
214	0x3db8fccb	0.090325914
215	0x3de92868	0.1138466
216	0xbf4256b2	-0.75913537
217	0x3c0540b5	0.008133103
218	0x3bf5a836	0.007496859
219	0xbe0ee13c	-0.13953108
220	0xbd1996f4	-0.037497476
221	0xbe95608b	-0.2917522
222	0x3dfd44e5	0.12366656
223	0xbe810899	-0.25201872
224	0x3e8c89f0	0.27448988
225	0xbd8b3f4b	-0.067991816
226	0x3e2fcabc	0.17167181
227	0x3dbee7b6	0.09321539
228	0x3e9dff57	0.3085887
229	0xbccb2608	-0.024798408
230	0xbf0a82b4	-0.5410569
231	0x3f67ed3e	0.9059638
232	0xbe2fc281	-0.17164041
233	0xbca637d1	-0.020290287
234	0xbc279353	-0.010227996
235	0xbe97a7f5	-0.2962033
236	0xbe1346b5	-0.14382441
237	0x3df303e2	0.11865975
238	0xbea6fdcb	-0.32615504
239	0x3f0e15c0	0.5550194
240	0xbdb5eb4e	-0.088827714
241	0x3ecbde73	0.39818153
242	0xbeb4570f	-0.3522267
243	0x3d428864	0.047493353
244	0x3a866074	0.0010252134
245	0x3dcdb35f	0.10043978
246	0x3cc1ec3e	0.02367222
247	0xbd9ed05f	-0.077545874
248	0xbda1ad88	-0.078944266
249	0x3ded6ffe	0.115936264
250	0xbd9f79bf	-0.07786893
251	0xbcb6eb77	-0.022329075
252	0xbf349811	-0.70544535
253	0xbbc82881	-0.006108344
254	0x3d728f31	0.05921859
255	0x3d44fc10	0.048091948

encoder.mean_encoder.bias f4 [10]
0	0xbd2f5eda	-0.042815067
1	0xbe23cf83	-0.15997128
2	0xbce940a5	-0.028473208
3	0xbca309bb	-0.0199021
4	0x3d073727	0.03301158
5	0x3d81a092	0.063294545
6	0x3d56b93c	0.052422747
7	0xbda228d8	-0.079179466
8	0xbd5491c8	-0.05189684
9	0x3e96d1c3	0.2945691

encoder.var_encoder.weight f4 [10, 64]
0	0xbcf357fe	-0.029705044
1	0xbc11708f	-0.008876934
2	0xbe07711d	-0.13226743
3	0xbbcc1ef9	-0.006229278
4	0x3e026941	0.12735464
5	0x3b63d4f0	0.0034764372
6	0x3c7e40eb	0.015518407
7	0x3e0fdf09	0.14049925
8	0xbdcf578a	-0.101241186
9	0x3db2ef77	0.087370805
10	0xbd853253	-0.06503739
11	0x3cb5637b	0.022142163
12	0x3d8a918e	0.067660436
13	0x3d291b41	0.041285757
14	0xbd02b6f9	-0.031912778
15	0xbd52d2a3	-0.05147041
16	0xbd6ee904	-0.05832769
17	0xbe2b418c	-0.16724223
18	0x3c283f1c	0.010268953
19	0x3d3b586d	0.045738626
20	0x3d9fce5b	0.07803031
21	0xbd3cccac	-0.046093628
22	0x3e5b30b6	0.214053
23	0x3dd47af7	0.10375016
24	0x3d2242ed	0.039614607
25	0xbcf2d889	-0.029644268
26	0x3e048377	0.12940775
27	0x3d9cffeb	0.07666
28	0x3b05b5a8	0.0020402465
29	0xbd598b7e	-0.053111546
30	0x3b42e941	0.002974108
31	0xbd198e10	-0.037488997
32	0x3d622ca4	0.055218354
33	0x3dd97cb6	0.1061949
34	0x3e2366a2	0.1595712
35	0x3dd61e16	0.10454957
36	0x3c50d3dd	0.012745825
37	0xbd33cba2	-0.04389537
38	0xbd42cd29	-0.047558937
39	0xbca3ab04	-0.019979008
40	0x3db7ed5e	0.08980821
41	0x3bbf037a	0.005829272
42	0x3e09cb5f	0.13456486
43	0x3b636f77	0.003470389
44	0x3e154e47	0.14580642
45	0xbd8d730a	-0.069067076
46	0x3dbaa7d3	0.09114041
47	0x3d1ddb6f	0.038539346
48	0x3dd4032c	0.103521675
49	0xbc85cf15	-0.016334096
50	0x3d5c4546	0.053777
51	0x3d99a9ed	0.07503114
52	0x3c13fb5c	0.009032097
53	0xbc5c429f	-0.013443618
54	0x3c5d7f20	0.0135190785
55	0x3ccffb43	0.025388366
56	0x3d920238	0.071293294
57	0x3b866956	0.0041019125
58	0xbe2ab991	-0.1667235
59	0xbd31f8d2	-0.043450184
60	0xbc8882c7	-0.016663922
61	0xbd4d4084	-0.050110355
62	0x3defcef3	0.11709394
63	0x3c8949d4	0.016758837
64	0x3d6ef1db	0.05833612
65	0x3d9a3f37	0.075315885
66	0xbdbb8724	-0.091566354
67	0x3b3717e1	0.0027937817
68	0x3dfc2ae6	0.1231287
69	0x3b8ab9ad	0.00423356
70	0xbc283b8d	-0.010268104
71	0x3eb8a62a	0.36064273
72	0x3d6f37c9	0.05840281
73	0x3d4560fe	0.048188202
74	0x3dd47c56	0.10375278
75	0x3d0e5037	0.034744468
76	0x3dbc8086	0.092042014
77	0xbbd1570c	-0.0063885506
78	0x3cdf3ab7	0.027249677
79	0xbd38e81f	-0.045143243
80	0x3d88ea6e	0.06685339
81	0x3e59c8ad	0.21267958
82	0x3d50dd8a	0.050992526
83	0x3e27f99a	0.16403809
84	0x3c8195b3	0.015818452
85	0x3d29faa3	0.04149879
86	0x3da59ad5	0.080861725
87	0xbcb116fc	-0.021617405
88	0x3d941ce7	0.07232075
89	0x3dd09d8d	0.101863004
90	0x3e11f2a4	0.14252716
91	0x3e101fac	0.14074582
92	0x3d15edf2	0.036603875
93	0x3d694fc4	0.056960836
94	0xbddc65e5	-0.10761622
95	0xbb942129	-0.0045205546
96	0x3d0a5673	0.03377385
97	0xbd287b07	-0.041132953
98	0x3bb35f6a	0.0054740207
99	0x3e144e3f	0.14482974
100	0x3ca8ebbc	0.02062022
101	0x3c7cc5af	0.015427991
102	0x3d165780	0.03670454
103	0xbd03e22e	-0.032198124
104	0x3db96bad	0.09053741
105	0xbe0171b3	-0.12641029
106	0x3ed2777d	0.41106787
107	0x3cc03b70	0.023465842
108	0x3e58c871	0.21170212
109	0xbd8e0eba	-0.069364026
110	0x3c971f60	0.018447578
111	0x3c341a18	0.010992549
112	0x3e28a138	0.1646775
113	0xbd2e0cbe	-0.04249262
114	0x3e2989d0	0.16556478
115	0xbc07a7b0	-0.008279726
116	0xbe486023	-0.19567923
117	0x3c2c171b	0.010503556
118	0xbc6b76c0	-0.014371574
119	0xbd119a40	-0.035547495
120	0xbd2f1c60	-0.04275167
121	0x3d7827dc	0.060584888
122	0x3d407300	0.046984673
123	0x3d395d5a	0.045255043
124	0xbceddfd7	-0.0290374
125	0x3d3b15bd	0.045675028
126	0xbd00a706	-0.031409286
127	0x3ca780dc	0.020447187
128	0x3db6726c	0.08908543
129	0xbd3783cf	-0.044803437
130	0x3c8ac14a	0.01693787
131	0x3daa4447	0.08313804
132	0x3eeb15fd	0.45915213
133	0xbcfc2ab2	-0.030782077
134	0xbc86c785	-0.01645256
135	0xbdde57b9	-0.108565755
136	0x3d8271e0	0.06369376
137	0x3da4593a	0.08024831
138	0xbce6d7f0	-0.028179139
139	0x3dbb0d6b	0.09133419
140	0x3d054846	0.03253963
141	0x3d05a2a7	0.03262582
142	0x3c0ef150	0.008724526
143	0xbd63d59a	-0.05562363
144	0xbae56788	-0.0017502168
145	0xbd0ca0a1	-0.034332875
146	0xbc464484	-0.012101296
147	0x3de78551	0.11304725
148	0x3d8dfe9f	0.06933331
149	0x3d8853b7	0.06656592
150	0x3e318781	0.17336847
151	0x3e18942c	0.14900273
152	0xbc1d9de7	-0.009620166
153	0x3e5c9f7f	0.21545218
154	0x3ecd2f40	0.4007511
155	0xbe07f76c	-0.13277978
156	0xbd719c99	-0.058987234
157	0xbd14d277	-0.036333527
158	0x3d980317	0.07422464
159	0x3d165287	0.036699798
160	0x3abfdef8	0.0014638593
161	0x3d1f8873	0.038948487
162	0x3e415835	0.18881305
163	0x3df23a9a	0.118275836
164	0x3e0714c6	0.13191518
165	0x3ccb737c	0.02483534
166	0x3d009796	0.031394564
167	0x3d2f386f	0.04277843
168	0x3e5b9d30	0.21446681
169	0x3d650156	0.055909477
170	0x3b86bf56	0.0041121645
171	0x3dc4fc43	0.096184276
172	0x3ded94ca	0.11600645
173	0x3c2a7978	0.010404937
174	0x3cc379ba	0.023861755
175	0x3d0783b2	0.03308458
176	0x3ca0ceca	0.019629855
177	0x3bb410e5	0.005495178
178	0x3d9d5b0f	0.07683384
179	0x3d238eb6	0.03993102
180	0xbc0209ed	-0.007936937
181	0xbc4a00c1	-0.012329281
182	0x3d5d57a3	0.054038655
183	0xbc35c2b7	-0.011093787
184	0x3e2bda95	0.16782601
185	0x3dc183fe	0.09449004
186	0xbe66d06d	-0.22540446
187	0x3b2a3ae6	0.0025975048
188	0xbd0262f5	-0.031832654
189	0xbdefac75	-0.117028154
190	0xbdfd0429	-0.12354309
191	0x3d201429	0.039081726
192	0xbcb02ae4	-0.021504827
193	0xbd560389	-0.052249465
194	0xbcd49295	-0.025948802
195	0xbcc3b282	-0.02388883
196	0x3e1973d1	0.14985587
197	0xbd8dbf31	-0.069212325
198	0xbd666bad	-0.05625503
199	0xbda74831	-0.08168066
200	0xbcb792e3	-0.022408908
201	0x3d9ad681	0.075604446
202	0x3cca4db3	0.024695253
203	0xbb6f5604	-0.0036519775
204	0x3d9e4397	0.077277355
205	0xbd54eaa3	-0.05198158
206	0xbc7677e2	-0.015043231
207	0xbc67d799	-0.014150524
208	0x3d8df99b	0.06932374
209	0xbd145f5e	-0.03622376
210	0xbd224629	-0.03961769
211	0x3e33b264	0.1754852
212	0xbe17e36d	-0.1483285
213	0xbd45e097	-0.04830989
214	0x3da46f27	0.08029013
215	0xbd8b670f	-0.06806766
216	0x3c915cbb	0.017744413
217	0x3dc571e6	0.09640865
218	0x3d1946a1	0.037420873
219	0x3c18628f	0.009300842
220	0xbd0eba3f	-0.034845587
221	0x3c1acb5d	0.0094479
222	0x3bdc4d11	0.006723054
223	0x3cb59fab	0.022170862
224	0x3d91a3a6	0.071112916
225	0xbcc2fbbe	-0.02380168
226	0x3d0b8b8f	0.03406864
227	0xbd02d323	-0.031939637
228	0xbc1e4b34	-0.0096614845
229	0xbd0ca14f	-0.034333523
230	0x3dbf887e	0.09352206
231	0x3d4364ab	0.047703426
232	0x3d4f5226	0.050615452
233	0xbde4cc30	-0.11171758
234	0xbe16eb6a	-0.14738241
235	0x3e49081f	0.19632004
236	0x3e6e898d	0.23294659
237	0xbd0a15ec	-0.033712313
238	0xbc2c81d8	-0.010529004
239	0x3cc2f77b	0.023799649
240	0xbda9f78b	-0.08299168
241	0x3d6f7f48	0.058470994
242	0x3dbe20d4	0.09283605
243	0x3cc4b630	0.024012655
244	0xbbdd5519	-0.006754529
245	0xbc32f64a	-0.010922978
246	0x3d36b3dd	0.044605125
247	0x3c96c8b3	0.018406248
248	0xbcd7a493	-0.026323592
249	0xbd0a5bbe	-0.0337789
250	0xbdb76705	-0.08955196
251	0x3ab4adba	0.0013784685
252	0xbc965415	-0.01835064
253	0xbc1e2976	-0.00965344
254	0x3ccadea6	0.02476437
255	0xbd1d4296	-0.03839358

encoder.var_encoder.bias f4 [10]
0	0xbce0b926	-0.027432036
1	0xbc828708	-0.015933529
2	0xbc87f25a	-0.016595054
3	0xbcf4486f	-0.029819695
4	0xbc0abf98	-0.008468531
5	0xbd3d0242	-0.04614473
6	0xbb189244	-0.002328054
7	0xbf497d7f	-0.78707117
8	0xbc9f7617	-0.01946549
9	0xbf3aba64	-0.7294066

decoder.linear_latent.log_scale_weight f4 [20, 10]
0	0xbfa7f068	-1.3120241
1	0xc097114e	-4.7208624
2	0xbfdb7234	-1.7144227
3	0xc01d9bb2	-2.462628
4	0xc063b83e	-3.5581203
5	0xc0819535	-4.0494637
6	0xc0a24b5f	-5.0717006
7	0xbfbbb15b	-1.46635
8	0xc09352ce	-4.603858
9	0xbf8da856	-1.1066997
10	0xc0a10da3	-5.0329146
11	0xc0cf9023	-6.486345
12	0xc0bb669c	-5.8562756
13	0xc083367c	-4.100401
14	0xc0b4d4d0	-5.650978
15	0xc087db9d	-4.2455583
16	0xc0cfa411	-6.4887776
17	0xc0c33ef3	-6.101434
18	0xc0ac2411	-5.3794026
19	0x4047885d	3.117698
20	0xc01b458d	-2.42612
21	0xc087ddd7	-4.24583
22	0xc0416911	-3.0220377
23	0xc0735d5d	-3.8025734
24	0xc0085325	-2.1300747
25	0xc0800aed	-4.0013337
26	0xc072104d	-3.782245
27	0x40115701	2.2709353
28	0xc041ff7a	-3.031218
29	0x3f00c533	0.503009
30	0xbfa71bed	-1.3055397
31	0xc052f97f	-3.296478
32	0xc017833e	-2.3673854
33	0xc0320fdd	-2.7822182
34	0xc0a29081	-5.0801396
35	0xc04e5842	-3.2241368
36	0xc0ba4311	-5.820687
37	0xc040c547	-3.0120409
38	0xc09ecccd	-4.9625
39	0xbf766d63	-0.9626066
40	0xc0976f8a	-4.7323656
41	0xbf7d0c10	-0.9884653
42	0xc0670893	-3.6098983
43	0xc0b3dac2	-5.620454
44	0xc0848be4	-4.1420765
45	0xc0ad50b6	-5.4161024
46	0xc09ebdef	-4.9606853
47	0xc0ac536e	-5.3851843
48	0xc0ad045c	-5.406782
49	0x3ec37484	0.38174832
50	0xc08ee4ae	-4.465415
51	0xc08319c4	-4.096895
52	0xc10d226a	-8.820902
53	0xc0948ca9	-4.6421704
54	0xc0937b78	-4.608822
55	0xc0eab401	-7.334473
56	0xc0642b7c	-3.565154
57	0xbe9b2515	-0.3030173
58	0xc0d0e485	-6.5278955
59	0x40259674	2.587308
60	0xc0a6e7aa	-5.2157793
61	0xc0c05f3c	-6.0116253
62	0xc0140e4d	-2.3133729
63	0xc1004d77	-8.018912
64	0xc08f797f	-4.483581
65	0xc0874d9a	-4.228223
66	0xc03bfce7	-2.937311
67	0x3fd6202d	1.6728569
68	0xc047bbb3	-3.1208313
69	0xbf23ce98	-0.6398711
70	0xbf84682f	-1.0344294
71	0xc0a2a12a	-5.0821733
72	0xc04de4c7	-3.2170885
73	0xc088fc1a	-4.280774
74	0xc09038ae	-4.506919
75	0xc08d7836	-4.420924
76	0xc0913e23	-4.538835
77	0xbfc4ef52	-1.5385535
78	0xc0679cbb	-3.618941
79	0x3f58bddf	0.8466472
80	0xbf744f25	-0.95433265
81	0xc010d33d	-2.262893
82	0xc0239eb4	-2.5565615
83	0xc0584423	-3.3791587
84	0xc024c08b	-2.574252
85	0xc04bffad	-3.1874802
86	0xc0333102	-2.7998662
87	0x3fb83657	1.4391583
88	0xc038cf57	-2.887655
89	0xc0af69a4	-5.4816456
90	0xbf88e9d1	-1.0696355
91	0xc08438ac	-4.131918
92	0xc06b5753	-3.6772048
93	0xc02aa40b	-2.6662624
94	0xc0803528	-4.006489
95	0xc083ce37	-4.1189227
96	0xc083973a	-4.1122103
97	0xbe216d90	-0.15764451
98	0xc02b582f	-2.6772573
99	0x3e72768c	0.23678035
100	0xbf994ffc	-1.1977534
101	0xc065b38d	-3.589084
102	0xc0873325	-4.224993
103	0xc025c67b	-2.5902393
104	0xc0858108	-4.172001
105	0xc093b297	-4.6155505
106	0xc046581a	-3.0991273
107	0xc088c829	-4.2744336
108	0xc089b81c	-4.3037243
109	0xbfb0c4c4	-1.3810048
110	0xc0acdec7	-5.4021945
111	0xc0aefef2	-5.4686213
112	0xc07cf1e1	-3.952263
113	0xbff10a7d	-1.8831326
114	0xc075fc58	-3.8435268
115	0xc0ebc420	-7.367691
116	0xc0afd263	-5.494432
117	0x3e420cf3	0.18950252
118	0xc07b2868	-3.9243412
119	0xbec583ac	-0.3857702
120	0xbf6d874c	-0.9278457
121	0xc092ab04	-4.583376
122	0xbffc339a	-1.9703248
123	0xc062823b	-3.5391986
124	0xc03978bb	-2.8979938
125	0xc078c876	-3.8872352
126	0xc082030b	-4.0628715
127	0xbd3e3df8	-0.046445817
128	0xc0741376	-3.8136878
129	0xbf8d1032	-1.1020567
130	0xc0c6d7a2	-6.2138224
131	0xc0c037dc	-6.006819
132	0xc0ba629f	-5.8245387
133	0xc0ce6ccf	-6.4507823
134	0xc0a880cf	-5.2657237
135	0xc0ec86d6	-7.3914595
136	0xc074248b	-3.8147304
137	0x3fa515fc	1.2897334
138	0xc0c5699c	-6.169142
139	0xc0c35372	-6.103936
140	0xc09bafff	-4.865234
141	0xc0b56824	-5.6689625
142	0xc0e078d7	-7.014751
143	0xc0e0b459	-7.022015
144	0xc0b7aaa1	-5.7395787
145	0xc0c08e1a	-6.0173464
146	0xc0787a45	-3.8824627
147	0x3fcd47fa	1.603759
148	0xbff5ae23	-1.9193767
149	0xc0aca1f2	-5.3947687
150	0xc0fd00c0	-7.9063416
151	0xc045f1f5	-3.092893
152	0xc0b98394	-5.797312
153	0xc07316fd	-3.798278
154	0xc080803d	-4.015654
155	0xbf8c8888	-1.0979166
156	0xc07231e3	-3.7842948
157	0x3bcf582e	0.0063276505
158	0xc0706197	-3.7559564
159	0x3edace5f	0.42735574
160	0xc042847d	-3.0393364
161	0xc0572ad3	-3.3619888
162	0xc0b42806	-5.6298857
163	0xc039a751	-2.9008372
164	0xc0afd1d2	-5.494363
165	0xc0c4186f	-6.1279826
166	0xbfbaf5bd	-1.4606243
167	0x3f5bf07d	0.8591383
168	0xc0c36c8e	-6.1070013
169	0xbf8a5b08	-1.080903
170	0xbf2b0f4c	-0.66820216
171	0xc089cf68	-4.306568
172	0xc04e7223	-3.2257164
173	0xc03f7f2c	-2.992137
174	0xc01da22f	-2.463024
175	0xc067398e	-3.6128879
176	0xc08ccd89	-4.4000897
177	0xbff5a723	-1.9191631
178	0xc0ef79ab	-7.483602
179	0xbfcc1d41	-1.5946428
180	0xc0b6fff0	-5.7187424
181	0xc0a3012f	-5.0938945
182	0xc062deb6	-3.5448432
183	0xc09e9f81	-4.9569707
184	0xc02c4482	-2.6916814
185	0xc0c1c0fc	-6.0548077
186	0xc0373481	-2.8625796
187	0x4015f9a4	2.3433619
188	0xc05f8dfa	-3.4930406
189	0xbeb25cc6	-0.34836406
190	0xbf83bd12	-1.0292075
191	0xc02d6b98	-2.709692
192	0xbfd82471	-1.6886121
193	0xc01cd904	-2.4507456
194	0xc0403331	-3.0031245
195	0xc03c653c	-2.9436789
196	0xc0262f64	-2.5966425
197	0x3f4d1481	0.8010941
198	0xc0a0184d	-5.0029664
199	0xbedd63a6	-0.43240088

decoder.linear_latent.bias f4 [20]
0	0xc0a4005a	-5.125043
1	0xc011c95d	-2.2779152
2	0xc0698933	-3.648999
3	0xc06a1b6f	-3.6579244
4	0xbfc78de4	-1.5590177
5	0xc02c5d9f	-2.6932142
6	0xbf92d208	-1.1470346
7	0xc04ca50d	-3.197574
8	0xc0ae97a0	-5.456009
9	0xc06a8120	-3.6641312
10	0xc08dd1a9	-4.4318433
11	0xbf81c81f	-1.0139197
12	0xc09182ed	-4.547232
13	0x3e4747a5	0.19460924
14	0x3f862adf	1.0481833
15	0xbed38402	-0.4131165
16	0xbfdfc08a	-1.7480633
17	0xc08c00ac	-4.375082
18	0xbfb9ae78	-1.4506369
19	0xc0b37ef9	-5.6092496
