tests/ExampleModel.pth (torch, 37879 bytes, 18 tensors)

model_state f4 [64, 20]
00000000: 9963 32be e37c 8d3e c44a 41c0 e3d5 74bd
00000010: 84a9 a1be 84c0 9c3e ed5a 173e 6678 80bf
00000020: 5c96 503c 2d1b 89be fa41 4a3e 0985 0d3f
00000030: 3027 36bf 7295 183f 0e2f 5c3f c694 3d3d
00000040: 22de c13e 15d9 3fbf 3014 68bf fd29 6d3e
00000050: 23dc bd3e 3daa ef3f b690 c33f 5840 ed3c
00000060: 3ed3 c43e 796d c13f 8cbb b83e 45f9 8f3f
00000070: d67f e43d 5d86 4f3f f7a6 b33e 4f7b 363e
00000080: 73ba 323f 21d2 7c3e 918b 8dbe 4bf3 1840
00000090: 4106 09be f699 5c3e 1431 ab3f 07e8 343f
000000a0: 1e75 823f 89cc dd3d cd1c 0e3f c4c3 463e
000000b0: a396 1fc0 03e0 0cbf a0b3 0e3f 57de 383e
000000c0: f3d0 0e3e efb8 283e fadd 993d 2036 713e
000000d0: 2fd5 dc3d a31e 95be c01d 953f 2719 6abd
000000e0: 7466 f1be 2b53 d23e d2d4 333f 2522 a43d
000000f0: 3f20 043e 1937 98bf 35dd afbe 2eca d8be
00000100: df49 56bf bf63 99bf 4fdd 583f 2aa7 f6bf
00000110: 3e57 bfbd 2e54 97bf 2fa4 983e 607d 63be
00000120: c30c aabd 39c5 123f e96c 1d3f 23c5 09bf
00000130: 3296 9a3e 6f65 23bf f4f3 cc3e 2130 8ebf
00000140: c7da cbbb d30c c8be 631c cd3f 07d7 b53e
00000150: fe15 50be 359d 12be 2be2 ccbe 290c 1b3f
00000160: 4a21 9c3f 11c5 0840 f55f 183f ddfd 7a3e
00000170: 5401 343f f8b0 d7bd 92dc 6440 0720 e0be
00000180: c3fa 24bd 9f95 a33f 1db3 363f 0ff6 d23d
00000190: 0036 7cbe e05d a13b ed02 5bbf 3af6 ccbd
000001a0: 6c22 583c d6c5 50bf db23 f33d f7f6 06bf
000001b0: 8d2c 83bf 6755 473e cdfa 96be c8f4 8fbe
000001c0: d73e 803e 6e4c 3abf ded6 323e 1cba afbe
000001d0: 976e 3dc0 2116 9abe 3b19 2fc0 0e44 823e
000001e0: d357 cfbf 4d18 1c3f 39e6 18bf 2b01 80bf
000001f0: fe4d 0b3e 55a4 64bf 5d01 bebf c05c c1bd
00000200: cc41 dabf adc5 45bf 40fd 4dbf 3cfb 26bd
00000210: 6046 acbe cf82 00bf ad4a 3dbf 72a9 eb3a
00000220: 56bd 89c0 3a40 27bf debb 3abe e3b3 3cc0
00000230: b50e bc3e 5cda 043f 3caf 383e eae6 523f
00000240: 8cbd 99bd 4255 bf3d 0bad 85bf 0f69 4d3f
00000250: 41a4 443e c1a9 b23f c10a 923f acd9 e3be
00000260: fd67 363e b1f4 46c0 99df 2cbe da8f eabd
00000270: 38a3 08bf 55b4 c73f 7571 883c bb5c 623f
00000280: 8254 3f3f 89b1 b63f 66fc d13e b82d 113e
00000290: 2cb9 323f a150 513f e590 14bf d996 6e3e
000002a0: 64e0 653d 440f c23e 292d 433e c54b 8e40
000002b0: ebfc 4f3c 31bc 07bb 42af 0dbb 1f42 bc3e
000002c0: f224 f0be fbfb e93d 8fb0 3bbe cf1c 1c3f
000002d0: 8008 9e3f 27e6 aebf b0c4 bb3f 1bd1 243f
000002e0: bbe2 cabe f63c 7dbf 00f7 933f a2d7 b5bf
000002f0: f2da 2c40 7d05 a9be 3e6b e93e 86ff 133f
00000300: 2be3 ee3f 3559 1a3f 929b c23e ce22 283f
00000310: e458 553f 3d30 5c3e dd3f cb3f eb87 0e40
00000320: 0058 2340 4512 a53e ecab a2bd 493d 0f40
00000330: 3647 723e 9a83 bdbc 3877 383e c0fb f73f
00000340: 9f0a 1340 0d26 ca3f af74 0d40 1105 cebd
00000350: 470d 4840 2194 3a3e 800b 7bbf de92 38bd
00000360: 8258 84be 4896 7840 6c3c f1be 2ab2 1e40
00000370: 57a7 283d 373f 27bf 6995 bf3f 42a7 05bf
00000380: 4fbb adbd 8847 d9be 4418 ab3f 52f2 32be
00000390: 9ee1 1d40 5a0a cfbd a070 debe 4276 d03e
000003a0: ba9e 3dbd 1269 6440 0e4b b2bd 2bd0 b63e
000003b0: aab1 4b3f 4ae3 b2be db5d d13f c6f2 2d3f
000003c0: 79d9 a9be caf6 1abf 2966 58c0 3e54 0c3f
000003d0: fa06 b53d bbd4 dabe 74fe 53be 8fe8 c93c
000003e0: 492a ccbf d407 a53d 8a59 9e3e 622f 953d
000003f0: cebe 20be dce3 8abd 9da5 9dbf c293 f0be
-0.17420806 0.27634344 -3.0201883 -0.05977429 -0.31574643 0.30615628 0.14780779 -1.0036743
0.012731161 -0.26778546 0.1975173 0.5528112 -0.71153545 0.59603035 0.860093 0.04628446
0.37864786 -0.74940616 -0.90655804 0.23160549 0.37082013 1.8723828 1.5278537 0.028961346
0.38442415 1.5111533 0.36080587 1.1247946 0.11157195 0.810644 0.35088322 0.17820476
0.6981575 0.24689533 -0.27645543 2.3898494 -0.13381292 0.21543106 1.3374352 0.70666546
1.0191991 0.108300276 0.55512697 0.19410616 -2.4935691 -0.55029315 0.55742836 0.18053566
0.13946895 0.16476797 0.07513042 0.23555803 0.10782849 -0.29124936 1.1649704 -0.057152893
-0.47148478 0.41079077 0.70246613 0.08014325 0.12902926 -1.1891814 -0.34348455 -0.4234175
-0.8370647 -1.1983565 0.8471269 -1.9269764 -0.09342812 -1.1822565 0.29812762 -0.22215796
-0.08303215 0.5733219 0.6149431 -0.5381643 0.30192715 -0.6382665 0.4002987 -1.1108438
-0.0062211487 -0.39072284 1.6024288 0.35515615 -0.2032089 -0.14317782 -0.40016302 0.6056543
1.2197659 2.137028 0.5952142 0.24510904 0.70314527 -0.10531801 3.5759625 -0.43774435
-0.040278208 1.2780036 0.71367055 0.10300838 -0.24629974 0.004924521 -0.8555134 -0.100079015
0.013191801 -0.81551874 0.11872073 -0.5272059 -1.0247971 0.19466172 -0.2948822 -0.2811644
0.25047943 -0.7277287 0.17464778 -0.34321678 -2.9598749 -0.30095008 -2.735915 0.25442547
-1.6198677 0.6097458 -0.5972629 -1.0000356 0.1360397 -0.8931325 -1.4844166 -0.09441519
-1.705133 -0.77254754 -0.80464554 -0.04076694 -0.33647442 -0.501996 -0.7394207 0.0017979576
-4.3043623 -0.65332377 -0.18235728 -2.9484794 0.3672997 0.5189569 0.18035597 0.82383597
-0.07506856 0.093424335 -1.0443434 0.8023843 0.19203283 1.3958055 1.1409532 -0.44502008
0.17813106 -3.1086848 -0.1688217 -0.11453219 -0.5337405 1.5601908 0.016655663 0.88422745
0.74738324 1.427293 0.41012877 0.14177597 0.698138 0.81763655 -0.5803359 0.23299731
0.0561222 0.37902272 0.19060196 4.446749 0.012694578 -0.0020711536 -0.0021619354 0.36769196
-0.46903187 0.114250146 -0.1832907 0.6098146 1.2346344 -1.3663987 1.4669399 0.6438157
-0.39626107 -0.98921144 1.1559753 -1.4206431 2.7008634 -0.33012 0.45589632 0.5781177
1.8663076 0.6029237 0.38009316 0.6567811 0.8333876 0.21502776 1.5878865 2.2270458
2.552246 0.322405 -0.07942948 2.2381155 0.23659977 -0.023134042 0.18014228 1.9373703
2.2975233 1.5792862 2.2102468 -0.1005956 3.1258104 0.18220569 -0.9806442 -0.04506194
-0.25848776 3.8841724 -0.4711641 2.4796243 0.041175213 -0.65330833 1.4967471 -0.5220834
-0.08482992 -0.42437387 1.336678 -0.1747525 2.4668956 -0.10109396 -0.434453 0.40715224
-0.04629395 3.568913 -0.08705722 0.35705695 0.7956797 -0.34939033 1.6356767 0.6794857
-0.3317373 -0.6053282 -3.3812354 0.54816043 0.08839221 -0.42740425 -0.20702535 0.024647025
-1.5950404 0.08058134 0.30927688 0.07284428 -0.15697786 -0.06781742 -1.2316166 -0.4698773

model_state f4 [64]
00000000: 89bc 593f d633 0d3f a12d dfbf 5d9b 4140
00000010: 09d2 ce3f 5362 d7bf 1b54 73bd 88b5 92bf
00000020: 0781 33c0 544e 733e 048e 0bc0 f855 303f
00000030: e0d8 923f 2303 e7bf 6b08 093e d2bc 62be
00000040: 4c51 0abf 1eb6 15be 0738 453f 843b 3640
00000050: 56db ecbf f0f9 fabe 162e f2be 139c d53f
00000060: fb38 96bf 6566 a03f f819 9dbe 2943 26bf
00000070: 02d2 633e b03b 3440 353a 533f 6452 513f
00000080: 779f 13c0 5a9d ba3f d11c b23e 61ae 00be
00000090: 7c72 0d3f ad1d b840 2f23 e4be 1b1e 503f
000000a0: 11d2 1440 f1fc e6bf 17cd 85be e07d eebf
000000b0: 3775 80be 525b ccbe 9a88 12bf 3477 59c0
000000c0: 9945 26bf a14f b33e 8d16 f4bf 2b91 e53f
000000d0: 6366 64bf ad94 22bf e86c 993f 69a2 883f
000000e0: a156 163f 8c91 eb3f 52e0 92bf e2be fbbc
000000f0: 52ab f7be 68b7 8c3e 7fe7 1b3d 0b5a 5440
0.85053307 0.5515722 -1.74358 3.0251076 1.6157848 -1.6826881 -0.05940638 -1.1461649
-2.8047502 0.23760349 -2.180543 0.6888118 1.1472435 -1.8047832 0.13382117 -0.22142342
-0.540303 -0.14620253 0.77038616 2.8473825 -1.8504436 -0.49018812 -0.47300786 1.6688255
-1.1736139 1.2531248 -0.30683875 -0.6494623 0.2224808 2.816143 0.8251069 0.81766343
-2.306608 1.457927 0.3478761 -0.1256652 0.55252814 5.7536225 -0.44558093 0.8129594
2.3253214 -1.8045942 -0.26133034 -1.8632164 -0.25089428 -0.39913422 -0.5723969 -3.3979006
-0.6494995 0.3502169 -1.9069382 1.7934927 -0.8921873 -0.6350811 1.198636 1.0674564
0.58725935 1.8403792 -1.1474707 -0.030730668 -0.48372895 0.27483678 0.03806257 3.3179958

model_state f4 [64]
00000000: 2e1a bc3e f811 fe3f e610 143f e6a9 ac3f
00000010: 9d55 853f 6f00 973f 2aaf b63f dc45 e83e
00000020: 2926 cb3f f11c 9d3f db10 d53f 8a00 c33f
00000030: ec05 eb3f 3e52 db3f ee44 ca3f 8d45 ca3f
00000040: daa0 f83f 842e 693f 7fd7 773f a02e fb3f
00000050: bc00 503f 635b 8f3e f952 b33f c033 6e3f
00000060: 8eb5 d63f f151 843f 3d6f f33f 667c 3f3f
00000070: 7911 2d3f 8543 853f 54da 90be 31d9 003f
00000080: 1a20 443f bef3 e23e a5c3 673e f4f5 b03f
00000090: 227b 273f dee1 8740 1022 0340 0b24 c33f
000000a0: cd83 a83e 48d0 8d3f 98cf 6c3e 5faa dd3f
000000b0: 9b33 963f 2e85 7b3f 066b 9a3f 787c aa3f
000000c0: 5c9d a03f 7020 be3e e96b 3f3f 3de8 db3f
000000d0: 88c4 1740 9630 c63f 6b55 a1be 3d8c 773f
000000e0: 7b81 2140 dafa c93e c77b f63e 0e26 7d3e
000000f0: e981 bb3f f8c9 f23f 5c2f d53e fc11 6040
0.36738724 1.9849234 0.57838285 1.3489349 1.0416752 1.1797007 1.4272206 0.45365798
1.587102 1.2274457 1.6645769 1.523454 1.8361182 1.7134473 1.5802286 1.5802475
1.9424088 0.910866 0.96813196 1.9623604 0.8125112 0.2799941 1.4009696 0.93047714
1.6774156 1.0337507 1.9018322 0.7479919 0.67604786 1.041123 -0.2829157 0.5033141
0.76611483 0.44326586 0.22633226 1.3825059 0.6542226 4.2463217 2.048954 1.5245374
0.32913056 1.1079187 0.23126066 1.7317618 1.1734499 0.9825009 1.2063911 1.3319235
1.2548022 0.37134123 0.7477403 1.7180248 2.3713703 1.5483577 -0.3151048 0.9669836
2.5235279 0.39449197 0.4814131 0.24721548 1.464902 1.8967886 0.41637695 3.5010977

model_state f4 [64]
00000000: c75f c73e 762a 883f b8d7 4d3e 5516 9fbe
00000010: a70b 8f3f 1ca1 fe3d eb98 963f d46e bf3f
00000020: 6806 a93f 94c6 a43f d1a4 e23f 3ec8 f63f
00000030: 25a6 3e3f d73f 32c0 cb72 e73f fcab de3f
00000040: 4ec9 aa3e 2e27 903f dd80 393e 88ed 9f3e
00000050: 1777 2b3e 5587 fa3f 273a a03d 7845 9c3f
00000060: 8a84 a93e 3c73 243f 566b e73f 15be d63f
00000070: 8fd3 4c3f 4e61 d33f d91d 833f 1891 1340
00000080: b80b 213e 004b 673c 2ac2 b23f 134c af3e
00000090: d948 ce3f 60ea 9e3f e1b8 5740 7e4f b53f
000000a0: 4593 383f 4ad0 c5bf a6c9 6e3f 9709 d83f
000000b0: 2877 633f b71d e03f 8aa6 373f ccd4 e13f
000000c0: b3d7 753f 264c 8dbe 95a4 e33f 547e 1d3f
000000d0: 4d53 813f 957a 02bf 5148 1a3f a998 143f
000000e0: 36f3 203f 3828 893f 99db c63f 10a8 b03f
000000f0: 2726 b73f c597 3e3f fd03 d93f 4dab ac3f
0.3894026 1.0637958 0.20101821 -0.31071725 1.1175431 0.12433073 1.1765417 1.4955697
1.320508 1.2873101 1.7706548 1.9279859 0.74472266 -2.7851465 1.8081907 1.7396235
0.33356708 1.1261957 0.18115564 0.3123591 0.16744648 1.957255 0.07823592 1.22087
0.33108932 0.64238334 1.8079631 1.6776758 0.8001031 1.651407 1.0243484 2.3057308
0.15727127 0.0141170025 1.3965504 0.34237728 1.6115981 1.2415276 3.370659 1.4164884
0.72099715 -1.545419 0.9327644 1.6877927 0.88853693 1.7509068 0.71738493 1.7643065
0.96032256 -0.2759716 1.7784601 0.61520886 1.0103546 -0.50968295 0.60266596 0.5804544
0.6287111 1.0715399 1.5535766 1.3801289 1.4308518 0.7445033 1.6954342 1.3489777

model_state f4 [64]
00000000: bdff a63f 7d9a 5540 1bec a3bf 59ba 3840
00000010: 672c 8440 2669 7fc0 6060 21c0 682b 4cc0
00000020: 5573 57bf e373 ec3f 911e 14c0 b2cf 7740
00000030: 33f1 24c0 dd30 b13f 1e4c 1740 b8c7 1340
00000040: d774 a3bc 2d30 773f cc22 95bf 4ceb e1bf
00000050: 5f3b 9dbf 6fa0 11bf 95aa 62c0 3443 5940
00000060: b7d2 1c40 6635 3840 aa42 4fc0 27b7 c03f
00000070: c505 febe fc29 893f 7f7c 993f a425 d9be
00000080: e6cf 25c0 4d53 dc3f 1989 15bf bac1 1ec0
00000090: 1736 4c3e 6798 0541 995e 843f 7c0b 1240
000000a0: aa7d cd3f bc55 55bf 7323 81be 3bd6 a13e
000000b0: f436 863f 0764 4640 3055 2d3f 6df8 9cc0
000000c0: 458f 383f 49d4 2f3f 6aa9 34c0 43fb 94bf
000000d0: 98f4 1c3f 0e67 3a40 2bb4 1c3f f66d f43f
000000e0: d1d5 1bc0 4915 7d3e 21d0 0bc0 be32 343e
000000f0: 8c8e c73f 9b07 06c0 6d7f dfbf bacd 7cbe
1.3046795 3.3375542 -1.2806429 2.8863738 4.13042 -3.9907928 -2.5215073 -3.1901493
-0.8416036 1.8472866 -2.3143656 3.8720517 -2.5772216 1.3843037 2.3640208 2.3090649
-0.019953175 0.96557885 -1.1651244 -1.7649932 -1.2283744 -0.5688543 -3.5416615 3.3947268
2.450361 2.8782592 -3.2384439 1.5055894 -0.49613777 1.0715938 1.1991118 -0.4241153
-2.590814 1.7212921 -0.5841232 -2.4805741 0.19942509 8.349708 1.0341369 2.281951
1.6053975 -0.83333945 -0.25222358 0.31608757 1.048552 3.0998552 0.6770811 -4.9053254
0.7209361 0.68683296 -2.8228402 -1.1639179 0.6131072 2.91254 0.61212415 1.9096057
-2.4349253 0.24715151 -2.1845782 0.17597482 1.5590377 -2.0942142 -1.7460762 -0.24687853

model_state f4 [64]
00000000: e3a3 ad3f 8451 0841 ed31 de3f bc02 0740
00000010: e931 8a40 aa56 d440 c029 e040 78a8 5f40
00000020: cc29 c740 3396 8240 0755 bd3f 15cf 0941
00000030: 4c53 7341 8882 d140 3943 8b40 d940 df40
00000040: 7afb a740 2697 7b40 2744 9740 73f7 0f41
00000050: 1228 3d40 7499 c63f 040e dd40 39a8 4040
00000060: f8da ee40 6187 9d40 94cd 1941 9870 3b40
00000070: 221e d43f e0f3 6f40 5e0f 4a3f a698 0340
00000080: cfec f83f 3811 0c40 676f 1440 b201 d040
00000090: 4ba7 1c40 b3ed 5741 98c0 ff40 4690 8140
000000a0: 70e5 0940 6caa 1e40 1cf3 af3f 507a b240
000000b0: 24f5 5940 5f23 d740 9be8 5e40 6e01 8c40
000000c0: f449 8c40 d5bb 0440 2121 6740 3354 1b41
000000d0: a4e6 f440 ba5f d540 ec81 ac3f e575 1c40
000000e0: e0bf 4341 bb09 d43f 655d 0540 5cc4 a43f
000000f0: ad9e 9d40 c53d d840 9d0b 0a40 cd8a db41
1.3565639 8.519901 1.7358986 2.109542 4.3185925 6.635579 7.0050964 3.4946575
6.223852 4.080835 1.4791573 8.613057 15.207836 6.547184 4.351956 6.976666
5.249448 3.9311004 4.7270694 8.997912 2.9555707 1.551558 6.907961 3.0102675
7.4642296 4.9227757 9.61269 2.9287472 1.6571696 3.74926 0.789297 2.056192
1.9447268 2.188551 2.3192995 6.500207 2.4477108 13.495532 7.99226 4.0488615
2.1546288 2.4791517 1.3746066 5.5774307 3.4055872 6.7230678 3.482947 4.3751745
4.3840275 2.0739644 3.611397 9.708056 7.6531544 6.6679354 1.3477149 2.4446957
12.2343445 1.656547 2.0838253 1.2872424 4.9256196 6.75754 2.1569588 27.442774

model_state f4 [64, 64]
00000000: 6cfe adbd be10 07bf 4a8a 80be 2435 31be
00000010: 488f f4bd 3a55 023f 7e37 b53e 5011 823f
00000020: 2e53 8dbf bb91 90bf fe83 bc3d 2d87 b6bf
00000030: 3ff9 5e3d 617d 58bf f2c9 0dbe a6f2 59bf
00000040: 992b 9cbf 0f44 a63e 7fb7 3d3f 2bb5 163f
00000050: 0bff 843e ac06 fb3e f2b1 2f3f ead0 dfbe
00000060: dbc9 51bf f2b1 a8bf 9b2b c53e fc85 a6be
00000070: 4216 083d b220 223f f889 15bf e728 3abe
00000080: 63da 483f e83e bb3e d0fe 423e 070f 0d3f
00000090: a39c 6f3d 41d9 f2be 8dba 03bf 89dd e33e
000000a0: e493 9e3e a3ad 4bbd 59e8 b83e de30 c1be
000000b0: a78f 37bf 1dc7 b2be 0ffc 9b3e 60d4 c3be
000000c0: bdee 1abf 0e22 093e 56e8 a3bc 6d46 783f
000000d0: af35 17c0 9d76 96bf 408e 333c 921a dbbe
000000e0: 33a8 cc3e b552 bdbe 6fcc 663e 9ae3 753d
000000f0: eab3 94bf ae13 5dbe 20e7 ea3e 1350 f0bc
00000100: 58d3 123f b7a8 bcbf 9c2f b0be e6b7 82bd
00000110: 2790 363e 8292 9c3e 1e79 f2bd 8375 4abe
00000120: 4824 04bf e8a2 02c0 5541 19be 8dc1 0e3e
00000130: fc1c 1f3f 4547 2bbf 4cad 9bbf 9c0a 82be
00000140: 3d4e 81bf 4202 523f bc1a f73e 80da bcbe
00000150: 0f78 cb3e ad8f 47bf 6bdb 9e3d 7968 123f
00000160: ce78 eabe 4b7d 24bf 0068 173f f144 e2be
00000170: ca43 d93e 28a8 c6be 13bd 34be c9a3 a5be
00000180: e5f9 adbe 2dd0 e33e 1473 23bf bd67 0b3f
00000190: e26b b53e 1595 d53e 4080 90bf 1de7 3bbe
000001a0: acf7 acbd c801 a9be baeb c83e 731a 44bf
000001b0: 9225 223d b711 4c3e 538f e3bd 4f71 493d
000001c0: 804d 6cbd 0f46 1ebf f87a 91be 837b 6b3e
000001d0: eedb 98bf 80c6 34bf 54bc 733c 537e 4dbf
000001e0: 6943 22bd 0e8b 8cbd 722b 133e a7e3 8e3e
000001f0: f155 0cbf aa60 b1bc 265e 30be 4e1c 49bf
00000200: 47e6 35bf 1c03 d33f 736a 523e a0c6 203e
00000210: fe17 983f 11e9 e63d ff7a ee3f 3153 ae3f
00000220: 8ef5 563d 8997 af3f 6f05 953d ac35 893f
00000230: f7a4 4dbf 4a9c 1d40 fd18 7e3d cb9d 843f
00000240: 9ede 1a40 28aa e73e 209b 093f 73d1 a2be
00000250: 714b 8abe a3be f73e 0a6e a7be 6b9f 8abe
00000260: a9b9 9f3f 0328 363f 34eb 8e3c b9ae a23e
00000270: f106 5b3e a8f5 f1be d6e0 4fbf ae01 7cbf
00000280: 58dd b1bf ce52 eabf 6e2c 13bf 2bef 143e
00000290: 41b8 91bf 358e 433f 0924 c03f 769c 843e
000002a0: 3aff babe 62b4 02be 1051 b53e 2386 0840
000002b0: fed5 103f 98dc 033f cba9 053f 65e5 02be
000002c0: 0224 b03f fa1b 3e3f ffc2 e8be 695d 9abe
000002d0: fbf9 6c3f b2e7 a63f 84b2 d33d 5af1 153f
000002e0: d922 e63e 5ea1 b73e 10d3 513d 347d 693d
000002f0: e1cd c23f 9163 e43e 9760 3a3e 9d0f 8e3d
00000300: d2e5 993f e839 76bf e7cc bfbe 3ff5 233e
00000310: 98a7 8cbe 6b59 18be 30b3 a5bf feaf a3bf
00000320: f0ae 283d b2ec 36bf 13b3 e13e 01a1 29bd
00000330: aff9 473f 769d a5be a068 b7be e629 01bf
00000340: bb6f 02c0 f2c1 9ebf d8cb 953f 7790 4d3e
00000350: 3a55 e9be 286a 05bf ead3 043f d18b 8e3f
00000360: f9b2 4cbe 6242 6ebd f50c 143e 51cd 313f
00000370: 1465 d7be 94ce a93d 3944 973f 2f4e 3a3e
00000380: 2fa8 97bf 4caa 81bf b8e3 f63c f50a 093f
00000390: 5379 e83f d40c 693e 2d53 813f abc6 0abf
000003a0: 528a 2ebd 33e3 49bc af68 043f 6cdc 19c0
000003b0: e2ce 073d 0f08 433e da23 46bf 43fa 793e
000003c0: 0742 43bf 5cfb e3bd 4c1f 8dbe 545e 9f3f
000003d0: 4adf 94be 7e7c 5a3e 0910 c0bf 48e8 e03d
000003e0: 4644 103f 4d68 60bf fae6 5abf 1e33 833d
000003f0: 6170 d5be 9757 2b3f 9952 a23d 6e1e afbe
-0.08495793 -0.5275992 -0.25105506 -0.17305428 -0.11941391 0.50911295 0.353939 1.0161533
-1.104101 -1.1294473 0.09204863 -1.4260002 0.05443692 -0.84566313 -0.13846567 -0.8513588
-1.2200805 0.324738 0.7410812 0.5887019 0.25975832 0.49028528 0.686309 -0.43714076
-0.8194863 -1.3179305 0.3850983 -0.32524097 0.03322435 0.6333114 -0.5841365 -0.18179666
0.7845823 0.3657143 0.19042516 0.55101055 0.05849899 -0.47431377 -0.5145653 0.44504955
0.30972207 -0.04972614 0.36114767 -0.37732595 -0.7170357 -0.34917536 0.30465743 -0.38247967
-0.60520536 0.13391897 -0.020008247 0.9698246 -2.3626516 -1.1754948 0.010959208 -0.4279371
0.39972076 -0.36977163 0.22538923 0.06003151 -1.1617405 -0.21589538 0.4587946 -0.029335057
0.57353735 -1.4738988 -0.34411323 -0.06382732 0.17828427 0.30580527 -0.118395075 -0.1977139
-0.5161786 -2.041193 -0.14966328 0.13941021 0.621536 -0.66905624 -1.2162261 -0.2539872
-1.0102001 0.82034695 0.48262584 -0.36885452 0.39740035 -0.77953607 0.077566944 0.5719066
-0.45795292 -0.6425368 0.59143066 -0.44193223 0.4243453 -0.38800168 -0.17650251 -0.3235152
-0.33979717 0.44494763 -0.6384747 0.5445517 0.3543387 0.41715303 -1.1289139 -0.18349881
-0.08445677 -0.3300917 0.39242345 -0.7660286 0.03958661 0.19928633 -0.11111321 0.049180325
-0.057691097 -0.6182565 -0.2841413 0.22996335 -1.1942117 -0.70615387 0.014876444 -0.8027088
-0.03961507 -0.0686246 0.14372042 0.2790806 -0.54818636 -0.021652538 -0.17223415 -0.78558815
-0.710545 1.6485324 0.2054842 0.1570077 1.1882322 0.11274923 1.8631285 1.3619138
0.052480273 1.371812 0.07276427 1.0719504 -0.8032984 2.4626641 0.06203555 1.0360655
2.4198375 0.45247006 0.53752327 -0.31800422 -0.27010682 0.48387632 -0.3270114 -0.2707475
1.2478534 0.71154803 0.017446138 0.31773928 0.21389367 -0.47257733 -0.8120245 -0.98440063
-1.3895674 -1.830652 -0.5748967 0.1454436 -1.1384355 0.76388866 1.5010997 0.2590062
-0.36522847 -0.12764123 0.35413408 2.133187 0.56576526 0.51508474 0.5221221 -0.1278282
1.3760989 0.7426144 -0.4546127 -0.3014939 0.9256894 1.3039458 0.103367835 0.585714
0.44948462 0.358653 0.051226676 0.05700417 1.5219079 0.44607213 0.18200909 0.06936572
1.202326 -0.9618211 -0.37461016 0.16011523 -0.27471614 -0.1487786 -1.2945309 -1.2788084
0.04118246 -0.7145492 0.44081935 -0.04141331 0.7811536 -0.32346696 -0.3582201 -0.50454557
-2.0380695 -1.2402937 1.1702833 0.2007464 -0.45572835 -0.52115107 0.51885855 1.1136419
-0.19990148 -0.058168776 0.14458068 0.6945391 -0.42069304 0.08291355 1.1817695 0.18193887
-1.18482 -1.0130095 0.030137882 0.53532344 1.8162025 0.227588 1.0103508 -0.54209393
-0.04261238 -0.012322235 0.51722234 -2.4040785 0.033156283 0.19046043 -0.77398455 0.24411874
-0.76272625 -0.11131927 -0.2756294 1.2450662 -0.29076606 0.21336553 -1.5004894 0.10981804
0.56354177 -0.8765915 -0.8550869 0.06406234 -0.416873 0.66930526 0.079259105 -0.34202904

model_state f4 [64]
00000000: 1ff4 b13f d8ef 323e cccb dcbf 47ed 3640
00000010: b25b a73e 38df f5bf 960f 2ac0 641f 56ba
00000020: c452 113f 81b0 763f ae37 a13f 24b1 b43d
00000030: 59c9 e9bf 0baf e13f e70e e7be 7d9e 3d40
00000040: 1317 cb3e c68e be3e acaf 0240 2dd0 65bf
00000050: d89d da3e 63a7 8abf ee66 33c0 93cc 9d3e
00000060: 3f9b 05c0 e520 f8be a9d7 c13e 4794 d0bc
00000070: 6410 a23f dacb 1bbf ba87 1e3f 417d bdbf
00000080: 60b4 cdbf e259 8b3f be98 423e 40b6 ea3f
00000090: 5bda b73e 1ee3 8abf ae97 8dbf 7826 57bf
000000a0: 7d21 a8bf eaa8 1abf 7e04 cabf 93d0 a73f
000000b0: 7e6d bd3d fcc4 75be 8e21 87bf b456 1a3f
000000c0: 90c1 a0bf 2f8f 09c0 9be6 993f 0dd7 203f
000000d0: 3fff 083d 27cb dcbd 544b 78bf 69aa 47bf
000000e0: 6fdf debd 8a11 723f 42b4 eb3f 6f27 b03f
000000f0: 9e14 87bf e985 113f 1d18 c13f ce90 b2be
1.3902625 0.17474306 -1.7249694 2.8582323 0.32687145 -1.9208746 -2.6572013 -0.000816813
0.56766915 0.96363074 1.2595117 0.088228494 -1.8264571 1.7631544 -0.45128557 2.9627984
0.39666042 0.37218302 2.0419722 -0.89770776 0.4269855 -1.0832332 -2.8031573 0.3082014
-2.0876005 -0.48462597 0.37859848 -0.02546133 1.2661252 -0.6085793 0.6192585 -1.480385
-1.6070671 1.0886805 0.19003579 1.8336868 0.3590878 -1.0850561 -1.1061914 -0.84043074
-1.313522 -0.6041399 -1.5782621 1.3110527 0.092493996 -0.24000925 -1.0557115 0.6028855
-1.255907 -2.1493642 1.20235 0.6282814 0.033446547 -0.10780936 -0.9698994 -0.779944
-0.1088246 0.9455801 1.8414385 1.3762034 -1.0553167 0.56844956 1.5085484 -0.34876102

model_state f4 [64]
00000000: 2739 393e 63d5 f03d 1e5a 5a3e 0fec 8c3d
00000010: 5517 223e bc38 683c fd3a f83c f647 6f3d
00000020: c999 aa3d 4b4e 793c cde7 043c 7a85 5f3d
00000030: b261 f03d 7b9c a93e 6ed9 a83c de67 a43d
00000040: 5229 8c3d e131 f43d 5124 8f3d 3832 123d
00000050: 362f 593c ef09 4e3d 4718 b23e 6e19 913d
00000060: 9f70 5a3d de87 353e 6819 20bd f2b4 ed3c
00000070: e143 9b3e 61a6 973d fa59 723e 86bf f53d
00000080: 4c46 e73c 8528 8f3d b705 f23c 7536 853d
00000090: dd1e 2d3e d133 d83d e1eb 9f3d 55b9 02bc
000000a0: 09ef cc3d 729b cd3b 8264 d73d 81d8 bd3c
000000b0: b5a2 003e 13d0 a33e f8ab b03d 79a8 ee3d
000000c0: 4252 483c 6754 8b3a f61b af3d 8ffb 8d3d
000000d0: cb48 2ebc b2a6 0e3e 2802 b03e 389d 9d3e
000000e0: eb81 8f3d b263 963e 9618 873e 4b32 293d
000000f0: 3d6c 003d 776f f43b 5f02 603e 4547 1c3e
0.18088208 0.1175945 0.2132344 0.06880962 0.15829213 0.014173683 0.030301565 0.058418237
0.083301134 0.01521642 0.008111906 0.054570653 0.11737384 0.33127198 0.020611491 0.080276236
0.06843819 0.11923576 0.06989349 0.035692424 0.013255885 0.050302442 0.34784147 0.070849285
0.05333006 0.1772761 -0.03908673 0.029016946 0.30325225 0.07404781 0.23667136 0.11999421
0.028231762 0.0699015 0.02954374 0.065045275 0.16906305 0.10556758 0.07808662 -0.007978757
0.1000653 0.006274634 0.10517217 0.023174526 0.12562068 0.31994686 0.086265504 0.11653227
0.012226643 0.0010630012 0.08550255 0.069327466 -0.010637472 0.13930777 0.34376645 0.3078401
0.07007202 0.29372936 0.26385945 0.04130773 0.031353224 0.0074595767 0.21875905 0.15261562

model_state f4 [64]
00000000: 2386 85be 3bc4 babe 7ab6 a0be ef7d 90be
00000010: 96b3 f2be 0750 7fbd 1f04 57be 36e7 8abe
00000020: dc80 59be f1b6 97bd b75c 43bd a568 26be
00000030: 2d8f f83c 793d 7e3c 8f9b 01be 09f8 b0bc
00000040: 15d7 d83c 59f1 cabe d63e 42be 0dc2 f5bd
00000050: 2b3d 78be b4c6 63be 166f 0fbe ea17 8ebe
00000060: 2701 14be 300a dabe b82f bcbd b72b 80be
00000070: 5e5c f73d 4536 40be 5fca bbbe 7bcb 15be
00000080: c60e 02be 40fa 6abe db07 1cbe d7a9 99be
00000090: 92a0 5cbe b5f9 03bf 7c98 3cbe e7e1 83bd
000000a0: 67bd 31be da46 c5bd af72 85be d0f5 51bd
000000b0: 0af6 b1be 2410 46be a097 52be 8393 bebe
000000c0: eb84 dbbd 2567 00be 9873 21be 50ee 92be
000000d0: 5497 02be 91d2 a3be aa1a 9dbd f92f ab3d
000000e0: bd8c 08be 4c8d 34be e49f a73d cc75 4cbc
000000f0: 9f4f 71bd efd2 31be d600 aabe de1e 78be
-0.260789 -0.36477837 -0.3138922 -0.2822108 -0.47402638 -0.06233218 -0.20997666 -0.27129525
-0.21240562 -0.0740794 -0.04769584 -0.16250856 0.030341709 0.015517586 -0.12656997 -0.021602647
0.026469747 -0.3963726 -0.18969283 -0.11999903 -0.24242084 -0.22243768 -0.1400722 -0.2775262
-0.14453565 -0.42585897 -0.09188789 -0.25033352 0.120781645 -0.18770702 -0.36677834 -0.14628403
-0.12700948 -0.22947025 -0.15237372 -0.3001239 -0.21545628 -0.515529 -0.18417543 -0.06439572
-0.17357408 -0.096326545 -0.2606406 -0.051259816 -0.34758025 -0.19342095 -0.20565653 -0.37221918
-0.107187115 -0.12539347 -0.15766752 -0.28697443 -0.1275304 -0.31996587 -0.076711014 0.083587594
-0.13334937 -0.17632025 0.081847936 -0.012479257 -0.058913823 -0.17365621 -0.33203763 -0.24230525

model_state f4 [64]
00000000: dfb9 44c1 80ef 95c1 5c9f ec41 d53b 30c0
00000010: e67d f5c0 1363 83c0 5b91 c7c1 0786 24c1
00000020: 2af6 833f 4bbc 2ec1 729b 5541 f473 e0c0
00000030: 060d 8441 38e3 9dc0 1b5d 44c1 af13 2640
00000040: 84e2 863e a115 1dc1 3152 34c1 356c 00c1
00000050: 68de 0241 ab47 70c1 9250 d2c0 2c40 b6c0
00000060: 61c1 96c1 17f5 03c1 04bf 123f 228b 48c1
00000070: 83e0 6140 dd1a 66c1 32d5 3dc1 1e73 d3c0
00000080: 4ef4 8fc0 799b 14c1 483b 8ac1 8c6d 283e
00000090: 75a5 8a41 fead 30c0 7237 a440 8b19 fcc0
000000a0: e342 66c1 7ab1 a8c1 1482 b0c1 e2fe bbbf
000000b0: 6c3a 0dc1 d79f 94c1 bc7e 10c1 a808 6dc0
000000c0: 98e2 55c1 188f aa3f fc16 b7c1 f46d 73c0
000000d0: 25c5 1ec1 0345 96c0 e87b a341 9928 88c1
000000e0: 761d 75c1 a677 c2c0 9952 b441 73fb 9141
000000f0: 2c5e b6c1 f3d9 7ec1 ac95 11c0 3bd8 3a41
-12.295379 -18.741943 29.577812 -2.7536519 -7.6716185 -4.105844 -24.945974 -10.2827215
1.0309498 -10.92097 13.3504505 -7.0141544 16.50636 -4.9339867 -12.272731 2.5949514
0.26344693 -9.8177805 -11.270066 -8.026418 8.179298 -15.017497 -6.5723352 -5.6953335
-18.844423 -8.247336 0.57322717 -12.533968 3.529328 -14.381558 -11.86455 -6.6078024
-4.4985723 -9.287957 -17.278946 0.16448039 17.33079 -2.7606196 5.131768 -7.878118
-14.39133 -21.086658 -22.063515 -1.4687159 -8.826763 -18.578047 -9.030941 -3.7036533
-13.367821 1.3324919 -22.886223 -3.803586 -9.923131 -4.6959243 20.435501 -17.019823
-15.319693 -6.0771055 22.54033 18.247778 -22.795982 -15.92821 -2.2747602 11.677791

model_state f4 [64]
00000000: 33ba 0444 869e 4243 b947 3144 e215 5143
00000010: 019b 3d43 868c d843 6991 9643 d4d9 3743
00000020: d89c c243 42de fa43 04a8 3543 313e 1d43
00000030: dfe4 7a44 a8f1 3345 f708 1044 0fa9 c442
00000040: 25e1 b343 4f5a 5243 bc91 ef42 580c 1543
00000050: 1e3e 8a42 722c 2643 a186 8d44 946f 8642
00000060: f3c5 4a42 8010 7e42 a81a 1343 0480 3e43
00000070: 7ee1 d144 5470 5243 d3f9 8843 ccfc 7c44
00000080: 9dab b443 559b 2042 4aed 7743 48a7 8f42
00000090: 4de7 6044 4ef3 7042 1c38 7243 f4f1 cf42
000000a0: a198 ea43 ff29 a442 20b6 b742 f6c2 8c43
000000b0: 3abe 8e42 11af 9944 8bcd 0c43 7d57 a142
000000c0: f2a4 c342 2caf 7443 c7ad 0243 2e50 b741
000000d0: c55b 6d43 7980 1b43 1d29 e244 98e5 0945
000000e0: e051 e042 4d5e 7344 f12b d344 8ba1 4e43
000000f0: 1a26 7043 2ac1 2543 cca2 0944 e9f6 3b44
530.90936 194.61923 709.12067 209.08548 189.60548 433.09784 301.13602 183.85089
389.22534 501.7364 181.65631 157.24294 1003.5761 2879.1035 576.1401 98.33019
359.75894 210.35277 119.78464 149.04822 69.12132 166.17361 1132.2072 67.217926
50.69331 63.516113 147.10413 190.50006 1679.0466 210.43878 273.95175 1011.94995
361.34073 40.15169 247.92691 71.82672 899.6141 60.237602 242.21918 103.972565
469.1924 82.08202 91.85571 281.52313 71.37154 1229.4708 140.8029 80.670876
97.82216 244.68427 130.67882 22.91415 237.35847 155.50185 1809.2848 2206.3496
112.15991 973.47345 1689.3732 206.63103 240.14883 165.75455 550.5437 751.858

encoder.mean_encoder.weight f4 [10, 64]
00000000: ef9d ac3d 03e4 053d e30d 593d 13ed 72be
00000010: 2024 413e 52c9 dfbd 0cac bf3d cd14 84be
00000020: 0126 7e3e 4f7e 293d 8ab9 733e 71a7 85bd
00000030: 9094 463d e65d 2b3d 8c6a 033e de9e 983f
00000040: ac59 903d 3114 9d3e c68a 46bf 76c0 923e
00000050: ee6d bd3d 7a5f 7a3e 8f75 b4bd 6dca 2dbe
00000060: 2282 d9bc f480 87bd f9fe 1fbe 815f 09be
00000070: 2cb6 d13d 6373 9b3e 48cd 36be 50dd 043d
00000080: 38fc 4d3d e76a 24bd f539 28bf eaa3 d23b
00000090: b027 9fbc 4faf aabd b772 743d 8303 43be
000000a0: 74fe fc3c 059b 8a3e eab4 7b3c 4306 78bd
000000b0: d749 5cbe 8fa1 d73c 7e20 393d 583a 25be
000000c0: 8e15 72bf 7125 00be d221 41bf 430c bdbe
000000d0: f7ca dc3b 4b4e a7bc 47f7 67be 1bfd 483e
000000e0: 89fd 95be 0939 4bbc e49e 263e 25c4 963d
000000f0: f28d f53c db80 733d a3d3 c6bc 9bcb 5c3e
00000100: ef30 d5bc 79f2 b9bd 4750 303d 016f 44be
00000110: 611e 7c3d 6577 47be 00e0 05be 628f 8cbe
00000120: afff a8bd 7726 a4be 8b3a db3d fd1e 52bd
00000130: 5884 4e3e 6071 43bb 0e3f 0e3d 5a73 5c3d
00000140: cda4 073d 189c 8f3d cdb9 e6bd f033 1cbd
00000150: 0f11 d63d 7d24 4e3d cd19 823d 5ed4 b1be
00000160: e6f8 d3bd 33fb 3abd d25a 64be 2219 b63b
00000170: 1111 afbd d60d da3d 4e0a a8bc 730f 093c
00000180: fef6 86bc f632 c3ba e5ea a5bc b38f b7bd
00000190: 8048 f7bd 074d b73c e558 d53e b876 b63d
000001a0: eeba 93bc 7eed 863d cf20 16be dc8a 85bd
000001b0: 9faf c2be c7e2 8e3c 21f1 31bd 073e 8abe
000001c0: 62aa 57bc 3959 f33b 0d38 98bd 1345 d73c
000001d0: 1e5b 7cbd 7061 173e 65b4 a3bc f0c6 abbd
000001e0: ce76 cfbc 7647 a2bc 74ab 25bd ee26 c43f
000001f0: 5223 8ebe 1836 bd3d 50c6 8dbd f40a 073e
00000200: 0736 373d ebc1 a0be 5397 babd ce82 e6bd
00000210: ccc1 bdbe 20a8 233f 46e1 9e3c b11c 753e
00000220: d9ce a63d db99 3dbd 8d00 59be 40e0 98be
00000230: 326c b6bd 06cb 983d af6f c3be 491d cd3e
00000240: abf6 76bd dde9 ce3d bb05 96bc b8c8 503f
00000250: 7846 693e a99a f03e b32d 0a3e 5edb 2bbe
00000260: b22e 98bc f50c dabc 8c4c f8be 987c 433e
00000270: a677 a2bd 71c4 893e a963 3abe f5c4 013b
00000280: 6bb6 57be e3ad c9bc b6b5 c5bd 6f7c cfbc
00000290: b655 cc3d d451 c7bd 5e2f 19bf c513 03bf
000002a0: 98ca fd3d b0a8 e23d 98cb 963d 631d 913e
000002b0: 69c8 823e 43d8 1e3c d13d 843e 5566 71be
000002c0: a23d eabd 3612 aabe 936c 89bd b1ba e73c
000002d0: d626 81bc d985 8f3e 39db 033e 85c9 9abd
000002e0: 0196 94be 7847 a33d 4302 02be 6ab0 2d3e
000002f0: fcd1 3fbd 9e1d 92be 1d41 333c 6fc1 713e
00000300: c4e0 68be 6fc4 7ebe 6721 c63d 22c1 81bd
00000310: 27b8 293d 1475 8d3e 9cda cabd 1016 9fbb
00000320: 2cd0 183e 10ce 4e3c 97a3 ae3d 9415 72bb
00000330: 1648 34bc 015d babd fa30 383e 0909 953e
00000340: be2f 37be d48e 6e3d 8443 30be 259b 99bf
00000350: 1edb 1f3e ab40 27bd d507 583e b1ef ee3d
00000360: 9178 3fbf 1712 563e cb1c 88bc 4c61 9d3d
00000370: a654 5bbe 1ce6 d1be cc80 cdbd 9bbf a83e
00000380: 1af8 873d aac5 183e ef68 c73d 331b 6dbd
00000390: a779 5c3d 8c5e 79bd 2b2c 8dbe e376 873f
000003a0: 9275 383d c7da cebd b475 00bf c262 e0bd
000003b0: 640b 81bd a25f 26bd e16a abbe 9afc a23e
000003c0: 15d2 8bbd 533d 4e3f 57d7 d1be f2c3 28bd
000003d0: 3a2d 173d 62bc b0bd a950 9c3e 940d 9bbe
000003e0: 9b95 31bd 3762 723d dfef 93be d617 20be
000003f0: 5c0e 463a da52 fe3d 5514 7c3c e278 b23e
0.08428561 0.032688152 0.05299176 -0.23723249 0.18861437 -0.10927071 0.09358987 -0.2579712
0.24819185 0.041380223 0.23801246 -0.065260775 0.048481524 0.041837595 0.12833613 1.1923482
0.070483536 0.30679467 -0.775555 0.2866246 0.09249483 0.24450484 -0.08811485 -0.1697175
-0.02655131 -0.06616393 -0.15624608 -0.13415338 0.10239825 0.3036147 -0.17851746 0.032437623
0.050289363 -0.040141013 -0.65713435 0.0064282315 -0.019428104 -0.08334219 0.059679713 -0.19044308
0.030883051 0.27071396 0.0153629575 -0.060552847 -0.21512543 0.026322154 0.045197003 -0.16135538
-0.9456414 -0.12514283 -0.7544223 -0.36923417 0.0067380625 -0.020423075 -0.22652923 0.19627802
-0.29294994 -0.012403735 0.1627155 0.0736163 0.029974911 0.059449058 -0.024270838 0.21562044
-0.02602431 -0.09079451 0.04304531 -0.1918297 0.06155241 -0.19479139 -0.1307373 -0.27453142
-0.08251893 -0.32060596 0.107045256 -0.051299084 0.20167673 -0.0029822215 0.034728102 0.053820945
0.03311615 0.070121944 -0.112659074 -0.03813547 0.104524724 0.050327767 0.06352577 -0.34732336
-0.10350208 -0.04564972 -0.2230027 0.0055571953 -0.08548177 0.1064717 -0.020512726 0.0083655
-0.016475197 -0.0014892507 -0.020253608 -0.08962955 -0.12074375 0.022375597 0.41669384 0.089093626
-0.018033471 0.06588267 -0.14660953 -0.06520626 -0.38024613 0.01744212 -0.04344285 -0.27000448
-0.013163181 0.0074264077 -0.07432566 0.026278054 -0.061610334 0.14783263 -0.01998348 -0.08387554
-0.025325205 -0.019809466 -0.040446714 1.532438 -0.27761322 0.09238833 -0.06922591 0.13187772
0.04472926 -0.31397948 -0.09110894 -0.11255418 -0.37061918 0.63928413 0.019394528 0.23936726
0.08144922 -0.046289306 -0.21191616 -0.2985859 -0.08907355 0.07460599 -0.38171145 0.40061405
-0.060293835 0.101032 -0.01831328 0.8155627 0.22780788 0.46992996 0.13493995 -0.167829
-0.018576954 -0.026617507 -0.484959 0.19090497 -0.079329774 0.26907685 -0.1820208 0.0019801233
-0.2106568 -0.024619048 -0.09653799 -0.02532789 0.099772856 -0.09732404 -0.598379 -0.5120204
0.12392157 0.11067331 0.07363051 0.28342733 0.25543526 0.0096951155 0.25828412 -0.23574193
-0.11437537 -0.3321702 -0.06710162 0.028287264 -0.015765589 0.28031805 0.12876596 -0.07557968
-0.29020694 0.07972616 -0.12696175 0.16961828 -0.046831116 -0.2853822 0.010940817 0.23608945
-0.22741991 -0.24879621 0.0967434 -0.06335665 0.041435387 0.27628386 -0.09904978 -0.004854925
0.14923161 0.012622371 0.08527296 -0.003693913 -0.011003515 -0.0909977 0.17987433 0.29108456
-0.17889306 0.05824168 -0.17213255 -1.2000471 0.1561093 -0.040833157 0.21096738 0.11666811
-0.74793345 0.20905338 -0.016615292 0.076845735 -0.2141901 -0.40995872 -0.10034332 0.32958683
0.066391185 0.14919153 0.09736811 -0.057887267 0.053826954 -0.060881183 -0.2757276 1.0583156
0.045034 -0.10100322 -0.501796 -0.109563366 -0.06301001 -0.040618546 -0.3347998 0.31833345
-0.06827179 0.80562323 -0.40984604 -0.041202493 0.036908366 -0.08629681 0.3053029 -0.30283797
-0.043355566 0.059175696 -0.28893945 -0.15634093 0.00075552403 0.124181464 0.015385707 0.3485785

encoder.mean_encoder.bias f4 [10]
00000000: 3ec5 84bd 436f 97bc 8cd7 1e3d 11a5 7e3d
00000010: 8699 acbc 01d9 93bc f2e3 bd3d 74ed 353d
00000020: 1c7c ac3d bd15 c93d
-0.064829335 -0.01848567 0.03877978 0.06216914 -0.0210693 -0.018047811 0.09271993 0.044415906
0.084221095 0.098185994

encoder.var_encoder.weight f4 [10, 64]
00000000: efd7 e93b d000 13bd 6758 c1ba 1604 14be
00000010: 0a90 c9bd b65d 9d3c fcfe 373d 6c56 083e
00000020: 0bd6 de3d e660 55bc 5d68 31bc 37e9 053c
00000030: f0a7 5e39 ed06 33bd 799e 9e3c 82c6 1c3c
00000040: bf3c 1e3d b24b ffbc 9bcb cd3c f936 4f3c
00000050: cbbd 99bc 25d2 59bc 78e4 8e3d 6844 123e
00000060: 53d5 473d ad65 f83d b7f7 8f3c 68f9 283e
00000070: 180c 6bba dbea 963d a6f8 b938 7c8d 91bd
00000080: 0510 b63c 4058 2f3d f2af 103d 32ed 9f3d
00000090: 4b91 9f3c 20b3 143e 59cc 11bd 69e9 e0bd
000000a0: 6464 173d 91ed 453b 645b ca3d 62ae f3bc
000000b0: 9d18 183e a591 5dbd 5182 b6bc bd8b cd3d
000000c0: dc5f 4e3d d406 30bd f626 203c a932 2a3d
000000d0: e4ef 2ebd 25a3 57bd 5b12 9abc c781 273d
000000e0: b3a1 febc ccae cabd 2448 893b d815 c4bc
000000f0: 5939 bc3b b666 06bd f627 f5bc 06ca 99bc
00000100: 7478 1c3d 4bde cf3d 5dca 51bd 8680 19be
00000110: d276 37bd 4326 283d 123d 923d 44f3 b13e
00000120: 84d7 453e 8cfd 163e 029f 3d3c 83af aebd
00000130: d6e9 433c e006 853d fa23 753b f384 53bd
00000140: 4797 853d ca96 21bc 9bed 123c 8709 9dbc
00000150: c3fe b73d f384 323d ffea 483d 765e 3fbd
00000160: 8d9f e83d ab50 833d a06a c13c e23f 9bbc
00000170: 3227 be3c 50cf 0cbd 8952 95bb f5ce 5e3d
00000180: 5a7d f73c 1a45 4bbd 54d9 c73d 15e4 5cbd
00000190: ffb6 643d dc47 923d b829 163c a7f3 d53c
000001a0: 22ec 16bd e58f dcbd 0a24 febc 8bc6 253d
000001b0: aea9 513e dc2a cbbc 61ba d23d c263 743e
000001c0: e805 c63d 57ac 5abd 974d ae3b 4300 94bb
000001d0: 67f3 f4bd 2b5f fc3d fba6 8b3c 49ca d2bb
000001e0: bef7 75bd b5e3 d7bc f6ed 5f3c f304 b23b
000001f0: 43e4 133e af5f 923d b280 3c3c c1fc 153d
00000200: 4054 873c 326d 2a3e dae2 23bd 7899 293d
00000210: 3781 943e 922a 823d 7c18 5e3e 7883 87be
00000220: c286 0abc 8713 303d 5b20 c33d edd6 c13c
00000230: 845a 8a3c 1258 553c 9475 b13d 1365 e2bb
00000240: e745 323d e0d5 163d 9664 303d 1e71 913d
00000250: 952a 953d b149 b03d 6522 263d 1807 943e
00000260: bd20 913d 75a3 f8bd abb1 c73d 6c98 17bd
00000270: fa80 28bd e13e 0fbb a949 1c3e ece5 f53c
00000280: 6acf 2d3d 484c 623c 1d91 ef3d c170 2c3d
00000290: 4700 9bbd 6070 d63c 7920 933d 0ad4 b93d
000002a0: d463 2c3d c7b2 f43c d56f 69bc f793 5b3c
000002b0: 72ef cdbd 3e05 d53d 40c0 eabd 5e1d 803e
000002c0: 89e6 023d c563 11bc 5dce cc3d 03d0 543e
000002d0: 81dd 903b aa28 7dbe 00fc 0dbd aaeb e23b
000002e0: 0795 953e b03c ddbb 08b3 d93c a3fa 393d
000002f0: 8a8a 143d d1d1 bd3d 14a5 0dbe 39fd 0f3c
00000300: e986 55bc e105 df3d 45d7 983c 93f3 b0bd
00000310: dd1e 4c3e cf53 0c3c 4138 823e 3f5e b63c
00000320: 42eb 81bb a6be babd bf1b 313d 1020 c2bc
00000330: 9a2a d33c 719e c7bd e7a9 aabd 93f5 2b3d
00000340: 36bf 74bd 3150 82bd cbd4 a43a 779d c93d
00000350: 53e1 3c3d cda6 4ebc 92b9 91bd b7ce fa3c
00000360: f749 7b3d fab9 c7bd 46d5 083e 8789 52bd
00000370: 00b3 59bc f760 3c3e 0e0c 543e 03cc 1f3c
00000380: 4960 14bd 664e 2e3c ecd1 053e c56a 2c3c
00000390: 1781 ba3d 5ddd 9b3d 6202 683c c0ab a1bd
000003a0: 5af3 cfbc 4d77 ba3d 7482 893e f197 9dbc
000003b0: 351d 8bbd 65e9 723d 1160 293e 5eca 37bd
000003c0: 87e4 503d 850a 34bd 1f38 023e b4f6 92bd
000003d0: fbb9 ab3d b9df 573d b75a 003d 5402 80bb
000003e0: fd76 203d 74fe 883c 1238 5a3c bbb9 18bd
000003f0: e5ff 9c3c 17cf 2c3e cbaf 80bc e612 363e
0.007136337 -0.035889447 -0.0014751077 -0.14454684 -0.098419264 0.019209724 0.044920906 0.13314217
0.10880669 -0.013023591 -0.010828105 0.0081732785 0.00021234131 -0.043707777 0.019362675 0.009568812
0.03863215 -0.031164024 0.0251215 0.012647384 -0.018767258 -0.013294731 0.06977171 0.14283907
0.048787426 0.12128768 0.017574174 0.16501391 -0.00089663407 0.07369014 8.867802e-05 -0.07107064
0.022224436 0.04280877 0.035324045 0.07808913 0.01947846 0.14521456 -0.03559527 -0.109820195
0.036960974 0.0030201415 0.09880713 -0.029746238 0.14853139 -0.054093976 -0.022278937 0.100364186
0.050384387 -0.04297526 0.009774914 0.04155222 -0.042709246 -0.05264582 -0.01880758 0.04089525
-0.031082964 -0.09896621 0.004189508 -0.023936197 0.005744141 -0.032812797 -0.029926281 -0.01877309
0.03820081 0.10149821 -0.05121838 -0.14990434 -0.04479105 0.041052114 0.071405545 0.3475591
0.19320494 0.14745158 0.011573555 -0.0852957 0.011957606 0.06495452 0.0037405477 -0.051640462
0.065229945 -0.009862611 0.008967782 -0.019169582 0.08984139 0.04358382 0.049052235 -0.046720944
0.11358557 0.064118706 0.023610413 -0.01895136 0.02321205 -0.034377396 -0.004556958 0.05439659
0.03021114 -0.049626447 0.09758249 -0.053928453 0.05583858 0.07142612 0.00916522 0.026117159
-0.036846288 -0.10769633 -0.031023044 0.04047255 0.20474884 -0.02480071 0.10289455 0.2386618
0.09669095 -0.053387012 0.005319308 -0.0045166328 -0.11960488 0.12322839 0.017047396 -0.0064328057
-0.06005072 -0.026353696 0.013667574 0.005432719 0.14442544 0.071471564 0.011505293 0.036617998
0.016519666 0.16643217 -0.040011264 0.041406125 0.29004833 0.06355776 0.21689028 -0.2646749
-0.00845498 0.042987373 0.09527656 0.023662055 0.016888864 0.013021486 0.086650044 -0.0069090216
0.043523695 0.03682506 0.043064676 0.071016535 0.072835125 0.086078055 0.040560145 0.28911662
0.070863225 -0.12140552 0.09750684 -0.037010595 -0.041138627 -0.0021857547 0.15262474 0.030016862
0.042434134 0.013812132 0.116976 0.042099718 -0.07568412 0.026176631 0.07183928 0.09073646
0.04208739 0.029870404 -0.014247854 0.013401977 -0.10055436 0.104013905 -0.1146245 0.25022405
0.031958137 -0.008873885 0.10000298 0.20782475 0.0044209366 -0.24722543 -0.034664154 0.006925066
0.2921526 -0.0067516193 0.026574627 0.04540504 0.036264934 0.09268535 -0.13832504 0.0087884
-0.013032653 0.10889793 0.018657336 -0.08640208 0.19933648 0.008564903 0.25433543 0.022261737
-0.0039648125 -0.091183946 0.04323935 -0.02369693 0.02577715 -0.09747017 -0.083331876 0.041982245
-0.059752665 -0.063629515 0.0012575624 0.09844487 0.046113323 -0.012613011 -0.07115473 0.030616147
0.061349835 -0.09752269 0.13362607 -0.051400688 -0.013287306 0.18396364 0.20707723 0.00975323
-0.036224637 0.010638809 0.1306836 0.010523503 0.09106653 0.07610581 0.014160724 -0.07894087
-0.025384594 0.09104786 0.2685734 -0.01923749 -0.0679268 0.059304614 0.16540553 -0.044870727
0.05099919 -0.043955345 0.12716721 -0.07175961 0.08385082 0.052703593 0.031336512 -0.0039065275
0.039175976 0.016722895 0.013319032 -0.0372865 0.019164989 0.16875874 -0.015708825 0.17780647

encoder.var_encoder.bias f4 [10]
00000000: c253 d2bc 4c54 4e3c 5ebe 2dbc a21b a9bb
00000010: cd7e d2bc d443 9039 39c0 b2bb 1382 56bf
00000020: 4a92 0f3c 02c1 0ebf
-0.025674704 0.01259334 -0.010604469 -0.005160765 -0.025695229 0.00027516356 -0.0054550436 -0.8379223
0.008762905 -0.55763257

decoder.linear_latent.log_scale_weight f4 [20, 10]
00000000: 53cc c0bf ac5f 98c0 3e9f ffbf bd24 23c0
00000010: 5bfc 64c0 7dc8 81c0 29be 9dc0 7efb 3b3e
00000020: 743c 94c0 a2fb 0ec0 28da a6c0 afaa dac0
00000030: dd07 c2c0 93ae 8ac0 91ce b4c0 5d8c 96c0
00000040: 540e d6c0 89fb b8be 2f55 b6c0 8239 2940
00000050: 75c3 4dc0 7a9e 95c0 8285 66c0 3bdf 98c0
00000060: f5b4 3cc0 ccfd 90c0 4088 7cc0 d7d9 2940
00000070: a5e4 5fc0 49f2 75be ad77 cdbf 3be5 8bc0
00000080: 7463 2bc0 8195 3dc0 e287 9bc0 e6ef 64c0
00000090: d479 acc0 94cc bbbf b71b a1c0 fcd0 9fbf
000000a0: 0ec9 acc0 62ba e6bf 7c86 80c0 94d6 b9c0
000000b0: f147 90c0 8a1a bec0 69ab a6c0 5500 bfc0
000000c0: a0a4 aac0 bde1 f23e cf60 9bc0 a370 97c0
000000d0: 945e 0ec1 121e a1c0 feaa 9dc0 7d90 f5c0
000000e0: 3f4a 81c0 19ec e93e 966f d7c0 e7fa 1140
000000f0: 6a41 b7c0 2f64 c0c0 ce19 5bc0 081c f1c0
00000100: 7223 a2c0 dca3 9bc0 02c9 5ac0 47ef ee3f
00000110: 8029 61c0 17bd d3bf 61ae 06c0 c1ed a8c0
00000120: 42ab 63c0 842c 8ec0 726f 92c0 c506 97c0
00000130: ef21 a0c0 1e22 42bf 5752 92c0 a66f 3a3f
00000140: 548f b7bf 4f2f 31c0 3bb4 36c0 efe2 66c0
00000150: bd84 3dc0 c042 5ac0 06c5 4ac0 8742 b43f
00000160: e6fc 54c0 f1b5 cec0 af13 e3bf 2343 81c0
00000170: faf7 3bc0 ae85 49c0 8e4b 71c0 6a4e 85c0
00000180: 0b14 87c0 90d0 863d aa89 5bc0 85a9 97bd
00000190: d904 c2bf 3f87 60c0 e3ef 5cc0 c254 31c0
000001a0: 50a1 82c0 43d8 94c0 d89a 50c0 c903 aabf
000001b0: aad3 8ac0 1a31 c3bf a9fa cdc0 311a c3c0
000001c0: d8c1 85c0 e121 50c0 1bc0 92c0 9c11 f5c0
000001d0: cf6d b9c0 6aca cb3e f7a6 84c0 f529 49bf
000001e0: 99fd acbf f305 92c0 be38 1ac0 f7cf 49c0
000001f0: 69f1 53c0 c832 72c0 66fa 8ac0 d775 923e
00000200: dbe9 7ec0 c488 f1bf b9c2 cfc0 b9c2 c6c0
00000210: 9499 bec0 789c d8c0 dd22 a8c0 9f63 f7c0
00000220: ed56 7dc0 b4c3 923f dc1d d3c0 3e6f eac0
00000230: 0a13 aec0 8652 bbc0 50c8 e4c0 5680 f3c0
00000240: 73c4 b5c0 1849 d3c0 4b32 8dc0 79c9 b93f
00000250: aab6 37c0 e10b e1c0 f07e 0ac1 558e 78c0
00000260: dfc5 b6c0 c61c 88c0 b297 8fc0 6929 16c0
00000270: bdf4 88c0 810b 723e 04a1 92c0 01bb 3f3e
00000280: 6bab 80c0 d072 71c0 975d b8c0 cf95 60c0
00000290: 50bd b8c0 b7c1 cbc0 4323 3ac0 b53b 803f
000002a0: ef94 d3c0 31ba 13c0 71a9 8cbf 4c81 88c0
000002b0: e71e 30c0 3cd7 46c0 2606 32c0 707e 86c0
000002c0: c92d 91c0 221f e6bf 3d22 f1c0 820a 05c0
000002d0: 6c1d bec0 15ae a9c0 b224 81c0 094f b2c0
000002e0: c520 69c0 6c06 c6c0 adf1 5ec0 fa21 2e40
000002f0: 51a5 87c0 6c89 b6bf f7f0 a7bf 9371 41c0
00000300: 4b5d 09c0 8b36 2bc0 f6b5 6cc0 ecd4 56c0
00000310: 72bb 35c0 e118 9f3f f8ba 9ac0 f863 45bf
-1.5062355 -4.7616787 -1.9970472 -2.5491173 -3.5779026 -4.0557237 -4.929463 0.18357655
-4.6323795 -2.2341084 -5.2141304 -6.8333354 -6.06346 -4.3338103 -5.6502156 -4.704634
-6.689249 -0.36129406 -5.6978984 2.644135 -3.2150548 -4.6755953 -3.6018987 -4.77725
-2.9485447 -4.530981 -3.945816 2.653921 -3.4983304 -0.24018206 -1.6052147 -4.371732
-2.6779451 -2.96225 -4.8603373 -3.5771422 -5.3898716 -1.4671807 -5.034633 -1.2485652
-5.399543 -1.802563 -4.0164165 -5.8074436 -4.508782 -5.9407396 -5.208424 -5.9687905
-5.332596 0.4743785 -4.8555675 -4.7324996 -8.89809 -5.0349207 -4.927123 -7.6738877
-4.0403132 0.4568794 -6.7323713 2.2809389 -5.726735 -6.0122294 -3.42345 -7.534672
-5.066827 -4.8637524 -3.4185185 1.8666772 -3.518158 -1.6542081 -2.1043932 -5.2790227
-3.5573277 -4.442934 -4.576104 -4.7195764 -5.0041423 -0.7583331 -4.5725513 0.7282661
-1.4340615 -2.7685125 -2.8547504 -3.607601 -2.9612267 -3.410324 -3.1682754 1.4082803
-3.3279357 -6.4597096 -1.7740382 -4.0394454 -2.9370103 -3.1487842 -3.7702365 -4.165822
-4.2211967 0.06582749 -3.4302773 -0.0740538 -1.5157729 -3.5082548 -3.4521415 -2.7707982
-4.0821915 -4.651399 -3.259451 -1.3282405 -4.338338 -1.524936 -6.436848 -6.096947
-4.1799126 -3.2520678 -4.5859504 -7.6583996 -5.7946544 0.39802867 -4.1453815 -0.78579646
-1.3514892 -4.563226 -2.4097133 -3.1533182 -3.3116095 -3.7843494 -4.343066 0.2860553
-3.9830234 -1.8869863 -6.49252 -6.21127 -5.9562473 -6.7691 -5.254256 -7.730911
-3.9584305 1.1465974 -6.597395 -7.3260794 -5.439824 -5.8538237 -7.149452 -7.609416
-5.6802306 -6.6026726 -4.4123893 1.451461 -2.870524 -7.0327 -8.655991 -3.8836873
-5.711654 -4.2535124 -4.4872675 -2.3462775 -4.2798753 0.23637201 -4.582155 0.1872368
-4.020925 -3.7726326 -5.7614245 -3.5091436 -5.7731094 -6.367397 -2.9084022 1.0018221
-6.6119304 -2.3082392 -1.098921 -4.2657833 -2.7518861 -3.1068869 -2.7816253 -4.2029343
-4.536839 -1.7978251 -7.5354295 -2.0787663 -5.9410915 -5.3025002 -4.0357294 -5.572148
-3.642625 -6.188284 -3.4835007 2.7208238 -4.23893 -1.4260688 -1.3120412 -3.022557
-2.1463192 -2.675204 -3.698606 -3.3567457 -2.8395658 1.2429467 -4.8353233 -0.77105665

decoder.linear_latent.bias f4 [20]
00000000: 2f4c acc0 627c 08c0 25b0 6fc0 6610 6cc0
00000010: 0aa2 c8bf 59ba 24c0 dd1a 95bf 1f50 49c0
00000020: d578 b0c0 67d0 66c0 1557 90c0 c5c3 83bf
00000030: 3d97 90c0 e6f8 2c3e 3f33 783f 1bc4 eabe
00000040: 2250 e2bf 4499 8bc0 17cc c3bf 84bb bfc0
-5.3842998 -2.1325917 -3.745126 -3.688501 -1.567445 -2.5738738 -1.1648823 -3.1455152
-5.51475 -3.6064699 -4.51063 -1.0294119 -4.5184617 0.16891822 0.96953195 -0.45852742
-1.7680705 -4.362459 -1.5296658 -5.99164
