tests/ExampleModel.pth (torch_old, 34321 bytes, 18 tensors)

model_state f4 [64, 20]
0	0xbe853ce1	-0.2602301
1	0xc00c50e6	-2.1924376
2	0xbe604172	-0.21899965
3	0xbf01899c	-0.506006
4	0xc002692b	-2.037669
5	0xbff011cc	-1.8755431
6	0xbed01ed3	-0.40648517
7	0xc018da34	-2.388318
8	0x3ec26381	0.3796654
9	0xbf9f7f02	-1.2460635
10	0xbf25d201	-0.64773566
11	0x3e86cfc3	0.26330385
12	0x3e10aa75	0.14127524
13	0x3ed4fd70	0.41599607
14	0x3f7ccbdf	0.9874858
15	0xbf757856	-0.95886743
16	0x3eb64940	0.3560276
17	0xbeceb548	-0.40372682
18	0xbf2c63e8	-0.67339945
19	0xbe94d4d0	-0.29068613
20	0xbe45c330	-0.1931274
21	0x3fe4e80b	1.7883314
22	0x3fc2f810	1.5231953
23	0xbf0d9db7	-0.5531878
24	0x3efa0754	0.48833716
25	0x3fbfd38a	1.4986432
26	0x3f061c1d	0.5238665
27	0x3e62ecd3	0.22160654
28	0x3e14ab40	0.14518452
29	0x3c8b8b74	0.01703427
30	0x3b29da22	0.002591737
31	0xbcd25d07	-0.025679125
32	0xbe355dbc	-0.17711538
33	0x3f065238	0.52469206
34	0xbe62e357	-0.22157036
35	0x400158a6	2.0210357
36	0xbdd5121c	-0.10403845
37	0xbd40486f	-0.046944078
38	0x3faf7654	1.3707986
39	0x3e36f3f0	0.17866492
40	0x3c3f0d60	0.011660904
41	0x3ee002e6	0.4375221
42	0x3e908190	0.28223848
43	0x3e879f67	0.26488802
44	0xbfeb8331	-1.8399411
45	0xbee4b9c7	-0.44672987
46	0x3f919e44	1.1376424
47	0xbe8bee57	-0.27330276
48	0xbf1b6e87	-0.60715526
49	0xbe5a7df7	-0.21337114
50	0xbebdc953	-0.3706766
51	0x3c5046d2	0.012712197
52	0xbe616c96	-0.22014078
53	0xbed609d8	-0.41804385
54	0x3fbae9ca	1.4602597
55	0x3f224fec	0.634032
56	0xbd1a722a	-0.03770653
57	0xbf21dccd	-0.6322754
58	0x3e8d5409	0.27603176
59	0xbedd70c3	-0.43250093
60	0x3e97a35f	0.2961683
61	0xbfe94561	-1.8224298
62	0x3f1aca1f	0.6046466
63	0x3f363289	0.7117086
64	0xbf7d7fc0	-0.99023056
65	0xbf7670ef	-0.96266073
66	0x3f080a6d	0.5314091
67	0xbf3494dd	-0.7053965
68	0x402d7bbd	2.7106774
69	0xbd848949	-0.064714976
70	0x3e66bc28	0.22532713
71	0x3dc1af98	0.0945732
72	0x3fab237e	1.3370206
73	0x3ef92acc	0.48665464
74	0x3eb17afd	0.34664145
75	0x3f4872f3	0.783004
76	0xbcb17a5e	-0.021664795
77	0x3f8ede82	1.1161654
78	0x3f95af18	1.1694059
79	0x3fb5515b	1.4165453
80	0x3f3b88d8	0.7325568
81	0x3fc31386	1.5240333
82	0x3fc96e7b	1.5736841
83	0x3f16b490	0.58869267
84	0x3ef7eb0b	0.4842151
85	0x3f8b4ab1	1.0882169
86	0xbf3a3e55	-0.7275136
87	0x3febbb0e	1.841646
88	0x3e94eb91	0.29085973
89	0x400517c2	2.079575
90	0x3f6f2f76	0.93431795
91	0x3d954084	0.07287696
92	0x3f227e8b	0.6347434
93	0xbe749baf	-0.23887514
94	0x3fa95cda	1.3231461
95	0x3e981d40	0.29709816
96	0x3f9edf0d	1.241182
97	0x3f5a637e	0.85308063
98	0x3eb4d615	0.35319582
99	0x3f398ea3	0.7248327
100	0xbe14254c	-0.14467353
101	0x3ebb4152	0.36573273
102	0xc024689d	-2.568885
103	0x3e00c51e	0.12575194
104	0x3e202ce8	0.1564213
105	0xbe9edf71	-0.31029847
106	0xbe809818	-0.25116038
107	0x3e2b0cb0	0.16704059
108	0xbf9a997e	-1.2078092
109	0xbe60e8cb	-0.21963803
110	0x3e480a67	0.19535218
111	0x3aa85518	0.0012842743
112	0xbf5c896a	-0.8614718
113	0xbfab2462	-1.3370478
114	0xbf0e33f6	-0.55548036
115	0xbf1fcbf7	-0.624206
116	0xbf479127	-0.7795586
117	0x3e18872d	0.14895315
118	0xc06b00b3	-3.6719177
119	0xbf9b33f1	-1.2125226
120	0x3ef9b8a8	0.48773694
121	0xbea6c53f	-0.32572362
122	0xbd6323d1	-0.05545408
123	0xbe3059dc	-0.17221779
124	0x3ebd87ac	0.37017572
125	0x3e9b81ce	0.3037247
126	0xbf44ccf3	-0.7687523
127	0x3ed5bbd6	0.4174487
128	0xbf9f2d8d	-1.2435776
129	0xbd224e1c	-0.039625272
130	0x3f0e86ac	0.5567424
131	0xbe0700fb	-0.13183968
132	0xbdb7ac40	-0.08968401
133	0xbf926ed8	-1.1440077
134	0xc007e819	-2.123541
135	0x3d315c8f	0.04330116
136	0xbfa0a0e5	-1.2549101
137	0xbf1f7615	-0.62289554
138	0x3f4e3eac	0.8056438
139	0xbea7cf2e	-0.32775253
140	0x3def1156	0.116732284
141	0x3f315666	0.6927246
142	0xbf44c2e9	-0.7685991
143	0xbe43f07f	-0.1913471
144	0x3e528f0f	0.20562385
145	0xbe1ba971	-0.15201356
146	0xbfa61e09	-1.2977916
147	0x3c0da596	0.008645436
148	0xbfb2fcae	-1.3983362
149	0x3de3131d	0.1108763
150	0x3ef0fafa	0.4706648
151	0xbf91d977	-1.139449
152	0xbfc135bd	-1.5094525
153	0xbff2cf30	-1.8969479
154	0xbe9a67fc	-0.3015746
155	0x3da282b3	0.07935085
156	0xbf6c5aa5	-0.9232581
157	0x3cc1698f	0.023609905
158	0xbf18a7b3	-0.5963089
159	0xbfcdadb4	-1.6068635
160	0x3eaca814	0.33721983
161	0x3e5e589d	0.21713491
162	0x3f0ce3cd	0.55035096
163	0x3dc0f1a2	0.09421088
164	0x3e941664	0.28923333
165	0x3f69db35	0.9135011
166	0x3f07aa2a	0.52994025
167	0x3ecaddd4	0.39622366
168	0x3e36e41c	0.17860454
169	0x3f0b2c2b	0.5436427
170	0xbeaf88e5	-0.3428413
171	0x40c2fd44	6.093416
172	0x3eaa76c3	0.33293733
173	0xbf5a9967	-0.85390323
174	0x3f0a6e40	0.5407448
175	0xbe598ad6	-0.21244368
176	0xbdf6b9a3	-0.12047126
177	0x3d5c93f9	0.053852055
178	0x3e368cd1	0.17827155
179	0x3dc97d7e	0.09838389
180	0x3fd320c7	1.6494378
181	0xbf5b946b	-0.8577334
182	0xbf9756b3	-1.1823334
183	0x3f771d1a	0.9652878
184	0x3f56c2e7	0.8389115
185	0xc002725c	-2.03823
186	0x3e96bb7b	0.2943991
187	0xbf899a4a	-1.075021
188	0x3fa4c566	1.2872741
189	0xbe3a9a83	-0.18223004
190	0x3f02445c	0.5088556
191	0xbf4398fb	-0.76405305
192	0x3f39250c	0.72322154
193	0xbf496192	-0.78664505
194	0xbf25c561	-0.647543
195	0x3e46a75b	0.19399779
196	0x3f615a69	0.8802858
197	0x3d8dd65f	0.06925654
198	0xbdc89e55	-0.097958244
199	0x3f84c692	1.0373099
200	0x3ff9aaf0	1.9505291
201	0x3ed7d293	0.42152843
202	0x3d0a8a13	0.033823084
203	0x400ebbc6	2.2302108
204	0x3eb21a82	0.3478585
205	0x3efcc44c	0.49368513
206	0xbddfa57a	-0.10920234
207	0x4012f397	2.2961175
208	0x400af7b2	2.1713681
209	0x3ff41f0c	1.9071975
210	0x3fee862e	1.8634698
211	0x3d02995a	0.03188453
212	0x40493216	3.143682
213	0x3db433df	0.08798956
214	0xbec78a4d	-0.38972703
215	0x3e5e67d0	0.21719289
216	0xbe9c63ae	-0.305448
217	0x4063221e	3.5489573
218	0xbe13ec39	-0.1444558
219	0x401842fe	2.3790889
220	0xbe0037de	-0.12521312
221	0xbeb7dd9e	-0.35911268
222	0x3fc37cd5	1.5272471
223	0xbcecab02	-0.028890137
224	0x3d7ef67f	0.062246796
225	0x3d6abb8b	0.05730776
226	0x3f17ae28	0.59250116
227	0xbd57fe2e	-0.05273264
228	0x3fb05266	1.3775146
229	0xbb940186	-0.004516783
230	0x3e3a4562	0.1819053
231	0x3f6e57f1	0.9310294
232	0x3ebce3da	0.36892587
233	0x40942f36	4.630763
234	0x3e584bbb	0.21122639
235	0x3e963440	0.2933674
236	0x3f475c53	0.7787525
237	0xbde9ef37	-0.1142258
238	0x3fbe5b6f	1.4871653
239	0x3f52dc8a	0.82367766
240	0xbeb43ce5	-0.3520271
241	0xbfa8984b	-1.3171476
242	0xbdb919f5	-0.09038154
243	0xbf011a51	-0.5043078
244	0x3ee9a272	0.45631748
245	0xbcff5d31	-0.031172367
246	0xc0490a9b	-3.1412723
247	0x3ef58c16	0.4795844
248	0x3f9ae6a5	1.2101637
249	0x3f0f3b3c	0.5594976
250	0xbe238fdc	-0.15972847
251	0x3f0af65f	0.5428218
252	0xbf16f422	-0.5896627
253	0x3ec0ae7b	0.37633118
254	0xbc69fb2a	-0.014281074
255	0xbf13871f	-0.57628053

model_state f4 [64]
0	0x3e56c20c	0.2097246
1	0x40215cfd	2.5213006
2	0xbe7fdcfd	-0.24986644
3	0x403f6e16	2.991094
4	0x40050e28	2.078989
5	0xbf64995b	-0.892965
6	0x3f93d007	1.154786
7	0xbf3b8136	-0.73244035
8	0x3fad6115	1.3545252
9	0xc01b0315	-2.422063
10	0x3f302634	0.68808293
11	0xbdd59dd0	-0.10430491
12	0xbf306ba4	-0.68914247
13	0xbf865f04	-1.0497746
14	0xbe863053	-0.26208743
15	0x3f2cc355	0.67485553
16	0xbf8b2b87	-1.0872658
17	0x3ee4d9be	0.44697374
18	0xc024dff5	-2.5761693
19	0x3f440e64	0.7658446
20	0xbf37a07e	-0.71729267
21	0x402a3438	2.6594372
22	0x3e195670	0.1497438
23	0xbf3173b4	-0.69317174
24	0xbe23e367	-0.16004716
25	0xbeae0dfd	-0.33995047
26	0xbf655031	-0.8957549
27	0xbeb41040	-0.35168648
28	0x401981d7	2.3985498
29	0xbf0c0ddf	-0.54708666
30	0x3fbd7198	1.4800291
31	0xbfda318f	-1.7046374
32	0x3faa43e7	1.3301972
33	0x3f961938	1.1726446
34	0xbf871e8f	-1.0556201
35	0xc02dd57b	-2.7161548
36	0x402bc95a	2.6841645
37	0xbe9cd05b	-0.30627713
38	0x3eb626d5	0.355765
39	0xc022ca17	-2.5435846
40	0xbe401619	-0.1875843
41	0x3e9bd882	0.3043862
42	0xbfb3f196	-1.4058101
43	0xbd7389d3	-0.05945761
44	0x3fbebb29	1.4900867
45	0x3f488d27	0.7834038
46	0xbd57407a	-0.052551724
47	0x3f783009	0.96948296
48	0x3d25c24f	0.04046851
49	0x404ff49a	3.2493043
50	0xbfea3b43	-1.8299335
51	0xbf8a5927	-1.0808457
52	0x3e7dcade	0.24784419
53	0x3f95457a	1.1661828
54	0xbf83a4ae	-1.0284631
55	0x3f12887e	0.5723952
56	0xbdd63e8d	-0.10461149
57	0xbee86ab3	-0.45393905
58	0x3f96fa29	1.1795093
59	0x3ecd7b6c	0.40133226
60	0x402bb77d	2.6830742
61	0xc05a5dff	-3.411987
62	0x3e835590	0.25651217
63	0xbf73f252	-0.95291626

model_state f4 [64]
0	0x3fd87e38	1.6913519
1	0x3fda3187	1.7046365
2	0x3ea3a347	0.31960508
3	0x3f3ef4e4	0.74592423
4	0x3f751d21	0.9574757
5	0x40067bd1	2.1013072
6	0x3f1c5a84	0.61075616
7	0x3fc53cd1	1.5409185
8	0x401479d2	2.3199353
9	0x3f081a84	0.5316546
10	0x3feaea28	1.8352709
11	0x40123ef1	2.2850916
12	0x3f45e2a7	0.7729897
13	0x3f74bde4	0.9560225
14	0x3fdf5563	1.7447933
15	0x400415cb	2.0638301
16	0x3fa6f97b	1.3044885
17	0x3f81eb42	1.014992
18	0x3f881b78	1.0633383
19	0x4005ae6d	2.088771
20	0x3f1280dd	0.5722788
21	0x3f5551c2	0.8332788
22	0x3fb3c00d	1.4042984
23	0x3e25d989	0.16196264
24	0x4000427d	2.0040581
25	0x3f67485e	0.903448
26	0x3fe70fcb	1.8051695
27	0x3ec813bf	0.39077565
28	0x3f6db899	0.928598
29	0x3f089097	0.53345627
30	0x3ea86297	0.32887718
31	0x3f6fa29c	0.936075
32	0x3fb890ca	1.4419186
33	0x3f0d5072	0.55200875
34	0x3e183b09	0.1486627
35	0x3f8347fe	1.0256345
36	0x3f01b717	0.5067
37	0x405acfe7	3.4189394
38	0x400c6f1c	2.1942816
39	0x3fdaa01a	1.7080109
40	0x3f4cd727	0.80015796
41	0x3ef9d995	0.48798814
42	0x3dc73edf	0.097287886
43	0x3f85a3fa	1.0440667
44	0x3f351247	0.70731014
45	0x3f162185	0.58644897
46	0x3f9c4071	1.2207166
47	0x3faf5683	1.3698276
48	0x3f85d9a6	1.0457046
49	0x3f9a2a64	1.2044187
50	0x3f5dfbf1	0.8671256
51	0x3ff7bda3	1.9354748
52	0x3ffd65e4	1.979672
53	0x3f72b6d8	0.9481025
54	0x3fc52ea1	1.5404855
55	0x3f903be2	1.1268275
56	0x3f71c82a	0.9444605
57	0x3efc18d1	0.49237683
58	0x3f1c0bc6	0.60955465
59	0x3f4a16cd	0.7894104
60	0x3fcedea9	1.61617
61	0x3fe3279f	1.7746466
62	0x3fbbfc2a	1.4686329
63	0x406441ee	3.566524

model_state f4 [64]
0	0x3ee21572	0.44156986
1	0x3f5925a6	0.8482307
2	0x3f9055e6	1.1276214
3	0x3fef52db	1.869716
4	0x3f85d256	1.0454814
5	0x3f462aed	0.7740925
6	0xbe081849	-0.13290514
7	0xbf1e89b3	-0.6192886
8	0x403662e4	2.8497858
9	0x3fd5672d	1.6672112
10	0x3fff1b23	1.9930156
11	0x3faf5620	1.3698158
12	0x3f17a671	0.59238344
13	0xbfb3ea41	-1.4055864
14	0x3f35b446	0.709782
15	0xbe083f2c	-0.13305348
16	0x3fad4c20	1.3538857
17	0x3fd8df8b	1.694322
18	0xbf099c2a	-0.5375391
19	0x3f1e202a	0.6176783
20	0xbf459fab	-0.7719676
21	0x3f41ec7d	0.7575148
22	0x3ea899e6	0.32929915
23	0x3fd3a523	1.6534771
24	0x3f6b55c8	0.91927767
25	0x3fcf2c04	1.6185308
26	0x3fc9274f	1.5715121
27	0x3fa421f8	1.2822866
28	0x3f20db00	0.6283417
29	0x3f8a791b	1.0818208
30	0x3dc52dac	0.09627852
31	0x3fe4e731	1.7883054
32	0x3fa2ce87	1.2719277
33	0x40078935	2.1177495
34	0x3f993bb6	1.1971347
35	0x3fa388aa	1.2776082
36	0x3fac5618	1.3463774
37	0x3fb51c35	1.4149233
38	0x3f9d8bfc	1.2308345
39	0x3f7bf9cd	0.9842804
40	0x3eef695e	0.46760076
41	0x3f9a86b7	1.2072362
42	0x3f04cbf2	0.51873696
43	0x3f150026	0.5820335
44	0x3f155c2d	0.58343774
45	0x3f499455	0.7874196
46	0x3ea996d9	0.331229
47	0x3ff9b917	1.950961
48	0x3fa532e7	1.2906159
49	0x3ec2282e	0.3792128
50	0x3c6f3637	0.014600328
51	0x3d7fd991	0.062463347
52	0x3f7f43c9	0.99712807
53	0xbe03e84c	-0.12881583
54	0x4023b71c	2.558051
55	0x3f342e95	0.7038358
56	0xbc8852d7	-0.016641064
57	0x3fac17ed	1.3444802
58	0x3fd0b8ea	1.6306431
59	0x3f7d7223	0.99002284
60	0x3f86cc63	1.0531124
61	0x3f2ec4b7	0.68268913
62	0x3f4be4ca	0.7964598
63	0x3fae647c	1.3624415

model_state f4 [64]
0	0xbf9c2ad1	-1.2200567
1	0x40a4f6da	5.1551332
2	0x3f542666	0.8287109
3	0x4066873a	3.6020036
4	0x408a5676	4.3230543
5	0xc07d2b4b	-3.9557674
6	0xbf8a53a7	-1.0806779
7	0xc040de4b	-3.0135677
8	0x4067601d	3.6152413
9	0xc0739868	-3.8061771
10	0x3f9a0675	1.203322
11	0x40786565	3.8811886
12	0xc00a687a	-2.1626267
13	0xbed0f4df	-0.40811822
14	0x3fdc6bda	1.7220414
15	0x4074a77c	3.8227224
16	0x3fb0e6a1	1.3820382
17	0x3db7d5a3	0.08976295
18	0xc098fd84	-4.7809467
19	0xc0485a2c	-3.1305037
20	0xbfa27d32	-1.2694457
21	0x4087371b	4.2254767
22	0xc00883d4	-2.1330462
23	0xbed57c71	-0.41696504
24	0x405d6069	3.4590094
25	0xbe98a99d	-0.29816905
26	0xc086616f	-4.1993937
27	0x3fb6d772	1.4284499
28	0x40092ff3	2.1435516
29	0xc00a8e09	-2.1649191
30	0x3fbe6d3c	1.4877086
31	0xc04c43a3	-3.1916282
32	0x3f800772	1.0002272
33	0x3f206890	0.6265955
34	0xbfb311f9	-1.398986
35	0xc083bfc9	-4.1171613
36	0x4018de98	2.388586
37	0x3fd96494	1.6983819
38	0x4007d7da	2.1225495
39	0xbf1079e6	-0.56436
40	0xbfc6a44d	-1.5518891
41	0xbe994476	-0.29935044
42	0xc01822f2	-2.377133
43	0x3f798060	0.9746151
44	0x406007a4	3.5004663
45	0x4006c813	2.1059616
46	0x3f66b679	0.9012218
47	0x3e035712	0.12826183
48	0x4007f623	2.124398
49	0x408f4135	4.47671
50	0xc06d303b	-3.7060688
51	0xc073ff30	-3.8124504
52	0x3fe4d842	1.7878497
53	0x4041fa5f	3.0309064
54	0x3e265c7e	0.1624622
55	0x3fa2e9b8	1.2727575
56	0xc01510ca	-2.3291497
57	0xbfac41bc	-1.345756
58	0x3fb8c8db	1.4436296
59	0x3fbb95f1	1.4655133
60	0x40965957	4.6984057
61	0xc0bd55a4	-5.916704
62	0x3f9afab6	1.2107761
63	0xc085d556	-4.182292

model_state f4 [64]
0	0x40cd06c8	6.407078
1	0x40e5cf26	7.1815367
2	0x3fd901ac	1.6953635
3	0x400af511	2.1712077
4	0x40929eb4	4.581873
5	0x4113ddc4	9.241642
6	0x401faa9a	2.4947877
7	0x4083fc32	4.1245356
8	0x411a4cd7	9.64376
9	0x401c7ccd	2.4451172
10	0x3fd2fede	1.6484029
11	0x41340dd4	11.253376
12	0x40709bc8	3.7595081
13	0x3ff39cde	1.9032247
14	0x40b60bbd	5.688933
15	0x40cfaffd	6.490233
16	0x40d6a666	6.7078123
17	0x401e8ae0	2.4772263
18	0x407d6032	3.9589963
19	0x40dc00c8	6.8750954
20	0x3f55e41d	0.835512
21	0x3ffc7566	1.9723327
22	0x40d1248f	6.5357127
23	0x3fa21d79	1.2665244
24	0x40d7b0aa	6.7403154
25	0x3fe72185	1.8057104
26	0x4119141a	9.567408
27	0x3feab4d1	1.8336431
28	0x3f79abf9	0.97528034
29	0x4013a013	2.3066452
30	0x3f8838f6	1.0642383
31	0x4013d35e	2.3097758
32	0x40a50d43	5.157869
33	0x40152a8a	2.3307214
34	0x3f970913	1.1799644
35	0x40b72ba2	5.7240763
36	0x3ff0b2a3	1.8804516
37	0x40ffac70	7.9897995
38	0x41135f3e	9.2107525
39	0x40a03f70	5.007744
40	0x403e8b13	2.9772384
41	0x3fe3bfe2	1.7792933
42	0x3f5f88f7	0.87318367
43	0x403ad687	2.9193437
44	0x4073df8d	3.8105195
45	0x3ff66b81	1.9251558
46	0x406997ea	3.649897
47	0x409b4f16	4.853404
48	0x40913fc8	4.539036
49	0x407469a4	3.8189478
50	0x4044492d	3.0669663
51	0x40f87505	7.7642846
52	0x40e64390	7.1957474
53	0x406a1f84	3.6581736
54	0x405937ab	3.3940227
55	0x403b57c3	2.9272316
56	0x40a9b0de	5.30284
57	0x3faf3777	1.3688802
58	0x3fc54ca0	1.5414009
59	0x3fef1e90	1.8681202
60	0x40a3a849	5.1142926
61	0x40d37425	6.607928
62	0x4020b42e	2.5109973
63	0x41c1a6bd	24.206415

model_state f4 [64, 64]
0	0xbe72e6b4	-0.23720819
1	0x3e669f81	0.22521783
2	0xbeb0c859	-0.34527853
3	0xbeb92239	-0.36158922
4	0xbeff499d	-0.4986085
5	0x3e0389e6	0.12845573
6	0x3ebddc73	0.37082252
7	0x3d600670	0.05469364
8	0xbf15c94f	-0.585103
9	0x3da74095	0.08166615
10	0xbf0b9812	-0.54528916
11	0xbf088140	-0.5332222
12	0x3d74b723	0.059744965
13	0xbf146925	-0.5797294
14	0x3eee88d5	0.4658877
15	0xbf30c555	-0.69051105
16	0xbeddb592	-0.4330259
17	0x3dfbccc4	0.12294915
18	0x3e60b544	0.21944147
19	0x3f7a7512	0.97834885
20	0xbe11f244	-0.14252573
21	0xbd20d0fe	-0.03926181
22	0x3e044e77	0.12920557
23	0xbebe2857	-0.37140152
24	0xbf9d7aa0	-1.2303047
25	0xbcff11cb	-0.031136414
26	0xbed684cd	-0.41898194
27	0xbd4c31da	-0.04985223
28	0xbf341783	-0.70348376
29	0x3f256cc7	0.64619106
30	0xbf173c81	-0.59076697
31	0x3f645511	0.891923
32	0xbe606e0f	-0.21916984
33	0x3f86ccea	1.0531285
34	0xbead16b9	-0.338064
35	0x3f03dbba	0.5150715
36	0xbe473b80	-0.19456291
37	0x3e1c579c	0.15267795
38	0xbef22183	-0.47291192
39	0x3e139114	0.14410812
40	0x3f184ba4	0.5949042
41	0x3f25bf84	0.64745355
42	0x3bc84e7a	0.0061128708
43	0xbf059847	-0.5218548
44	0xbef1a110	-0.47193193
45	0xbef8970c	-0.4855274
46	0x3d938914	0.0720388
47	0xbddcf411	-0.107887395
48	0xbf10f9d0	-0.56631184
49	0x3e2ac702	0.16677478
50	0x3ee79d9a	0.45237428
51	0x3e77f050	0.24212766
52	0xbfb7f3de	-1.4371297
53	0xbf3cb76c	-0.7371738
54	0xbf06c4c8	-0.52644014
55	0x3e950dee	0.2911219
56	0x3e40117e	0.18756673
57	0xbf28c260	-0.6592159
58	0xbf6b0622	-0.9180623
59	0xbf55dfc3	-0.8354456
60	0xbeda6dac	-0.42661798
61	0x3ed48807	0.4151003
62	0xbe776e65	-0.24163206
63	0x3ca515f2	0.020152066
64	0x3dfeec86	0.12447457
65	0xbf7c2e39	-0.9850803
66	0x3dafea97	0.08589666
67	0x3e4266dd	0.18984552
68	0xbd7fd5ec	-0.06245987
69	0x3e86e941	0.26349834
70	0x3d8ab623	0.06773021
71	0x3d0502f6	0.032473527
72	0xbf81ca77	-1.0139912
73	0xbe7655fe	-0.24056241
74	0x3f3f0d53	0.74629706
75	0xbe83a42d	-0.25711194
76	0x3d99c73e	0.075087056
77	0xbf224077	-0.63379616
78	0xbe2d13df	-0.16902111
79	0xbc8fb94c	-0.017544411
80	0xbf8a01b8	-1.0781775
81	0x3dd5fdb8	0.10448784
82	0xbdfef223	-0.12448528
83	0x3cad12af	0.021127073
84	0x3e840197	0.25782463
85	0xbf725d9f	-0.94674104
86	0x3eb49941	0.35273173
87	0xbed2a38d	-0.41140404
88	0xbe98ddfb	-0.29856858
89	0xbf04a381	-0.5181199
90	0xbeb5cb5c	-0.35506713
91	0x3eb3643c	0.3503741
92	0x3ebd6d83	0.36997613
93	0xbe76e64e	-0.24111292
94	0x3dec635b	0.11542388
95	0x3cb9f223	0.022698468
96	0x3f3919cb	0.7230498
97	0xbef1cde6	-0.472274
98	0xbdb08efa	-0.086210206
99	0x3f0ea0ff	0.5571441
100	0xbf30a23c	-0.6899755
101	0xbf6535c2	-0.8953515
102	0xbef675f6	-0.48136872
103	0xbf40d18e	-0.75319755
104	0x3e9dede5	0.30845562
105	0xbe608985	-0.2192746
106	0x3d5b0088	0.053467304
107	0xbfa67080	-1.3003082
108	0xbf0aaa87	-0.54166454
109	0xbebc5883	-0.3678628
110	0xbf9a698a	-1.2063458
111	0x3f5efa6e	0.87100875
112	0xbe0803d7	-0.13282715
113	0xbf66db14	-0.90178037
114	0x3f17d7bd	0.59313565
115	0x3f09376b	0.53600186
116	0xbfd530e0	-1.665554
117	0xbf93ac50	-1.1536961
118	0xbf6d9783	-0.92809314
119	0x3da648d7	0.08119362
120	0x3ee1982e	0.44061416
121	0xbf0abbf2	-0.5419303
122	0xbeeb6284	-0.459736
123	0xbee0fc8d	-0.4394268
124	0xbf693f1b	-0.91111916
125	0xbecc015c	-0.39844787
126	0xbeaa07f6	-0.332092
127	0x3f11a8ed	0.56898385
128	0x3f7b47d1	0.9815646
129	0x3fb1d73a	1.3893807
130	0x3f1d0324	0.6133292
131	0x3e241362	0.16023019
132	0x3f2613ff	0.6487426
133	0x3cfcc3f0	0.030855149
134	0xbd330349	-0.043704305
135	0x3f34ea35	0.7066987
136	0x3f242161	0.6411343
137	0xbe844621	-0.25834754
138	0xbdeb12a2	-0.11478163
139	0x3fd73675	1.6813494
140	0xbe6207d7	-0.22073303
141	0x3f827e89	1.0194865
142	0xbc1a5a13	-0.009420889
143	0x3f257dd7	0.6464514
144	0x3f8e502f	1.111822
145	0xbe2a46fc	-0.16628641
146	0x3f515800	0.817749
147	0xbebf6371	-0.37380555
148	0x3de0caea	0.10976203
149	0x3f410627	0.7540001
150	0x3f36ad02	0.7135774
151	0xbee4415d	-0.44581118
152	0x3ff83e52	1.9394019
153	0x3dd38677	0.103283815
154	0xbe9856e6	-0.29753798
155	0x3f055614	0.5208447
156	0x3cafcab3	0.02145896
157	0xbee76bed	-0.45199528
158	0x3e6fd440	0.2342081
159	0xbf43edc9	-0.76534706
160	0xbedcdd87	-0.43137762
161	0x3d3f244f	0.046665486
162	0x3ee6a497	0.45047447
163	0xbf325bde	-0.6967143
164	0xbe346752	-0.17617539
165	0x3ef3783f	0.47552678
166	0x3f42443c	0.7588537
167	0x3e625b25	0.22105081
168	0xbef2da61	-0.47432235
169	0x3c56df96	0.0131148305
170	0x3d647c06	0.05578234
171	0x3fc47f33	1.5351318
172	0x3e4cccc6	0.1999999
173	0x3f3f492e	0.7472104
174	0x3f04e024	0.5190451
175	0x3ecca50c	0.3996967
176	0x3fc018d1	1.5007573
177	0x3da76c43	0.08174946
178	0x3e9ff8b9	0.31244448
179	0xbdd8e686	-0.10590844
180	0x3f9e457b	1.2364954
181	0x3f8cd893	1.1003593
182	0x4009c817	2.1528375
183	0x3f2c84bd	0.6739004
184	0x3e9d40a7	0.30713388
185	0x3ef73501	0.48282626
186	0xbd5a13f2	-0.053241678
187	0x3ef41b8c	0.47677267
188	0x3fb33b27	1.4002427
189	0x3f178043	0.59180087
190	0xbe1387c2	-0.14407256
191	0x3f7456d6	0.95445
192	0xbf9f3157	-1.2436932
193	0x3c4c8597	0.012483022
194	0xbf0d1e56	-0.55124414
195	0xbf2d9bd1	-0.6781588
196	0x3e02c59e	0.12770697
197	0x3ea709bf	0.32624623
198	0xbe33833c	-0.1753053
199	0xbe9a7da9	-0.30173996
200	0xbf847239	-1.0347358
201	0x3f34ac44	0.70575356
202	0xbf5f1180	-0.8713608
203	0x3f5cb6e2	0.8621656
204	0xbf1e0726	-0.6172966
205	0x3e243eb4	0.16039544
206	0x3e6858c7	0.22690116
207	0x3e9f31f0	0.31092787
208	0xbe8660e9	-0.26245812
209	0xbe770e3e	-0.24126527
210	0xbe6609ae	-0.2246463
211	0x3f812cb3	1.0091766
212	0xbf88427c	-1.064529
213	0x3d25b6fc	0.04045771
214	0x3e78c705	0.2429467
215	0x3f4b2d1d	0.7936571
216	0xbf9da7f1	-1.2316877
217	0x3f05225c	0.52005553
218	0x3e9c1c04	0.30490124
219	0x3cbaa13a	0.022781957
220	0xbf56aaa9	-0.83854157
221	0x3f602256	0.8755239
222	0xbeaa6a22	-0.33284098
223	0x3f5f61a1	0.87258345
224	0xbfaf54d7	-1.3697766
225	0x3f59cb79	0.850761
226	0xc0085f4f	-2.1308172
227	0x3e50a3cf	0.20374988
228	0xbd9b4d74	-0.075831324
229	0x3f84d788	1.0378275
230	0x4012ccc3	2.2937477
231	0x3cd6c103	0.026215082
232	0x3d11888e	0.03553062
233	0x3e9baba2	0.30404383
234	0x3e7141d7	0.23560272
235	0xbe90862f	-0.28227374
236	0x3e226372	0.15858248
237	0xbe261d74	-0.16222173
238	0x3eb1dec6	0.34740275
239	0xbf28dd85	-0.6596301
240	0xbc6e00c6	-0.014526552
241	0x3f31b34c	0.6941421
242	0xbe9915cf	-0.2989945
243	0xbdadf22b	-0.084934555
244	0x3e959bfd	0.29220572
245	0xbd0eb31d	-0.034838784
246	0xbfcde70d	-1.6086136
247	0x3f304155	0.6884969
248	0x3f671f2c	0.9028194
249	0x3f288538	0.65828276
250	0xbf586df0	-0.8454275
251	0xbfb5add2	-1.4193671
252	0x3f313865	0.69226676
253	0x3ed814cb	0.42203364
254	0x3ddb1686	0.106976554
255	0xbf38612d	-0.7202328

model_state f4 [64]
0	0xbcc94b09	-0.024571912
1	0xbf7d76f8	-0.99009657
2	0xbf913f34	-1.1347413
3	0x3f47ad3a	0.779987
4	0xbe959044	-0.29211628
5	0x3fc3ecfc	1.5306697
6	0xbf2f1bd7	-0.68401855
7	0x3f7ea8c8	0.9947629
8	0x3fc01fb8	1.500968
9	0x3ec71d0b	0.38889346
10	0x3e7aca77	0.24491297
11	0x3e38338c	0.17988414
12	0x3e1220cf	0.14270328
13	0x3fac4bb2	1.34606
14	0x3fb46089	1.409196
15	0xc006f669	-2.1087897
16	0xbe7cfbbe	-0.24705407
17	0x3fc41344	1.5318379
18	0xbf1e326a	-0.61795676
19	0xbf61cf26	-0.8820671
20	0x3fbf42bb	1.494224
21	0xbfab8c53	-1.3402199
22	0x3f01e4ac	0.5073955
23	0xbda8f767	-0.08250313
24	0xbe9db451	-0.30801633
25	0xbfb2fe59	-1.3983871
26	0x3f927cfe	1.1444395
27	0xbf970a17	-1.1799954
28	0x3f013077	0.50464576
29	0x3fa7a709	1.309785
30	0x3f1de0c3	0.61671084
31	0x3f04920c	0.5178535
32	0xc01f03c2	-2.4846044
33	0xbcd5a599	-0.02607994
34	0x3f8238de	1.0173604
35	0xc00f890a	-2.2427392
36	0xbf650c0b	-0.894715
37	0x4003f48f	2.0618017
38	0xbf55a102	-0.83448803
39	0xbdd68e41	-0.104763515
40	0xbfa0ca31	-1.2561704
41	0xbf63ee7a	-0.8903576
42	0xbe7fde18	-0.24987066
43	0xbe939ebd	-0.28832045
44	0xbf121ec6	-0.57078207
45	0xc07803b0	-3.875225
46	0xbd48ff8b	-0.04907183
47	0x3f8e9b77	1.1141194
48	0xbf4315e7	-0.76205295
49	0xbebaf077	-0.36511585
50	0x3f2c5a6e	0.67325485
51	0x3d5a8dc3	0.05335785
52	0x3f957f10	1.1679401
53	0x3f4e6ce1	0.80634886
54	0xbf2a33ff	-0.6648559
55	0xc00aa346	-2.1662154
56	0xbf64c3ec	-0.89361453
57	0xbe1f6908	-0.1556741
58	0xbe8fce69	-0.28087166
59	0xbec442e1	-0.38332275
60	0xbe8daa6c	-0.27669084
61	0x3f60f7f5	0.8787835
62	0x3ef6b8ac	0.48187768
63	0xbd44292b	-0.047890823

model_state f4 [64]
0	0x3dc6e1be	0.09711026
1	0x3d8d02f4	0.06885329
2	0x3e85e2a6	0.26149482
3	0x3bdefee6	0.0068052886
4	0x3e3f7891	0.18698336
5	0x3ca36403	0.01994515
6	0x3e0cc380	0.13746452
7	0x3d1a8aec	0.037730142
8	0x3dd938fd	0.10606573
9	0x3d0f5563	0.03499354
10	0x3e16ca6f	0.1472566
11	0x3d3f42c4	0.046694532
12	0x3de67cef	0.11254298
13	0x3d832da1	0.064051874
14	0xbb6e4533	-0.0036357164
15	0x3ecb17de	0.39666647
16	0x3dced7e2	0.1009977
17	0x3de2d241	0.11075259
18	0x3d1ec6d5	0.03876384
19	0x3c900a78	0.017583117
20	0x3d959bc9	0.07305104
21	0x3d8ad263	0.06778409
22	0x3c9df6e9	0.019282775
23	0x3e7895d5	0.24275906
24	0x3c253148	0.01008255
25	0x3d9fe676	0.07807629
26	0x3cbfee0d	0.023428941
27	0x3de7742a	0.113014534
28	0x3b58988e	0.0033049914
29	0x3e938b42	0.28817183
30	0x3e29005e	0.16504046
31	0x3ec977bd	0.39349166
32	0x3e238168	0.15967333
33	0xbbf51ba5	-0.007480102
34	0x3e285154	0.16437274
35	0x3d11c803	0.035591137
36	0x3ddacb02	0.10683252
37	0x3dbca9a4	0.09212044
38	0x3d90283d	0.07038925
39	0x3e3079f5	0.17234023
40	0x3eaaade8	0.33335805
41	0x3cf95403	0.030435568
42	0x3db21790	0.086959004
43	0x3cd1f221	0.025628151
44	0x3e28a6e9	0.16469921
45	0x3e97de23	0.29661664
46	0x3e5985ed	0.21242495
47	0x3e8f33ea	0.27969295
48	0x3dd801ed	0.10547242
49	0x3ac0a5e1	0.0014697873
50	0x3d86e46e	0.06586538
51	0x3dd46514	0.103708416
52	0x3e009d91	0.12560107
53	0x3d6d3647	0.05791309
54	0x3e07b526	0.13252696
55	0x3d58b7bd	0.0529096
56	0x3d8ba256	0.068180725
57	0x3ea830bd	0.32849684
58	0x3ce58ef7	0.028022273
59	0x3daadd23	0.0834296
60	0x3d0ce686	0.03439953
61	0x3c6a193c	0.014288243
62	0x3d388360	0.045047164
63	0x3de3d2c4	0.11124185

model_state f4 [64]
0	0xbe9bc749	-0.3042548
1	0xbe3ef465	-0.18647917
2	0xbee8d23d	-0.454729
3	0xbdb607f9	-0.088882394
4	0xbf0f7496	-0.5603727
5	0xbdfdaaf6	-0.12386124
6	0xbea107e9	-0.31451347
7	0xbe428c9f	-0.18998955
8	0xbe7a4ddb	-0.24443762
9	0xbdb0af72	-0.086272135
10	0xbc8b9ce8	-0.017042592
11	0xbdb58ed7	-0.08865135
12	0x3bc70c04	0.0060744304
13	0xbf0547de	-0.52062786
14	0xbdc1dd4d	-0.09466038
15	0x3d0cb029	0.034347687
16	0xbe60f3dc	-0.21968025
17	0xbe9de31d	-0.30837336
18	0xbe285cc5	-0.16441639
19	0xbe0e5e52	-0.13903168
20	0xbe45c8b7	-0.19314848
21	0xbe8c179e	-0.27361768
22	0xbdab1a85	-0.083546676
23	0xbe731430	-0.2373817
24	0xbd0a0130	-0.03369254
25	0xbe1d06c4	-0.15334612
26	0xbe0c5730	-0.13705134
27	0xbf1f30c5	-0.6218379
28	0xbd5e42ef	-0.05426305
29	0xbdc3c8a9	-0.09559757
30	0xbea749b6	-0.32673424
31	0x3c3fe6db	0.011712755
32	0x3d384572	0.044988103
33	0xbdffcced	-0.12490258
34	0xbe89732b	-0.2684568
35	0xbe4212bd	-0.1895246
36	0xbe85331e	-0.26015562
37	0x3caae007	0.020858778
38	0xbc80db64	-0.015729614
39	0xbde1a9ab	-0.1101869
40	0xbd9f6b2e	-0.07784115
41	0xbe5057c4	-0.2034598
42	0xbe68c21b	-0.22730295
43	0xbddcc854	-0.10780397
44	0xbeded5ee	-0.4352259
45	0xbd0f9690	-0.035055697
46	0xbdab9b62	-0.08379246
47	0x3da10863	0.07862928
48	0xbe65dac2	-0.2244673
49	0xbe08ad49	-0.13347353
50	0xbe329371	-0.17439057
51	0xbe99fc08	-0.30075097
52	0xbc9f8caf	-0.019476263
53	0xbe8f4c01	-0.27987674
54	0xbd4cd569	-0.05000821
55	0xbc912220	-0.017716467
56	0xbe47689c	-0.19473499
57	0xbe1e6ab0	-0.15470386
58	0xbe03a42f	-0.128556
59	0xbcad5777	-0.02115987
60	0xbec29064	-0.38000786
61	0xbe30d6a3	-0.17269377
62	0x3bd35e60	0.0064504594
63	0xbe92cd35	-0.28672186

model_state f4 [64]
0	0xc12c635a	-10.774256
1	0xc194eb79	-18.614977
2	0x41f0d0f0	30.10202
3	0xc076f2ad	-3.8585618
4	0xc0e64c3b	-7.1968055
5	0x40d790d3	6.7364287
6	0xc138aa1e	-11.5415325
7	0xc0e11a60	-7.0344696
8	0xbf813b9a	-1.0096314
9	0xc16af8bc	-14.685726
10	0x418f7da0	17.93634
11	0xc1522164	-13.133152
12	0xc195806b	-18.687704
13	0x410fdbc0	8.99115
14	0xc198f57f	-19.119871
15	0x40f68832	7.7041254
16	0xc182baee	-16.341274
17	0xc0ff2cc2	-7.9742136
18	0xbdf4e52e	-0.11957775
19	0xc137576d	-11.458844
20	0x410a2ef7	8.636466
21	0xc0432ebc	-3.0497274
22	0x403d372f	2.9564931
23	0x40ea9812	7.3310633
24	0xc19ccb48	-19.599258
25	0xc13b43fe	-11.7041
26	0x414655fe	12.395994
27	0x41294fe9	10.582009
28	0xc1c7223c	-24.891716
29	0xc178540c	-15.520519
30	0xc1140386	-9.25086
31	0xc0e9688c	-7.294012
32	0x41931c1f	18.388731
33	0xc197f894	-18.996376
34	0xc12d71d0	-10.840286
35	0xc1ac552e	-21.541592
36	0xc0955178	-4.666195
37	0x412cd21a	10.801294
38	0xc0c533db	-6.16258
39	0xc07694d1	-3.852833
40	0xc155a2b6	-13.352224
41	0x408c903f	4.392608
42	0xc138b559	-11.544274
43	0xc10fca70	-8.986923
44	0xc0bf7c87	-5.983951
45	0xc1fcd4a0	-31.60382
46	0xc1901ab5	-18.01304
47	0x41d73a30	26.903412
48	0xc0fc988a	-7.8936205
49	0xc00d77df	-2.2104414
50	0xc1b193fb	-22.197256
51	0xc17537a6	-15.326086
52	0x418c44ef	17.533659
53	0xc0e57a89	-7.171208
54	0xc161574a	-14.083811
55	0x40ce0a54	6.4387608
56	0xc16242df	-14.141326
57	0xc101f026	-8.12113
58	0xc1086143	-8.523746
59	0x3eaaeb77	0.3338277
60	0xc082dacf	-4.08921
61	0xc13e785a	-11.904383
62	0x40d97e2f	6.7966533
63	0xc1049758	-8.286949

model_state f4 [64]
0	0x4345f18a	197.94351
1	0x43a36477	326.78488
2	0x4401d6c9	519.356
3	0x42f411d7	122.03484
4	0x4302838d	130.51387
5	0x434bcdc6	203.8038
6	0x43118ab2	145.54178
7	0x43f337dd	486.43643
8	0x43a69ad9	333.20975
9	0x4386a143	269.25986
10	0x4482c296	1046.0808
11	0x43238c3f	163.54784
12	0x43890556	274.0417
13	0x43a17f8f	322.99655
14	0x43b65077	364.62863
15	0x44c35132	1562.5374
16	0x42c0b3c9	96.35114
17	0x433612df	182.07372
18	0x42912ee8	72.59161
19	0x434bcd51	203.80202
20	0x438edaa0	285.708
21	0x42f31b0b	121.55282
22	0x434cf85a	204.97012
23	0x444574b1	789.8233
24	0x434da545	205.64558
25	0x43300b87	176.04503
26	0x438ae8e8	277.81958
27	0x437ee217	254.88316
28	0x439812aa	304.1458
29	0x4489d2e5	1102.5905
30	0x4342edae	194.92844
31	0x451ea5b5	2538.3567
32	0x4421ee6c	647.72534
33	0x4382953e	261.16595
34	0x43acf370	345.90186
35	0x42e54511	114.634895
36	0x43561da9	214.11586
37	0x4437a723	734.6115
38	0x43729d85	242.61531
39	0x43b7240e	366.28168
40	0x447ca989	1010.649
41	0x4254672f	53.100765
42	0x427b0bbd	62.761463
43	0x42fd607d	126.68845
44	0x428fc2ec	71.88071
45	0x448ebc6e	1141.8884
46	0x441cfe95	627.97784
47	0x44b72bdb	1465.3705
48	0x426d21f6	59.283165
49	0x42f3da63	121.92654
50	0x431f2a3a	159.16495
51	0x43007cf5	128.48811
52	0x43d51506	426.16425
53	0x42e9225f	116.56713
54	0x434b43e1	203.26515
55	0x4319091c	153.03558
56	0x42f8a134	124.31485
57	0x447cfc3a	1011.94104
58	0x43169c1a	150.60977
59	0x437b17f7	251.09361
60	0x424fdbc4	51.964615
61	0x431dbe59	157.74355
62	0x4370576a	240.34146
63	0x43872540	270.29102

encoder.mean_encoder.weight f4 [10, 64]
0	0xbe57c74d	-0.21072121
1	0x3e448546	0.19191465
2	0xbe263009	-0.16229261
3	0xbef4c224	-0.47804368
4	0x3e33941f	0.17536972
5	0xbec5a478	-0.38602042
6	0xbefded3c	-0.49595058
7	0xbe09c146	-0.13452634
8	0x3ed68afa	0.41902906
9	0x3e12a4c7	0.1432067
10	0xbe18ba68	-0.14914858
11	0x3e2512b1	0.16120411
12	0xbf568221	-0.8379231
13	0xbd3131b2	-0.043260284
14	0x3e06d27a	0.13166228
15	0x3ef90d56	0.48642987
16	0x3c925410	0.01786235
17	0x3dc9a111	0.09845174
18	0x3d8c6d1b	0.06856748
19	0xbd779e20	-0.060453534
20	0x3e1ac71a	0.15115014
21	0xbad542dc	-0.0016270536
22	0xbefb2ab9	-0.49056032
23	0xbe975dcc	-0.2956375
24	0x3d756788	0.05991319
25	0xbdfde131	-0.123964675
26	0xbd9b56f3	-0.075849436
27	0xbe6d918a	-0.2320005
28	0xbe7411cf	-0.23834918
29	0x3e13bfb2	0.14428595
30	0xbe4247e2	-0.18972734
31	0xbec608fc	-0.3867873
32	0x3f2acce4	0.6671889
33	0x3e1eddd2	0.15514305
34	0xbe760f7b	-0.24029343
35	0xbee28e94	-0.44249403
36	0xbe0e2a92	-0.13883427
37	0xbed6af59	-0.41930655
38	0x3eb3d181	0.35120776
39	0xbd37a153	-0.044831585
40	0x3e0a435e	0.13502261
41	0x3ef078ba	0.46967107
42	0xbe10df3a	-0.14147654
43	0x3e42127b	0.18952362
44	0xbdd2a201	-0.10284806
45	0x3e24dd41	0.16100027
46	0xbeae158c	-0.34000814
47	0xbedddaed	-0.4333109
48	0xbf649861	-0.8929501
49	0x3e1d0d56	0.15337119
50	0xbeab0a72	-0.33406407
51	0xbe9c1995	-0.30488268
52	0x3f36786b	0.71277493
53	0x3f2d44e8	0.6768327
54	0xbf4c4960	-0.7979946
55	0x3f68186a	0.9066225
56	0xbf0540c9	-0.5205198
57	0x3d319f8a	0.04336504
58	0x3f3f7994	0.7479489
59	0xbe4c0620	-0.19924212
60	0x3eab265d	0.33427706
61	0xbcc9d18f	-0.024636058
62	0xbe00b7f3	-0.12570171
63	0x3e3e5168	0.18585742
64	0xbd9c59ee	-0.0763434
65	0xbe46fe09	-0.19432844
66	0x3d011635	0.03151532
67	0x3e005374	0.12531835
68	0x3de390a1	0.1111157
69	0xbe45c773	-0.19314365
70	0x3d4fac6c	0.050701544
71	0xbe940615	-0.2891089
72	0x3d15ba9a	0.03655491
73	0xbe7a535c	-0.24445862
74	0x3cdd1a7e	0.026990172
75	0xbd9b0f50	-0.0757128
76	0xbdb2ac3e	-0.08724259
77	0x3db65bd6	0.08904235
78	0x3d5087bf	0.050910708
79	0x3d4329ec	0.0476474
80	0xbc952f21	-0.01821095
81	0xbe6ad21a	-0.2293171
82	0x3dbe1583	0.09281447
83	0xbd5e49d4	-0.054269627
84	0x3e1a5ec7	0.15075217
85	0xbd9b9ba4	-0.075980455
86	0x3dcd8cf2	0.10036649
87	0xbd4f761d	-0.05064975
88	0xbe0dcde3	-0.13848071
89	0x3d4dc89a	0.050240137
90	0xbcde3941	-0.02712691
91	0x3d09bb95	0.033626158
92	0xbe1e13a4	-0.1543718
93	0x3dfe2969	0.12410242
94	0xbcf1afba	-0.029502738
95	0x3d0a85c0	0.03381896
96	0x3e458415	0.19288667
97	0x3e5dd726	0.21664104
98	0x3c545b4e	0.012961222
99	0xbe15cc4d	-0.14628716
100	0xbde0380a	-0.109481886
101	0x3b7918e2	0.0038009216
102	0x3de93069	0.11386187
103	0x3cd31ed7	0.025771542
104	0xbd511af7	-0.051051106
105	0x3bdd7f63	0.0067595704
106	0xbeffce2f	-0.49961993
107	0xbc393f6d	-0.011306626
108	0xbe1d2ade	-0.15348384
109	0x3d920d52	0.07131447
110	0xbe3cac49	-0.18425097
111	0xbdc29495	-0.09500996
112	0xbccfe30d	-0.025376821
113	0x3c365df8	0.011130802
114	0x3cb9a306	0.022660743
115	0x3df98229	0.12183029
116	0xbc81e02d	-0.015853966
117	0xbc34f38b	-0.011044393
118	0x3dc380a0	0.09546018
119	0x388bb89c	6.662423e-05
120	0x3e49bcaf	0.19700883
121	0x3d67ecfc	0.05662249
122	0xbe77121b	-0.24128
123	0x3ff7715a	1.9331467
124	0xbf098a43	-0.53726596
125	0xbd9029af	-0.070392005
126	0x3e06292f	0.13101648
127	0x3db60313	0.08887305
128	0xbeb8ad86	-0.36069888
129	0xbeafa172	-0.3430286
130	0x3cfb67c8	0.030689135
131	0xbcf91a2b	-0.030407986
132	0xbe8bca84	-0.27302945
133	0x3f6764bd	0.9038809
134	0x3d94d309	0.07266814
135	0x3e139c77	0.14415155
136	0x3da52069	0.08062822
137	0x3c4cdcfc	0.012503859
138	0xbbd082f2	-0.006363266
139	0xbe58ad48	-0.21159852
140	0xbd69287f	-0.056923386
141	0xbe14ee1f	-0.14543961
142	0xbe8dc716	-0.27690953
143	0x3dd1d46e	0.10245596
144	0x3e3e02b2	0.18555716
145	0x3e8ce5b7	0.2751901
146	0x3e8683c9	0.2627242
147	0x3f257e6f	0.6464605
148	0x3ede59e2	0.4342795
149	0x3cc4bf96	0.024017137
150	0xbcf254a0	-0.029581368
151	0xbe20a843	-0.15689187
152	0xbe2f7e9e	-0.17138144
153	0x3e193e35	0.14965136
154	0xbd2ea2f2	-0.042635866
155	0xbe3cbba9	-0.18430962
156	0xbebb8f11	-0.36632589
157	0xbc111115	-0.00885417
158	0xbda548e7	-0.08070546
159	0xbd7e45e7	-0.062078383
160	0x3e964d54	0.29355872
161	0xbddb10b9	-0.10696549
162	0xbe6561ae	-0.22400543
163	0xbbb91e1c	-0.0056493413
164	0x3df4fd4c	0.11962375
165	0xbd28c250	-0.041200936
166	0xbefe0e1c	-0.4962014
167	0x3c22148f	0.009892597
168	0x3dffb214	0.124851376
169	0x3cc6736d	0.024224961
170	0x3d1547ae	0.036445312
171	0x3e0dc0a4	0.13843018
172	0x3e983491	0.29727605
173	0x3c6caa49	0.014444896
174	0xbe29b60b	-0.1657335
175	0xbd80c365	-0.062872685
176	0xbe1cc729	-0.15310349
177	0xbf426dad	-0.759486
178	0xbd6f29ff	-0.05838966
179	0x3dcf7283	0.10129263
180	0x3e4cbd77	0.1999415
181	0x3d88dd1d	0.06682799
182	0xbe64c4ea	-0.22340742
183	0x3ea703d5	0.3262011
184	0x3d3b92d6	0.04579433
185	0x3d90ff3b	0.07079931
186	0xbcd28282	-0.025696997
187	0x3e02be8d	0.12768002
188	0xbe5290ce	-0.20563051
189	0xbee1f76d	-0.44134083
190	0xbe5cf0c2	-0.21576217
191	0x3e4c2a38	0.1993798
192	0x3e5f4d06	0.21806726
193	0xbde67b53	-0.11253991
194	0xbd97d9f0	-0.07414615
195	0x3f0cc4d5	0.5498784
196	0xbe0f0b76	-0.13969216
197	0x3d3de6c0	0.04636264
198	0x3e04d995	0.12973626
199	0xbec2cd0d	-0.38047066
200	0xbe1cd4c1	-0.15315534
201	0x3e275c8d	0.16343899
202	0xbe118760	-0.14211798
203	0xbe2466cd	-0.1605484
204	0xbdf3b350	-0.118994355
205	0xbd1568b0	-0.03647679
206	0x3dc3af21	0.095548876
207	0x3de5165e	0.11185907
208	0xbf3b73e5	-0.73223716
209	0x3e767d8a	0.24071327
210	0xbf1d7d0e	-0.61518943
211	0xbde67d1f	-0.11254334
212	0x3eb70cd6	0.3575198
213	0x3e148ca0	0.14506769
214	0x3e4265ef	0.18984197
215	0xbde68c88	-0.11257273
216	0xbd1ff9ea	-0.039056696
217	0xbdf741ce	-0.12073098
218	0xbd916422	-0.07099177
219	0xbe1585a8	-0.14601767
220	0xbe7ed502	-0.24885944
221	0x3d60a72f	0.05484694
222	0xbe8ec996	-0.27888173
223	0xbdf0756a	-0.11741145
224	0x3d92fca9	0.07177097
225	0x3e026148	0.12732422
226	0xbd5c1069	-0.053726587
227	0x3e4021e6	0.18762931
228	0x3e988b92	0.29793984
229	0xbe4f7254	-0.20258456
230	0xbdc6c0c9	-0.097047396
231	0x3deb2f93	0.114836834
232	0x3ddd2c4b	0.10799464
233	0xbe68900c	-0.227112
234	0xbec06f8a	-0.37585098
235	0xbdf1df41	-0.118101604
236	0x3d36ffa8	0.044677407
237	0xbd4ff2dd	-0.05076872
238	0xbe34dd88	-0.17662632
239	0xbe0df477	-0.13862787
240	0x3de5da7b	0.112233125
241	0x3d8bc672	0.0682496
242	0xbea6658a	-0.32499343
243	0xbf0897e1	-0.5335675
244	0x3d90d4ab	0.07071813
245	0x3cbd0001	0.02307129
246	0x3d0e7063	0.03477515
247	0x3d9bf662	0.07615353
248	0x3e8dc779	0.27691248
249	0x3d524f08	0.0513449
250	0xbee5973d	-0.44841948
251	0xbd261341	-0.040545706
252	0x3da5e89e	0.08101009
253	0x3e57c2d5	0.21070416
254	0x3fe0dad6	1.7566783
255	0x3cf80864	0.030277438

encoder.mean_encoder.bias f4 [10]
0	0xbcbfe412	-0.023424182
1	0xbd1a123a	-0.03761504
2	0xbbc719cb	-0.006076073
3	0xbc44961b	-0.011998679
4	0x3cf448fa	0.029819954
5	0x3c81e980	0.015858412
6	0xbce7b0a3	-0.02828247
7	0xbcc931ba	-0.024559844
8	0x3c0f550a	0.008748302
9	0x3e05789f	0.13034295

encoder.var_encoder.weight f4 [10, 64]
0	0xbccd834f	-0.025087027
1	0x3d2d5f23	0.042327058
2	0xbd22b001	-0.03971863
3	0xbd11b43e	-0.035572283
4	0x3d1310ea	0.035904802
5	0x3da4dfb0	0.080504775
6	0x3d59fc8c	0.053219363
7	0x3ce1e653	0.027575647
8	0xbd0810d9	-0.033219192
9	0x3da1de14	0.07903686
10	0xbd3f2924	-0.046670094
11	0x3ccd2c40	0.025045514
12	0x3e289ee0	0.16466856
13	0x3d22efe2	0.03977955
14	0x3d83f8e3	0.06443956
15	0xbb4d247e	-0.0031302269
16	0x3db6855a	0.089121535
17	0x3e43075f	0.1904578
18	0x3d9a41f2	0.07532109
19	0x3d65daa1	0.056116704
20	0xbcc6fdb7	-0.024290903
21	0x3c5e4765	0.0135668265
22	0x3cefea7d	0.029286617
23	0xbcd3c0e2	-0.02584881
24	0x3d0a5e0c	0.033781096
25	0xbcc8466c	-0.024447642
26	0xbe0d215f	-0.13782261
27	0xbd47d15d	-0.04878365
28	0x3d1dfa32	0.038568683
29	0xbc82efa4	-0.01598341
30	0x3d249196	0.040177904
31	0xbd24b62b	-0.04021279
32	0xbcc8e026	-0.024520945
33	0x3d406ff1	0.046981756
34	0xbd8fdc31	-0.0702442
35	0xbc4df3f9	-0.012570375
36	0xbc300b7d	-0.0107449265
37	0x3d8adb04	0.06780055
38	0xbc2e8364	-0.010651443
39	0xbd6e009a	-0.058106042
40	0x3c142fb9	0.009044581
41	0xbdabecec	-0.08394799
42	0xbc4dd41c	-0.012562778
43	0x3cf1ed57	0.029532118
44	0xbc710c2d	-0.014712376
45	0x3e0c10f3	0.1367834
46	0xbde1aed3	-0.11019673
47	0x3bf3449e	0.0074239513
48	0x3d278aaa	0.040903725
49	0x3cac9e0f	0.021071462
50	0x3d717120	0.058945775
51	0x3e286750	0.1644566
52	0xbd9c9543	-0.07645657
53	0xbda57f32	-0.08080901
54	0xb90c2520	-0.0001336527
55	0x3dc70b1d	0.097189166
56	0x3e60a3b9	0.21937455
57	0x3d1097e2	0.035301097
58	0xbe10e692	-0.14150456
59	0xbc5193a7	-0.012791551
60	0x3e2fadd2	0.17156151
61	0xbcdd2c2f	-0.026998607
62	0x3d93ac86	0.072106406
63	0x3e1cf48e	0.15327665
64	0xbc2d9e55	-0.010596831
65	0x3dc791a6	0.09744577
66	0xbd2525ad	-0.040319134
67	0x3d829e8d	0.063778974
68	0xbd5213a9	-0.05128828
69	0x3d9096ce	0.07060014
70	0xbd8bc3ae	-0.06824432
71	0x3e3e0651	0.18557097
72	0x3d4fd188	0.050736934
73	0x3e34294d	0.1759388
74	0xbd48fbea	-0.04906837
75	0xbdd9ad23	-0.10628726
76	0xbd170c72	-0.036877103
77	0xbdd4128d	-0.10355101
78	0x3d13cfb1	0.03608674
79	0x3b3654d6	0.0027821562
80	0x3c8c1184	0.017098196
81	0x3def2e42	0.11678745
82	0xbd91c7af	-0.07118165
83	0xbd41217f	-0.047151085
84	0x3db26cd3	0.08712163
85	0xbc8aa0c3	-0.01692236
86	0x3d8f0d07	0.06984907
87	0xbcff2535	-0.031145671
88	0x3d9488a1	0.072526224
89	0x3d920586	0.0712996
90	0x3d98af17	0.07455271
91	0x3e9b540d	0.30337563
92	0x3caa7503	0.020807749
93	0x3cb4b450	0.022058636
94	0x3daba789	0.08381564
95	0x3ca6bfd4	0.020355143
96	0xbd955dbf	-0.07293271
97	0x3d0b2496	0.033970438
98	0xbc8cb609	-0.017176645
99	0xbcc3c5fe	-0.023898121
100	0xbde3c3b9	-0.111213155
101	0xbd20beff	-0.039244648
102	0xbbb89ce3	-0.0056339367
103	0xbc9b0c58	-0.018926784
104	0x3955c3c0	0.00020386185
105	0x3de73c7b	0.112908326
106	0x3e842cf4	0.25815547
107	0xbca1725d	-0.019707853
108	0x3e8a7fb0	0.27050543
109	0xbb9a3d92	-0.004707047
110	0xbd18a7bb	-0.037269335
111	0xbc9dd3b2	-0.019265983
112	0x3c9ee4a4	0.019396134
113	0xbc83cc6a	-0.016088683
114	0xbd1ea6de	-0.038733356
115	0x3ce0ae6a	0.027426917
116	0xbce8ee44	-0.028433926
117	0xbdde996c	-0.10869107
118	0xbd254605	-0.04034998
119	0x3c1b8a33	0.0094933985
120	0xbc7c112e	-0.015384955
121	0xbbc1db2f	-0.0059160213
122	0x3d066cb9	0.03281853
123	0x3d314f6a	0.043288626
124	0x3e506ef1	0.20354821
125	0x3e41f375	0.18940528
126	0x3c709840	0.014684737
127	0xbd1a2375	-0.03763147
128	0x3e4c8d10	0.19975686
129	0x3e62b379	0.22138776
130	0xbd91c6a9	-0.071179695
131	0xbe4e9747	-0.20174895
132	0x3ea5ea3b	0.32405266
133	0x3dcc188c	0.099656194
134	0xbdde85b1	-0.10865343
135	0xbce43cc0	-0.027861
136	0xbd676efb	-0.056502324
137	0x3bff3cdd	0.007789238
138	0xbd43200f	-0.047637995
139	0xbd5db7f2	-0.054130502
140	0xbd80a946	-0.06282286
141	0xbd356cd5	-0.044293243
142	0x3e06f01b	0.1317753
143	0x3d214858	0.039375633
144	0x3ca25cc4	0.019819625
145	0x3e6fe0ec	0.23425645
146	0xbccb3e0d	-0.024809862
147	0x3c36a9dd	0.011148897
148	0x3c3e86fc	0.0116288625
149	0xbc5487d3	-0.012971836
150	0xbcf1594e	-0.02946153
151	0x3c04d1b9	0.008106642
152	0x3c63a85f	0.013895123
153	0xbd994b1a	-0.074850276
154	0xbdd53811	-0.104110844
155	0xbe6e3f6c	-0.23266381
156	0xbd356a66	-0.044290923
157	0x3c37d4d9	0.01122018
158	0x3da46f10	0.08028996
159	0xbd1c2e40	-0.038130045
160	0xbc6909df	-0.014223545
161	0x3e15b4c2	0.14619735
162	0x3eb2e2f7	0.34938785
163	0x3dac1ceb	0.08403953
164	0x3cc7c1d9	0.024384426
165	0x3d68808f	0.056763228
166	0xba9e0a52	-0.0012057519
167	0xbd6bce21	-0.057569627
168	0x3ca76b03	0.02043677
169	0xbd2d084c	-0.04224424
170	0x3dcee6f5	0.10102645
171	0xbcf6bb14	-0.030118503
172	0xbe069c4a	-0.13145557
173	0xbd9197d0	-0.07109034
174	0x3bb03166	0.0053769825
175	0x3c83c1bc	0.01608359
176	0x3ce6863e	0.028140184
177	0x3d326079	0.043549035
178	0x3dab775c	0.08372375
179	0x3ddb8dc7	0.10720401
180	0xbcae20ba	-0.02125584
181	0xbdb0700b	-0.086151205
182	0x3d17ac0c	0.03702931
183	0xbdfde85f	-0.12397837
184	0xbdd0ebb8	-0.1020121
185	0x3d44a9a7	0.048013356
186	0x3c614b3a	0.013750846
187	0xbc63ddee	-0.013907893
188	0x3d9f2608	0.07770926
189	0x3e7d7c13	0.24754362
190	0x3d8d625f	0.069035284
191	0x3dcec048	0.100952685
192	0x3d90bf74	0.07067767
193	0x3a21936b	0.00061636296
194	0xbdc28d46	-0.09499602
195	0xbd8ecdd6	-0.06972854
196	0x3e9a95cd	0.30192414
197	0x3db2ba21	0.087269075
198	0xbd76b809	-0.060234103
199	0x3dc9497a	0.09828468
200	0x3d6966e2	0.056982882
201	0x3b08742d	0.00208212
202	0xbd9156cc	-0.07096633
203	0x3e36f70a	0.17867675
204	0x3d082e20	0.033247113
205	0xbe9363ba	-0.28787023
206	0x3a758be7	0.00093668554
207	0xbc372909	-0.011179217
208	0x3f0ae80e	0.5426034
209	0xbe62aa6c	-0.22135323
210	0xbd2fb0b1	-0.042893115
211	0x3d5cfe39	0.053953383
212	0x3d7cb33d	0.061694372
213	0x3d3c92c2	0.046038397
214	0xbd777e8a	-0.06042341
215	0xbd1e9095	-0.038712103
216	0x3dc40325	0.09570912
217	0x3d589fd2	0.05288679
218	0xbd9c7cba	-0.07640977
219	0x3e125b56	0.14292654
220	0x3d8aa8f0	0.067705035
221	0x3d2f1499	0.042744253
222	0x3e6e5aeb	0.2327687
223	0xbbe1eece	-0.006894923
224	0xba7420d8	-0.00093127554
225	0x3d5a0643	0.053228628
226	0x3db66275	0.08905498
227	0xbd317770	-0.043326795
228	0xbe308ebc	-0.17241949
229	0xbdf3c092	-0.11901964
230	0xbd463e39	-0.048399184
231	0x3d060b46	0.032725595
232	0x3d76e71e	0.060279004
233	0x3b1dbd6b	0.00240692
234	0x3e5e3cf3	0.21702938
235	0x3e0b569c	0.13607258
236	0xbdcac173	-0.09900179
237	0xbdb1e4ae	-0.08686195
238	0xbd8c5cd3	-0.06853642
239	0x3d3c4177	0.04596087
240	0x3df79657	0.12089222
241	0xbbb52b72	-0.0055288607
242	0x3e73e91b	0.23819391
243	0x3ef89f2a	0.48558933
244	0xbcc2b00d	-0.023765588
245	0x3e149215	0.14508851
246	0xbe16e012	-0.14733914
247	0x3dfde3a8	0.123969376
248	0x3d3f6884	0.046730533
249	0xbd070a26	-0.032968663
250	0x3d54754c	0.051869676
251	0x3c2e04e5	0.010621284
252	0x3e619660	0.2203002
253	0xbd70118e	-0.05861049
254	0xbd24c0d7	-0.04022297
255	0x3ca8e12f	0.020615188

encoder.var_encoder.bias f4 [10]
0	0x3c2d551a	0.010579372
1	0xbc1b40d1	-0.009475903
2	0x3be51d68	0.006992031
3	0xbc5b4272	-0.013382541
4	0x3b3b3b0a	0.0028569126
5	0xbc27bbd2	-0.010237651
6	0xbf4994d2	-0.78742707
7	0xbab5be4d	-0.0013865918
8	0xbcff5c14	-0.031171836
9	0xbf276451	-0.65387446

decoder.linear_latent.log_scale_weight f4 [20, 10]
0	0xbf99cfc5	-1.2016531
1	0xc097c901	-4.7432866
2	0xbfea69ab	-1.8313497
3	0xc023f447	-2.5617845
4	0xc06875e8	-3.6321964
5	0xc07e7474	-3.9758577
6	0xbea99a47	-0.33125517
7	0xc022efdc	-2.5458899
8	0xc093f80a	-4.624028
9	0xbf969b4b	-1.1766142
10	0xc0added3	-5.43345
11	0xc0d1e8bd	-6.5596604
12	0xc0bbc196	-5.867381
13	0xc05f77ab	-3.491679
14	0xc0b51417	-5.6587024
15	0xc0903cbf	-4.5074153
16	0xc0c57f9f	-6.1718287
17	0xc0d63301	-6.693726
18	0xc0a8e295	-5.277659
19	0x4043e19d	3.0606453
20	0xc031bdf3	-2.7772186
21	0xc0946541	-4.63736
22	0xc05c26a7	-3.4398592
23	0xc093ad46	-4.6149015
24	0xc01c1a76	-2.439115
25	0xc0940dcf	-4.6266856
26	0x4017e105	2.373109
27	0xc0643c51	-3.5661814
28	0xc03e05e9	-2.9691107
29	0x3ef2d960	0.4743147
30	0xbfad441a	-1.3536408
31	0xc0837a12	-4.108651
32	0xc01858d5	-2.3804219
33	0xc050fe8f	-3.265537
34	0xc09ee640	-4.9656067
35	0xc05f2db7	-3.4871652
36	0xbfdadae3	-1.7098049
37	0xc0669ed8	-3.603445
38	0xc0a2bb3d	-5.085356
39	0xbf876b23	-1.057957
40	0xc0a33959	-5.1007504
41	0xbfa1b2a2	-1.263264
42	0xc080d1b9	-4.025601
43	0xc0cc9d7f	-6.3942256
44	0xc08c6614	-4.3874607
45	0xc0b502d8	-5.656597
46	0xc0b7c558	-5.74284
47	0xc08caa7f	-4.3958125
48	0xc0af6c96	-5.482005
49	0x3ec90e80	0.39268875
50	0xc089f84e	-4.3115606
51	0xc091a910	-4.5518875
52	0xc10fd1bc	-8.988705
53	0xc09da978	-4.926937
54	0xc098b5c6	-4.772189
55	0xc0f0e58c	-7.528021
56	0xbe1be267	-0.15223084
57	0xc086572d	-4.1981416
58	0xc0de35f8	-6.944088
59	0x401f33d2	2.4875379
60	0xc0a0d84a	-5.0264025
61	0xc0c26106	-6.0743437
62	0xc02e5ac9	-2.724291
63	0xc0a1e157	-5.0587573
64	0xc09d1318	-4.908581
65	0xc092185f	-4.565475
66	0x3fde2041	1.7353593
67	0xc0a9c364	-5.3051014
68	0xc04f5057	-3.2392786
69	0xbf47bc32	-0.7802154
70	0xbfc2d969	-1.5222598
71	0xc0a5d3a6	-5.182086
72	0xc05533cc	-3.3312864
73	0xc08c9453	-4.393106
74	0xc08fb31b	-4.4906135
75	0xc08e1ab3	-4.440759
76	0xbfa67038	-1.3002996
77	0xc0e91de6	-7.2848997
78	0xc09f80d3	-4.9844756
79	0x3f5c5d2d	0.86079675
80	0xbf84891c	-1.0354342
81	0xc01e4fc5	-2.4736187
82	0xc029f43b	-2.6555316
83	0xc05d4a3f	-3.4576566
84	0xc0318e8d	-2.7743256
85	0xc0383057	-2.8779504
86	0x3fae5e85	1.3622595
87	0xc0578886	-3.3677077
88	0xc0477940	-3.1167755
89	0xc0c6e9f7	-6.21606
90	0xbfb92085	-1.4463049
91	0xc074077f	-3.8129575
92	0xc04ac6da	-3.168387
93	0xc04c6aa5	-3.194009
94	0xc074bc4b	-3.8239925
95	0xc06add53	-3.6697586
96	0xbe02b4e2	-0.12764314
97	0xc0811f30	-4.035057
98	0xc04c235e	-3.1896586
99	0x3e82b431	0.255281
100	0xbfc1b4ac	-1.5133262
101	0xc06b5abe	-3.6774135
102	0xc07a5574	-3.9114656
103	0xc025ab3f	-2.588577
104	0xc0854efe	-4.1658926
105	0xc08f4488	-4.4771156
106	0xc03d4334	-2.9572268
107	0xc09a3f40	-4.820221
108	0xc08ed45e	-4.4634237
109	0xbfa94915	-1.3225428
110	0xc0b2a09d	-5.582106
111	0xc0bb4eaa	-5.8533525
112	0xc082dd29	-4.089497
113	0xc072bf47	-3.7929246
114	0xc0a5b5b6	-5.1784315
115	0xc0dd791a	-6.921033
116	0x3e49384e	0.19650385
117	0xbff3780c	-1.902101
118	0xc0841aa3	-4.1282516
119	0xbee818f6	-0.45331544
120	0xbf834eb9	-1.0258399
121	0xc08cfe14	-4.4060154
122	0xc00ba0d3	-2.181691
123	0xc081304b	-4.037145
124	0xc042ec39	-3.045668
125	0xc07a7134	-3.9131594
126	0x3e0c5162	0.1370292
127	0xc0581b63	-3.3766716
128	0xc07b8ba1	-3.9303973
129	0xbfc31b2d	-1.5242668
130	0xc0cd924b	-6.424108
131	0xc0b0b27a	-5.5217867
132	0xc0c33175	-6.099787
133	0xc0d6347d	-6.6939073
134	0xc0b7660e	-5.731208
135	0xc0f7566b	-7.729299
136	0x3f9fa797	1.2473019
137	0xc07d5058	-3.9580288
138	0xc0d453ba	-6.6352205
139	0xc0d8663b	-6.7624793
140	0xc0aa893e	-5.329253
141	0xc0b09ef4	-5.5194035
142	0xc0df6c89	-6.981999
143	0xc0e8d3ad	-7.2758393
144	0xc0b34b7c	-5.6029644
145	0xc0cb2fe2	-6.349595
146	0x3fcaff7c	1.5859218
147	0xc1085000	-8.519531
148	0xc01a1acc	-2.4078856
149	0xc0cf179e	-6.471633
150	0xc0f7affb	-7.740232
151	0xc0627fcc	-3.53905
152	0xc0bcc979	-5.899594
153	0xc0751a96	-3.8297477
154	0xc087c7ef	-4.243156
155	0xbfddab9e	-1.7317998
156	0x3c1b39ec	0.009474259
157	0xc093e3dc	-4.621565
158	0xc08530d2	-4.1622095
159	0x3edb0180	0.42774582
160	0xc04db16e	-3.2139544
161	0xc068f585	-3.6399853
162	0xc08ddc0d	-4.4331117
163	0xbfe3a87a	-1.778579
164	0xc07f59f9	-3.9898665
165	0xc0c44bf4	-6.1342716
166	0x3f5ad445	0.8548015
167	0xc076e60b	-3.8577907
168	0xc08b67dd	-4.3564286
169	0xbfa1e7c5	-1.2648855
170	0xbf5818dd	-0.8441294
171	0xc082accf	-4.083595
172	0xc03eaaba	-2.9791703
173	0xc07991d6	-3.8995261
174	0xc02352c9	-2.5519278
175	0xc0727df2	-3.788937
176	0xc062c4b5	-3.543256
177	0xc03ba21e	-2.9317698
178	0xc0f3f668	-7.623829
179	0xbfab90ef	-1.3403605
180	0xc0b38135	-5.6095223
181	0xc0a48120	-5.1407623
182	0xc06d7f42	-3.7108922
183	0xc0ab7a5f	-5.358688
184	0xc02e18ff	-2.7202756
185	0xc0c6cb8b	-6.2123466
186	0x401d2382	2.4552922
187	0xc069932f	-3.6496084
188	0xc06925cb	-3.6429317
189	0xbefc3c0a	-0.49264556
190	0xbf8f9647	-1.1217736
191	0xc0324d94	-2.785985
192	0xbfeb5299	-1.8384582
193	0xc018768a	-2.382235
194	0xc0339db6	-2.806501
195	0xc03cca2b	-2.9498394
196	0x3f8882f4	1.0664964
197	0xc038c96a	-2.8872933
198	0xc09ff618	-4.9987907
199	0xbefc7d84	-0.4931451

decoder.linear_latent.bias f4 [20]
0	0xc0a5f44d	-5.186072
1	0xc00f7177	-2.2413003
2	0xc06d7f28	-3.710886
3	0xc06c5ea2	-3.693276
4	0xbfc32efe	-1.5248716
5	0xc025b46e	-2.5891376
6	0xbf9382c7	-1.1524285
7	0xc048928c	-3.1339445
8	0xc0b06c1e	-5.513198
9	0xc068a3b9	-3.6349928
10	0xc08f6420	-4.4809723
11	0xbf816fb6	-1.0112216
12	0xc08f66d7	-4.4813037
13	0x3e37d30f	0.17951606
14	0x3f8566fb	1.0422052
15	0xbed580ee	-0.41699928
16	0xbfde0ac1	-1.7347032
17	0xc08b3c45	-4.351107
18	0xbfbbf2d6	-1.4683483
19	0xc0b77783	-5.733339
