tests/ExampleModel.pth (torch, 37879 bytes, 18 tensors)

model_state f4 [64, 20]
00000000: 2f14 22bf 6d71 3fbe 350a 13bf 0f4b 63be
00000010: 611a cebf 426b 15bf 72a7 453e e297 54bf
00000020: a2a4 fc3e e7dc 163f 730f bd3e b175 ee3e
00000030: f7b1 2c3f 11b3 553e 0827 a03f 94c8 24bf
00000040: efb8 17bf 145d 213f 1d03 57be 1200 003c
00000050: 057e aebe 2f72 8f3f fd60 cd3f a9b9 0bbf
00000060: 9c6e febd 2c99 a03f d571 c83d a5eb 1e3f
00000070: 567f 90be 60b9 5d3e 0b50 f2bd afbc 863e
00000080: fd4f 52be 1c79 2fbf 169b 353d efd7 e03e
00000090: 5f10 6b3f f0ce acbd d418 3840 e0ca 123f
000000a0: 4151 ee3d 1d10 0ebe 045c a8bd 0c1b 363d
000000b0: c509 44c0 4e38 e8be c2eb 4e3e 1836 dcbe
000000c0: 98a7 91bd 9478 843d 40b6 68be b54e 043e
000000d0: 56bb ba3d 867a 99be 8b1c f9bc b06d 143e
000000e0: b6a4 c5bd 188b 95bd 6f4f 8f3e 254d 6d3e
000000f0: 90e3 363e 4520 8ebf 98fd 663f a0e9 a0be
00000100: 649e e1bf b146 d0be 8fbf 4f3f 00db cabe
00000110: 2fae ab3f ee58 8f3d 1510 c0be 40d7 343e
00000120: 4b1f c03e 0c71 3b3e 25f8 093f 5f66 a73e
00000130: 47c0 3e3f acff d2be f0e5 a63f a0d7 1d3f
00000140: eb19 053f 71ec ca3c bbbf 473f bd4b 23be
00000150: dd8d f23e de21 a23e 0ff5 5ebf 1ae1 ca3f
00000160: 9502 603f 9c7d 4540 ad1d 7a3f 415f d73d
00000170: b117 0e3f aaf3 8cbe a828 0040 78c4 043d
00000180: 630e 323c 875e cb3f 6425 403f 4c97 ea3e
00000190: 0504 e63d d7ff af3e 73eb abbf b213 49bf
000001a0: 6a8b 0f3f e265 7abf ce75 72bd 0c18 acbe
000001b0: d0ff bebf b78f 22be 74ce 003f 277b bbbe
000001c0: 12b6 b9be b130 a7bf 4317 12bf adbd b1be
000001d0: 4909 eebf 5141 07bf dd7a 1dc0 db08 a5bf
000001e0: 0d53 263e aa4d e6bd 0ddb a03e e389 21bf
000001f0: 3d5e bebd 2d18 23bf 1121 acbf 3959 55be
00000200: 8f5e 18bf 5a07 6ebe 592a 1dbd 5b54 8d3d
00000210: 2a17 393e 2ee4 c43e 7337 40c0 345b f0be
00000220: f0ba acbf 6a64 db3e 1abb c6be 8798 7e3e
00000230: 5e35 81be 8634 3f3f 0b21 db3f 6ec2 2d3d
00000240: 3cc8 783e 32a2 a1bd b1dc 84bf 3363 8d3d
00000250: 0723 8cbe 1bbf 0fbe c177 0c3e 8d94 2fbf
00000260: 138d 94be 550e 37c0 4a7b 8fbf ba7a 9d3d
00000270: 83dd 34bf fdbd ee3e 869c 6dbf ef90 34be
00000280: 9921 b43e a38f a33e 75e3 283f a61b 5d3d
00000290: 59ac 2dbe 7075 bf3e 0b68 0e3f a9a0 a5bd
000002a0: 824c 3dbf 5b6a eabd 497e 923e 970d 8040
000002b0: 5e95 25be 1c42 c73b 0a49 ec3e 2134 4fbe
000002c0: adbe d0bf 6e8e 4cbf b0c1 073f 96cb 53bc
000002d0: 7e9f 723f a83c f8bf 4fa4 20be 21fd a53f
000002e0: a05b ef3e 0ead f7bf aa4a 9c3d fae8 81bd
000002f0: b60f f13f 74b6 4cbe 760a 163f d924 4ebe
00000300: caf2 b23f 0c59 e4bd 44c2 c7be 172a 82be
00000310: dde2 ee3e 162c fb3f 17b6 0d3f 8fc5 a83f
00000320: 9981 3a40 c36e 143e 3e22 1ebc 9ec5 1640
00000330: 32b5 cf3e 7d38 5f3e 7fc2 80bd 900f 0d40
00000340: 558c f43f a8f5 1840 989a 1740 ca55 e9bd
00000350: a3ce 3940 03ab 663e ce6c d0be c812 7a3e
00000360: 36ec c5be 97a7 4a40 aad4 44bf 4737 3640
00000370: e251 57bd e917 25bf edae d43f 5f01 2c3d
00000380: 659c bbbd c78b 8b3d 6b12 493f d328 c4be
00000390: c87f 0440 b133 4e3e 94dc 92be 34f8 9b3e
000003a0: 3765 ef3e 73ab 9340 13d6 de3e 0845 663e
000003b0: a7c7 f43e 29f1 11bf e543 8e3f e95c 5d3f
000003c0: 2668 24bf a5aa eb3d 1b18 dc3f c24a c33e
000003d0: 5c03 533f 7a62 9e3e 8618 45bf eb10 8b3f
000003e0: 055a 013f aa55 e73e e0ae c63e c61a ddbe
000003f0: e43b 373f caf2 8f3f 04f4 a6bf ebd0 c1bc
-0.6331205 -0.18695612 -0.5743745 -0.22196601 -1.61018 -0.5836679 0.19302157 -0.83044255
0.49344355 0.5893082 0.3692585 0.46574166 0.6745905 0.2086909 1.2511911 -0.6436856
-0.5926656 0.6303265 -0.20997281 0.007812517 -0.3408052 1.1206721 1.6045223 -0.5458017
-0.12423441 1.2546744 0.09787337 0.62078315 -0.2822215 0.21652746 -0.11831673 0.2631583
-0.20538326 -0.68544173 0.044337355 0.43914744 0.91821855 -0.08437908 2.8765154 0.5734081
0.11636592 -0.13873334 -0.082206756 0.044459388 -3.0630963 -0.45355457 0.20207122 -0.4301002
-0.07112044 0.06468311 -0.22725773 0.1292065 0.09117763 -0.2997629 -0.030409118 0.14494967
-0.09650557 -0.07301921 0.2799029 0.2317396 0.17860246 -1.1103598 0.90230703 -0.31428242
-1.7626462 -0.40678933 0.8115167 -0.3962021 1.3412532 0.06999384 -0.3751227 0.17660236
0.37523875 0.18304843 0.53894264 0.3269529 0.7451214 -0.41210687 1.3038921 0.6165714
0.5199267 0.024770947 0.7802693 -0.1594686 0.47373858 0.31666464 -0.8709268 1.5849946
0.8750394 3.0857916 0.9770153 0.10516215 0.555049 -0.2752965 2.0024815 0.03241393
0.010867688 1.5888222 0.75057054 0.45818555 0.112312354 0.34374878 -1.3431228 -0.7854568
0.56072104 -0.9781171 -0.05919438 -0.33612096 -1.4921818 -0.15875135 0.5031502 -0.36617395
-0.3627172 -1.3061734 -0.57066745 -0.34715024 -1.8596584 -0.5283404 -2.460624 -1.2893327
0.16242619 -0.11245282 0.31417122 -0.63101023 -0.09295318 -0.63708764 -1.3447591 -0.20834817
-0.59519285 -0.23244992 -0.038370464 0.06900855 0.18075243 0.38455337 -3.0033844 -0.46944582
-1.3494549 0.42850047 -0.38814622 0.24862872 -0.25236028 0.7468952 1.7119459 0.04242175
0.24295133 -0.078922644 -1.037985 0.069036864 -0.27370474 -0.14037745 0.13717557 -0.68586046
-0.2901388 -2.8602498 -1.12095 0.07689424 -0.706505 0.46629325 -0.9281696 -0.17633413
0.35181883 0.31945524 0.6597207 0.053981446 -0.16960277 0.37394285 0.55627507 -0.08087284
-0.73944867 -0.11446067 0.28611973 4.001659 -0.1617026 0.006080879 0.46149474 -0.2023473
-1.630819 -0.7990483 0.5302992 -0.012926957 0.94774616 -1.9393511 -0.15687679 1.2967874
0.46749592 -1.9349687 0.076314285 -0.06343265 1.883292 -0.19991475 0.5860971 -0.20131244
1.3980343 -0.11149797 -0.390154 -0.25422737 0.46657458 1.9622829 0.5535597 1.318529
2.91416 0.14495377 -0.009651719 2.3558116 0.4056793 0.21798892 -0.06287097 2.2040749
1.9105326 2.3899937 2.3688107 -0.11393316 2.903237 0.22526173 -0.4070801 0.24421227
-0.38656777 3.1664789 -0.76887 2.8471239 -0.052568324 -0.6448961 1.6615883 0.041993495
-0.09160689 0.0681377 0.7854373 -0.38312396 2.0702991 0.20136906 -0.28683913 0.304628
0.46756908 4.614679 0.435227 0.22487271 0.47808573 -0.57008606 1.111447 0.86469895
-0.6422142 0.11507157 1.7194856 0.38142973 0.82427 0.30934507 -0.76990545 1.0864538
0.50527984 0.45182544 0.38805294 -0.4318449 0.7157576 1.1245968 -1.3043218 -0.02365919

model_state f4 [64]
00000000: 8448 b73e 5b17 d2bd ed06 213f 0f51 f4bd
00000010: 1527 8a3f da5b a0bf 6173 ae3d 23bc b73f
00000020: 63a6 94c0 689a 2a3f d6e8 1dbf c41a 673f
00000030: 5bbb 4bc0 4e27 1e3f e034 23bf e70b b33f
00000040: 6e22 b8be 7c67 843e 0981 ffbe 8ffc 0140
00000050: 388b 58bf 346b 923f 836e 38c0 8654 4abe
00000060: f81a 80bf 09a2 e63f 31b7 97be 60d5 cdbd
00000070: 2438 b4bf 87c5 af3e 8d06 593f b181 203d
00000080: 8a41 3240 ccd4 01c0 2f06 25bf 13c1 0fbe
00000090: 67e3 9ebf c005 c53f 59eb 1cbf d676 4b3f
000000a0: eb12 6a3f 94c8 283e bc1e 29bf 0eaa fd3f
000000b0: 85b9 3a3f 9383 aa3f e9e1 53bf 05c0 b1be
000000c0: 38fc c73e 0ccc 0240 c910 dbbf 4513 823f
000000d0: 2aa3 b13d c1b5 013f b447 fabe f030 41bf
000000e0: bda2 0fbf 2dde 823f 45c3 f53c 81b6 9b3f
000000f0: 6290 b5bf cf2f efbd 38a1 acbe 1f70 18c0
0.35797513 -0.10258361 0.6290119 -0.11929523 1.0793177 -1.2528031 0.085181005 1.435429
-4.645311 0.66641855 -0.61683404 0.90275216 -3.1833103 0.61778724 -0.63752556 1.3988007
-0.35963768 0.25860202 -0.49903134 2.03104 -0.8458743 1.1438966 -2.881745 -0.19758806
-1.000823 1.8018199 -0.2963195 -0.10050464 -1.4079633 0.3433039 0.8477562 0.039186183
2.7852502 -2.028613 -0.6446256 -0.14038496 -1.2413148 1.539238 -0.6129661 0.79478204
0.91435117 0.16482764 -0.6606252 1.9817522 0.7293933 1.3321403 -0.82766587 -0.34716812
0.39059615 2.043704 -1.7114497 1.016213 0.08673699 0.5066796 -0.4888283 -0.754653
-0.56107694 1.0224053 0.030000338 1.2165071 -1.4184687 -0.11679041 -0.3371675 -2.3818433

model_state f4 [64]
00000000: e2d3 d63e 8694 cd3f e5ac 343f f89e 643f
00000010: 4265 553f 3577 c23f 3063 773f bea1 543f
00000020: 8e4e a93f 436c 4e3f 9cab 0f40 7c94 0540
00000030: f1d0 233e d909 c63f d051 bd3f dcb0 b03f
00000040: eb3e 833f ee19 383f f168 993f 501f 0540
00000050: cf34 793f 703b 533f cfde 813f 4316 5b3f
00000060: f356 c13f 3529 a73f bf5e ce3f e010 f43e
00000070: b5d3 653f 375f 873f 0c74 203f c447 613f
00000080: 9380 223f dc85 c13f 32cc 1a3f c3f0 603f
00000090: 0496 643f 97f5 5640 2ec4 2640 03e5 c83f
000000a0: ae53 d3be 336b dd3e eaa4 273f 7951 683f
000000b0: 03d7 a93f 4540 813f 3ccd 6a3f f5cc 5b3f
000000c0: 77b7 423f a7c4 be3f 543f 3c3e 83bd 0140
000000d0: 44fd 0840 f923 c43f aded f93f f218 8c3f
000000e0: 0995 b53f c954 bd3e 5da2 763f 9e86 943e
000000f0: 0fe2 9e3f a630 bd3f dd47 ec3e c706 6a40
0.4195853 1.6060951 0.70576316 0.8930507 0.8335763 1.5192629 0.96635723 0.830593
1.3227098 0.80633944 2.2448492 2.0871878 0.15997674 1.5471755 1.4790592 1.3803973
1.0253576 0.71914566 1.198515 2.0800362 0.97346205 0.8251257 1.0146121 0.85580844
1.510466 1.305945 1.6122664 0.47669125 0.89776164 1.0575932 0.62677073 0.8800013
0.6347744 1.5118976 0.6046783 0.87867373 0.89291406 3.3587396 2.6057239 1.5694889
-0.4127478 0.4324585 0.65486014 0.9074932 1.3268741 1.0097739 0.9171941 0.85859615
0.76061195 1.4903764 0.18383533 2.0271919 2.140458 1.5323478 1.9525658 1.0945113
1.4186107 0.36978748 0.96341497 0.29008955 1.2412738 1.4780471 0.46148577 3.6566637

model_state f4 [64]
00000000: a602 a9bd 34c7 5c3f da60 663f 3175 573f
00000010: be4c 263f a1c7 12be 0ca6 133f 886d 973f
00000020: b712 1b40 08a6 b93f 96bd 0c40 03fd 4c3f
00000030: 5208 6f3f 6ee3 37c0 abe7 8d3f 6423 923e
00000040: 430c 93be f859 c13f 76b4 2bbf dc1c 943f
00000050: daa2 c03e 91b9 db3f a1f7 123f e95a 2d40
00000060: 2557 a43f 7fed 2b3f 63bb aa3f 7777 d43f
00000070: 7250 ab3f 2aed 953e 6224 7d3f b611 333f
00000080: 11a0 ce3f d772 523e fd20 183f a420 11be
00000090: 16d4 da3f e473 e23f a463 3d40 2075 733f
000000a0: 0a23 9d3f b072 503f de29 243f 162f ef3e
000000b0: 01ce d43f 108f 5e3f 11cf ca3d a642 613f
000000c0: b963 0a3f 7bd2 af3f e088 b23f 5f85 143f
000000d0: 8032 ba3f f931 62bf 02d3 ab3f adf0 d33e
000000e0: c8fc ddbd df91 8d3d dd37 ec3f 9a84 703f
000000f0: 34a5 8f3f a30a a93e 232a 8b3f e65c bd3f
-0.08252458 0.8624146 0.89991534 0.84163195 0.6496085 -0.14333965 0.5767524 1.1830301
2.4230173 1.4503794 2.1990714 0.80073565 0.9337207 -2.8732562 1.1086324 0.28542626
-0.28720292 1.5105581 -0.67072237 1.1571307 0.37624246 1.7166005 0.574091 2.7086737
1.2839094 0.67159265 1.3338436 1.6598958 1.3383925 0.29282504 0.9888364 0.699489
1.6142598 0.2055162 0.59425336 -0.14172608 1.7095973 1.7691617 2.9592066 0.95100594
1.2276318 0.81425 0.64126384 0.4671561 1.6625367 0.86937046 0.09902776 0.8799232
0.54058415 1.3736109 1.3948021 0.5801601 1.4546661 -0.883575 1.342377 0.4139456
-0.1083923 0.06912588 1.8454548 0.93952334 1.1222291 0.33015928 1.0872234 1.4793975

model_state f4 [64]
00000000: 221c d43e 02dd e13f 7e33 0fbe 460d 3a3f
00000010: 8473 3640 06c7 82c0 310b 3bc0 639a aabf
00000020: 9888 41c0 3fe7 88be 08c1 b7be e458 9340
00000030: 00cc 7fc0 3d53 c93f 0f30 c13f 4423 8b40
00000040: 665d 753f 51aa f73d 0ad5 2dc0 99bd 17c0
00000050: 331c 983f 564c 3b40 84bb 9dc0 93be 5ebe
00000060: 724a 1040 29b8 2840 3ba8 60c0 f036 cebe
00000070: 920b f9bf 39fa 05c0 228c c63e a2e0 eb3f
00000080: 489b 1c40 f1ac 92c0 3fa6 563f ace4 ecbf
00000090: db38 9a3e b23a 5b40 40cc 683f a8ee 2540
000000a0: f1d0 b33f 1f0a 663f 588d bfbf c9bc 4140
000000b0: 299d 8d40 069d 3b40 8979 563e dc14 fabf
000000c0: 5742 c73f c6e8 7740 c25e aebf b14c 00c0
000000d0: c090 4340 2191 6a40 7e72 433f d883 1d3f
000000e0: 9740 3fc0 c99a 873f 7365 0b3f 19df 343f
000000f0: fa92 5d3d e363 30c0 560b c93e 5002 b3c0
0.41427714 1.7645571 -0.13984486 0.72676504 2.8508005 -4.086795 -2.922558 -1.3328365
-3.023962 -0.26738927 -0.3588946 4.604601 -3.9968262 1.5728527 1.5092791 4.348055
0.9584564 0.12093032 -2.7161279 -2.3709471 1.1883606 2.9265342 -4.92914 -0.21752386
2.2545438 2.6362402 -3.510268 -0.4027629 -1.9456656 -2.0933974 0.38778788 1.8427927
2.4469776 -4.583611 0.8384742 -1.8507285 0.30121502 3.4254575 0.9093666 2.5926914
1.4048139 0.89859194 -1.496501 3.0271475 4.4254346 2.931459 0.209448 -1.9537616
1.556712 3.8735824 -1.3622668 -2.0046809 3.0557098 3.665108 0.76346576 0.615293
-2.9883173 1.0594112 0.54451674 0.7065292 0.054095246 -2.7560966 0.3926646 -5.5940323

model_state f4 [64]
00000000: 23c8 ad3f b6ee bd40 8eab e13f 7ca4 1940
00000010: bb32 1a40 ec4f dd40 4b5e 9340 5341 9340
00000020: 74df 9140 3cd7 0d40 8dd5 c93f 414a 2241
00000030: 6fb9 f83f 8490 7040 3989 ad40 11e5 be40
00000040: b86a 6840 2bb8 0c40 0c7b 5d40 19e8 1041
00000050: f882 6840 43e2 3040 a725 bd40 f85e c63f
00000060: c0f7 ae40 bb5d 4240 b59a 1941 db3a e43f
00000070: 3924 7e3f ed80 6f40 3123 c43f 3680 5d40
00000080: 492a 1140 ee52 df40 d65c 0f40 3a47 4740
00000090: ac90 6b40 b962 1241 46af 0341 0be5 8140
000000a0: 6627 963f 2b3f 1240 8679 ec3f 167c 1d40
000000b0: 2567 1941 8407 4440 5593 3f40 d840 5740
000000c0: 8879 3740 0ac2 d940 f309 983f 25b5 1941
000000d0: d3d9 2f41 e814 c040 ff88 8040 39aa 5540
000000e0: 1fd2 b740 831b f63f 811e cd3f 829b ef3f
000000f0: e400 8440 abf8 c240 1420 ee3f 068b c041
1.3576702 5.9353895 1.7630479 2.4006643 2.4093463 6.916006 4.6052604 4.601724
4.558527 2.2162619 1.5768296 10.143128 1.943159 3.7588205 5.423001 5.965462
3.6315136 2.1987407 3.4606352 9.056664 3.6329937 2.76381 5.910846 1.5497732
5.467743 3.0369709 9.60027 1.7830461 0.9927402 3.742244 1.532324 3.4609504
2.268206 6.9788733 2.2400413 3.1137223 3.680705 9.149102 8.230291 4.0592093
1.1730773 2.2851055 1.8474586 2.4606986 9.587682 3.0629587 2.9933674 3.3633327
2.8667927 6.8049364 1.1878036 9.606725 10.99068 6.002552 4.016723 3.3385146
5.7443995 1.9227146 1.6024934 1.8719332 4.1251087 6.092855 1.860354 24.067883

model_state f4 [64, 64]
00000000: 6bb3 123d 6137 6e3d a205 72bd f341 50be
00000010: c14f 3d3f 01a3 3c3e 831e 523d ecd0 763e
00000020: 1954 18bf 055d 7cbc 549a 03be f37d 7cbe
00000030: 5716 353d b126 f23b c9e5 ab3f dd98 523e
00000040: 7e4d b7be 117b 65bf 539e 2ebe 19a0 313d
00000050: 1b57 75be 658d ae3e b099 5a3f 8c10 52be
00000060: 9033 92be 2717 8dbe 6a48 19c0 cde6 0b3f
00000070: a663 13be 8c75 1b3e bc0a 77be c806 ed3e
00000080: a4d6 8a3e 5be0 6b3f d5d0 1f3f 60ad d4bd
00000090: 262e a7be c8f3 a6bd c947 85be 2ce0 b53e
000000a0: c202 973f f0d3 983e 4f17 c8be e30f 95bf
000000b0: 5ddf eabd 7f41 15bf 1572 5abc 743d 63be
000000c0: a235 13bf a23d 9a3e 9bad 923f 9fae 463f
000000d0: 8eb0 1ec0 5435 df3d e68f 07bf de45 033f
000000e0: 0bb4 fc3e 8412 e8bf d27b f8be 6f10 23bf
000000f0: ff94 4d3e b132 213f 1447 1abe e2c5 eb3e
00000100: 7dd8 6b3e 22aa cbbf 2123 2ebf 804a 95bc
00000110: f697 153e d251 d03e 52fd b43e 5b7e 08bc
00000120: e496 ff3e f61d 89bf 5703 a0be ea50 2c3e
00000130: 0fe2 343f 4c52 6bbf 6b4b 8abf b557 a3be
00000140: a3b4 e6be 411d 613f 543b 0a3f abd2 933e
00000150: f554 b4be 321a fcbe 7a71 8fbf b883 5f3d
00000160: e58a 90be fdee 293e 11f7 703f 88b5 b8be
00000170: bb77 013f e159 13bd d71a 433e f257 54be
00000180: 74bc 9b3e fcc8 8abd 5eeb 73bd 7c95 fbbe
00000190: 2b11 e43e c046 af3e 4105 62bf bfa1 11bf
000001a0: 0f4a aa3e 1355 8fbe 0b28 d5bd dc83 66be
000001b0: e78e 203e c460 13be 210c 42bf 4e50 f0be
000001c0: e0de c93d b79b d9be afc1 ccbe 1e25 153f
000001d0: 7626 0ac0 fd78 64bf 625b 98bf 7f20 93bf
000001e0: 499d 33be 7843 20bf 02c6 20bf 3fa6 f7bd
000001f0: 4c86 a8be cca5 773e 3e8a 983d 7904 b2bf
00000200: 33b6 05be 3f07 d23f 349b b43e fc6f cd3c
00000210: 70ee 573f 80ba 81bf 3ea9 163f 54be 3f3e
00000220: b1bd 423e ec15 1dbe 0107 403e 72c4 753f
00000230: 4a1f 153f 867c 763f 2cb4 3b3e 91db f93f
00000240: 6775 813f 5ab0 9d3e d702 19bf ed04 b5bf
00000250: 7c4f 213f 821b 8c3f 8d6c 4f3f 0417 11bf
00000260: 0efa ae3f 28bb 923e 092f 03bf 99fa d5bd
00000270: fc5e 3dbd 0659 a3be f6c5 f53e 88ef c63e
00000280: 2ac8 833e 7d8e 163e 141a a23e 13fe 5d3e
00000290: 0e6b cfbe 7b18 b23e c482 be3f 12e0 343f
000002a0: ff01 823e 8276 0bbe f7bd 80be 12ca ab3f
000002b0: f6a4 2c3f 1f32 0c3f 7084 153f 9d64 c8be
000002c0: ce43 eb3e 3ed6 0b3f ed90 8a3e d874 2abf
000002d0: 0730 2e3f e4a1 ac3f 7b70 0240 433d 043f
000002e0: 82d7 09bf 0400 013f 92a4 3a3e 4e72 0bbf
000002f0: cc02 9c3f 4f61 92be 9924 edbd ad4e 833e
00000300: d7b9 bebe dacf 76bf 1080 ddbe 4589 833d
00000310: 8e0d 99bf 59b2 993e bd4c 993e 2e43 b4be
00000320: 68d1 d83e d64c 3c3e d8ec db3e dbcb 373e
00000330: ca6e 9e3e 0044 373e 2a34 debe df45 ea3d
00000340: 318c 4cbf ca1a efbe 8dbc 233f 6bce d93f
00000350: 7ef7 0abf a765 a7bf f68b a73e c6a3 0940
00000360: 3199 2bbf 0c0e da3f 5a10 903f ffaa 893f
00000370: 6a62 473e f1ad 5c3f c0ad 803f 4c13 c23e
00000380: 0665 e4be ca68 a33e 51db 143e 9899 babe
00000390: 131f 9d3e 7993 0bbf 5723 4a40 21e7 b1be
000003a0: 28b5 00bf a7c9 5e3f 4bf0 b33d 14f9 6ebf
000003b0: 909f 283f 99ae 283d e909 9b3e f8f8 c6bd
000003c0: 46ae a93e eef3 9a3f 7327 87be 514d 303f
000003d0: c267 253f 4023 993e 62a7 bfbf 8a2b f1bb
000003e0: 7ed0 393f 0509 863f b56e b0bf 6ebb 5bbe
000003f0: 0e0f db3d 53cf e83e 3fa6 793f b746 a13e
0.035815638 0.058158282 -0.059087403 -0.20337658 0.7394982 0.18421556 0.05129863 0.24103135
-0.5950332 -0.015403037 -0.1285184 -0.24657421 0.044210758 0.0073898663 1.34295 0.20566125
-0.3580131 -0.8964091 -0.17052583 0.04336557 -0.2395901 0.3409225 0.8539076 -0.20514125
-0.28554964 -0.27556726 -2.3950448 0.5464905 -0.14393482 0.1518156 -0.24125189 0.46294236
0.27116883 0.92139214 0.6242803 -0.10384631 -0.32652396 -0.08151966 -0.2603133 0.35522592
1.1797717 0.29849195 -0.39080283 -1.1645473 -0.114683844 -0.58303064 -0.013332863 -0.22191411
-0.5750371 0.30125147 1.145923 0.776102 -2.479526 0.108988434 -0.52953947 0.51278484
0.49356112 -1.813065 -0.48531967 -0.6369695 0.20076369 0.62967974 -0.15066177 0.4604941
0.23031802 -1.5911295 -0.6802235 -0.018224 0.1460875 0.40687424 0.35349518 -0.008330907
0.49919808 -1.0712268 -0.31252548 0.16827741 0.7065744 -0.9192245 -1.0804266 -0.31902853
-0.4505969 0.8793526 0.5399678 0.28871664 -0.35221067 -0.49238735 -1.1206505 0.054568976
-0.28230968 0.16595073 0.94126993 -0.36075997 0.5057332 -0.035974387 0.19053207 -0.20736673
0.30417216 -0.06776616 -0.059550636 -0.49137485 0.44544348 0.34233665 -0.88289267 -0.5688743
0.33259627 -0.27994594 -0.10408028 -0.22511238 0.15679513 -0.14392382 -0.7579976 -0.46936268
0.09856963 -0.42501613 -0.3999152 0.5825976 -2.1585975 -0.89247113 -1.1902888 -1.1494292
-0.17540468 -0.6260295 -0.62802136 -0.12092256 -0.3291496 0.2418434 0.074482426 -1.3907615
-0.13057785 1.6408461 0.3527466 0.025077812 0.843482 -1.013504 0.58851993 0.18724948
0.19017674 -0.15340394 0.18752672 0.96002877 0.5825087 0.9628376 0.18330449 1.9520131
1.0113953 0.30798608 -0.5976996 -1.4142128 0.6301191 1.0945895 0.8102501 -0.56675744
1.3670061 0.28658414 -0.51243645 -0.10448188 -0.046233162 -0.31903857 0.48002595 0.38854623
0.2573865 0.14702792 0.3166052 0.21678953 -0.40511364 0.34784302 1.4883657 0.70654404
0.25392148 -0.13619426 -0.25144932 1.3421042 0.6743921 0.5476398 0.5840521 -0.39139262
0.45950168 0.5462378 0.27063695 -0.6658454 0.68042034 1.3486905 2.0381153 0.5165598
-0.53844464 0.5039065 0.18226841 -0.5447129 1.2188354 -0.28589866 -0.11579246 0.25645962
-0.3725116 -0.96410906 -0.43261766 0.064226665 -1.1957262 0.3001888 0.2994136 -0.35207504
0.42347264 0.18388686 0.42954135 0.17948858 0.309439 0.17897034 -0.43399173 0.11439108
-0.79901415 -0.46700126 0.6395958 1.7016119 -0.54283893 -1.3077897 0.3272397 2.150621
-0.67030627 1.7035537 1.125499 1.0755309 0.19471136 0.86202914 1.0053024 0.37905347
-0.44608325 0.31915885 0.14536788 -0.36445308 0.3068777 -0.545219 3.158407 -0.3474665
-0.5027642 0.8702645 0.087860666 -0.93348813 0.65868473 0.041182134 0.30280998 -0.09715456
0.33140773 1.2105691 -0.26397285 0.68867975 0.64611447 0.29909706 -1.4972956 -0.0073599266
0.7258376 1.0471503 -1.3783785 -0.21458218 0.10696231 0.45470676 0.97519296 0.31499264

model_state f4 [64]
00000000: c647 a63f 4a3f 193f 7aef 5d3f df33 2cbf
00000010: eba7 ecbf 06c6 863f b91a 1d3d d041 a2bf
00000020: 4e1a 11be 913d d53f 6f58 bebf af27 283e
00000030: 87be d3bf fbef 3fbf e626 c6be 15c5 87c0
00000040: a786 f83e 8a93 fd3f e5e0 bbbf a406 3340
00000050: 02c9 02be 2efb 993f bcc6 943f 8521 b4be
00000060: ca8b 923f 2c38 883e e8c0 eabb d238 c6be
00000070: 4bf4 9abf 4292 1e3f 5cc4 a0bf b95f 193f
00000080: 7b5b 913f cc9f 94bf 9ef4 5e3f 0b12 f1bf
00000090: a32f b93f 5836 353e f5c4 11bf 242c 24bb
000000a0: 679a c63e 842b dabf 2f4b 00c0 edfd aebe
000000b0: 4056 ce3e 774d 28bf c0cd debf f42e 06bf
000000c0: fd7e f5be 4362 e53f 7c2c 82bf 0f43 8d3f
000000d0: f68d e43d aa46 17bf 73dc e7be 9509 f83f
000000e0: b796 1540 cad4 963f 9d42 b63f e2b4 0ebe
000000f0: df43 aa3e a55e b5be d990 c33f 956f bb3e
1.2990654 0.59862196 0.8669354 -0.6726665 -1.8488744 1.0529182 0.038355563 -1.2676334
-0.1417019 1.6659414 -1.4870738 0.16421388 -1.6542519 -0.74975556 -0.38701552 -4.242808
0.48540232 1.981065 -1.4678007 2.7972803 -0.12771991 1.2029779 1.1623149 -0.35181823
1.144891 0.26605356 -0.0071641095 -0.38715225 -1.2105802 0.6194192 -1.2559924 0.59911686
1.1356043 -1.1611266 0.87092006 -1.8833631 1.4467663 0.17696512 -0.5694116 -0.0025050724
0.38789675 -1.704453 -2.0045888 -0.34178105 0.4030018 -0.657432 -1.740654 -0.52415395
-0.47948447 1.7920612 -1.0169826 1.103609 0.111598894 -0.590922 -0.45285377 1.9377924
2.337324 1.1783688 1.4239079 -0.13936189 0.33254907 -0.3542377 1.5278579 0.36608568

model_state f4 [64]
00000000: f045 35bd 8e15 063e f896 593e 3cb6 67bb
00000010: cea1 313e a73a 5cbc a8df fe3d 8285 4b3e
00000020: 462a 083e 0faf d33e 9ab8 bcba 699c 563d
00000030: d4eb 583d e960 6f3d f6f4 8e3d c90a b53e
00000040: 9dd1 573e 07b5 643e 5ea1 b13d cb74 16bc
00000050: 74b3 0fbc 78f9 833d 257a c73b 352b c83d
00000060: b6b5 db3d b6b1 653e a62e 753e b5e9 383e
00000070: ad3c f73c 2133 833e 2408 773e 9f9f 7a3e
00000080: 2576 cc3d 4e68 cd3d 8705 feba 3d72 b23d
00000090: c0a2 6d3d 0d22 7a3b dfb7 5e3c 87c7 acbc
000000a0: 1aa2 f83d df83 acbb b912 9b3d 0833 e23a
000000b0: df1c c1bc 8b18 a33e 2499 1d3e 8ead b23d
000000c0: 821e 573d e10f 173d 6520 283e 69a0 d33d
000000d0: 245e 803d e7fe 593d 57e9 b8bb 78f5 83bc
000000e0: 1084 8f3d 5d66 923e 3a7b 103e 25d1 c23e
000000f0: e915 473d 655f 163e 2f45 903d a8ac 923e
-0.04425615 0.1309416 0.21248996 -0.0035356423 0.1734688 -0.013441718 0.12445003 0.19875148
0.13297376 0.41344497 -0.0014398277 0.052395258 0.05295928 0.05844203 0.06980316 0.3535979
0.21076055 0.22334681 0.086733565 -0.009183119 -0.008770812 0.06444067 0.006087559 0.09773866
0.10728018 0.22431073 0.23943576 0.18057902 0.0301803 0.25624946 0.24124199 0.24474953
0.09983472 0.1002966 -0.0019380309 0.087131955 0.05801654 0.0038167269 0.013593643 -0.021091236
0.121402934 -0.0052647437 0.075719304 0.001725764 -0.023573337 0.31854662 0.1539045 0.08724509
0.05251933 0.036880378 0.16418608 0.1033333 0.06267956 0.05322161 -0.0056430507 -0.01610826
0.07007611 0.28593722 0.14109507 0.3805019 0.04860488 0.14684828 0.07044446 0.2864735

model_state f4 [64]
00000000: aa34 32be 8f13 90be 79d0 b3be bb53 b3bd
00000010: 373d b4be a0a0 76bd f3d0 bfbe e615 95be
00000020: f17b b1be 75bf 44bd 9fe4 0dbe 0776 31be
00000030: 5ee6 993c 1e2a 41bd 4d95 0cbe de01 383e
00000040: 6398 f6bd 2058 31be c956 82be 17c4 44bd
00000050: eede 82be 2b90 3cbe befe 24be 993b 88be
00000060: 0625 45be d8c5 04bf 4228 dfbe e886 3cbe
00000070: a72f 3bbe 5311 85bd c8a7 b2bd bd6c f6be
00000080: e484 8d3d fb8a 69be 22b7 e0bd b800 83be
00000090: b2bb 003b edc7 4dbd 4299 81be ef26 e8bd
000000a0: c128 81be fdd8 afbd d0d1 43be f06d 93bd
000000b0: cc8d 9bbe e986 68be 5ab7 89bd 1b50 823c
000000c0: 92a5 55be c8c1 28be 01f8 98be 118a 6cbe
000000d0: 3a65 64be 0dab 6dbe d31e a7bd acfd 84bd
000000e0: 274c cbbb f76a aebd f060 f0bb a541 8f3d
000000f0: 589c 01be f0f2 abbe 0b9f 39be fec7 b7bd
-0.17402902 -0.28139922 -0.3511999 -0.08756205 -0.35202953 -0.060211778 -0.37464103 -0.2911827
-0.34664872 -0.04803415 -0.13856743 -0.1733018 0.018786605 -0.047159307 -0.13728829 0.17969462
-0.12040784 -0.17318773 -0.25456837 -0.04803857 -0.25560707 -0.1841437 -0.16112801 -0.2660797
-0.19252405 -0.51864386 -0.43585402 -0.18410838 -0.18279897 -0.06497445 -0.08723408 -0.48129836
0.069101125 -0.22806923 -0.1097243 -0.25586486 0.0019643125 -0.050239492 -0.2531224 -0.11335551
-0.25226405 -0.08586309 -0.19123006 -0.07198703 -0.3038162 -0.22707714 -0.06724425 0.015907338
-0.20863941 -0.16480172 -0.29876712 -0.23099543 -0.2230424 -0.23209782 -0.08160176 -0.064936966
-0.0062041464 -0.08516496 -0.0073357746 0.069949426 -0.12657297 -0.33583784 -0.18127076 -0.08973692

model_state f4 [64]
00000000: a608 73c0 13dd 78c1 049f c441 0301 a641
00000010: cb38 37c1 07fe d33f 2cb7 36c1 3d5e b4c1
00000020: a417 8bbf 02e6 85c1 4111 263f ca4e 493f
00000030: 16a4 63c1 19b2 8941 9577 d2c0 f516 0a41
00000040: 5eb3 afc1 d91c eac0 20c4 0740 26a8 00bf
00000050: 08df 0ac0 62f5 8ac0 f86d 1cc1 0ce3 d0c0
00000060: b45c 67c1 8cec c3c0 246e 44c1 4d29 a741
00000070: bbfe 09c1 118e 36c1 4758 a4c1 334d 19c1
00000080: 12f3 2f41 2916 8ec1 360f a0c1 3f06 63c1
00000090: 368d 9ac1 e751 e9c1 c33b 17bf 9e39 513f
000000a0: d378 28c1 10e4 b2c0 a6e1 a2c1 4803 13c0
000000b0: f5ff 0cc1 c6fa 8fc1 5876 04c1 9f59 2340
000000c0: b027 08c1 f69e 1d3e 6e81 8ec1 3d2d 65c1
000000d0: ca48 5a40 8996 4dc0 6458 99c0 4232 9a3f
000000e0: 4154 9141 0c04 6bc1 e75d 5f41 e37c a441
000000f0: 5c93 f0c0 6220 0ec1 6a53 7dc0 d611 5cc0
-3.7974029 -15.553973 24.577644 20.750494 -11.451365 1.6561898 -11.41972 -22.546015
-1.086659 -16.737309 0.6487008 0.7863585 -14.22756 17.211962 -6.5770974 8.630605
-21.962582 -7.3160214 2.1213455 -0.50256574 -2.1698627 -4.342454 -9.776848 -6.5277157
-14.460133 -6.1226254 -12.27689 20.895166 -8.62469 -11.409684 -20.543104 -9.581347
10.996843 -17.76082 -20.007427 -14.189025 -19.31895 -29.164991 -0.59075564 0.8172854
-10.529498 -5.5903397 -20.36018 -2.2970753 -8.8124895 -17.997448 -8.2788925 2.552345
-8.509689 0.1539267 -17.813198 -14.3235445 3.4106927 -3.212313 -4.79204 1.2046587
18.16614 -14.688488 13.960425 20.56098 -7.517988 -8.882906 -3.9582162 -3.4385886

model_state f4 [64]
00000000: 662a ce42 afc5 4243 d900 2144 380e 2c43
00000010: 2d71 8b43 6f98 1843 a8f3 ed42 e6b2 2f43
00000020: 55f9 2f43 74a8 cb44 453c dd42 9a3c a043
00000030: 454a 5343 ecdb 3943 2478 9b43 1211 b744
00000040: c7eb 3144 6cf3 b643 e16d 4543 66d3 3743
00000050: 21e9 b142 08c1 4042 ab06 6043 8329 f842
00000060: 4736 0843 2b58 7242 cf76 e742 d5bb 2844
00000070: 1a7e 4343 b411 6344 152b 5044 edcb 9a43
00000080: e906 e443 4110 2443 d313 9742 e358 0243
00000090: e62e 5943 f88e 6043 23a4 3943 7af2 1443
000000a0: eb5e 4643 35a0 d542 ddca ba43 e978 0843
000000b0: f254 ac42 7528 4944 868e cc43 7a40 1d44
000000c0: f0bc f542 a2a6 2143 d2ef 0543 0a80 9e42
000000d0: 3dc1 8443 4762 1f42 531d a343 9de1 9c43
000000e0: 3daa 6043 955a 9b44 4449 2e44 b3fb a444
000000f0: 011a 8b42 9f30 2543 c4dc 8c43 3465 9944
103.08281 194.7722 644.01324 172.05554 278.8842 152.59544 118.97589 175.69882
175.97395 1629.2642 110.617714 320.47345 211.29012 185.85907 310.9386 1464.5334
711.684 365.90173 197.42921 183.82578 88.95533 48.188507 224.02605 124.08108
136.21202 60.5861 115.73205 674.9349 195.49258 908.2766 832.67316 309.59317
456.054 164.06349 75.53872 130.34721 217.1832 224.55847 185.64116 148.94717
198.37077 106.812904 373.58487 136.4723 86.16591 804.63214 409.11346 629.00745
122.86902 161.65091 133.9368 79.25008 265.50967 39.845974 326.2291 313.7626
224.665 1242.8307 697.1448 1319.8656 69.55079 165.18993 281.72473 1227.1626

encoder.mean_encoder.weight f4 [10, 64]
00000000: aa36 123d 2d3d 29bd 460b 8abd c133 a5bc
00000010: c7d9 10bc 0b16 71be 0c83 84be 885d 38bd
00000020: bef9 0d3e aa2b af3d ef37 e2be 708a debd
00000030: 01b9 64bf ecb6 1c3f a0ff 7e3d 5acb ea3e
00000040: dcd9 67be 77bd 2b3f 59fa 75be ebf3 593f
00000050: 7c3a ec3d d9d1 483d 24c2 0ebf aad3 97be
00000060: 8721 c33c aa33 353d b06d 92be 2493 c3be
00000070: 778d 623d 8a9c d43d a880 083e fda7 3cbe
00000080: 3341 2d3f b65b 16bf e11f a23c b9cd b9be
00000090: 5285 14bf bb22 803d bf4c 393e 793e 88bd
000000a0: c16f 783c 6f0b 073f 23ba d2bd 9c12 a73e
000000b0: 64fa 0cbe 078a fa3c 646c 04bf 305c f1be
000000c0: d7d4 40bf 9ac8 72bf 4395 6cbe 95b6 1bbf
000000d0: c129 2c3f 8f80 bc3d 5e6c 85bf 02e2 6a3f
000000e0: 0c7b e9bd 6589 06be 43d9 913e f30c 54be
000000f0: ca8e 4a3e f9d4 783d b1e8 2fbe c2cc 9abd
00000100: b913 023e 059c c9bd f65e 9d3c 3eed 003e
00000110: 662e 0d3e 2945 45bf a62b 7d3d 4621 15be
00000120: 59c8 433e 9aad 553d 89ce d9bd 5766 dfbd
00000130: c69c f9bb 5355 eb3d 105e 9cbc e9b2 40bd
00000140: a711 c3bb f3de 21be 825c 7bbc 0b33 70bd
00000150: fcc4 8b3c 6281 083e f661 e7bd b17d c3bd
00000160: 83bb 453d ce7f eebd 8413 60be 5b3c 80bd
00000170: 40f9 5f3d 6f91 253d 27fd 243c 12fa a23d
00000180: ecd6 543e c62c b93c 1de9 ffbc 8696 9bbd
00000190: b643 a2bd 0c9a 36bc c605 093f e4f5 1fbd
000001a0: b63d f73d 3a78 a83d d671 b2be eec9 a5bd
000001b0: 4888 0cbf c84a dc3d 8a9e ebbd ce50 f0bd
000001c0: bdd9 3abc fd93 fa3c bf57 96be 0186 e23d
000001d0: 6b54 243d 47cd 43bc 3e39 103e b1e0 38be
000001e0: 4906 e83f 8c35 30bc 02a5 52bd a17e 193b
000001f0: a74c 11bf ddc3 90bc 2310 06bd 9c4e 0d3d
00000200: 9de4 0bbf 2edf e7be 9bd0 893d 0b23 ba3e
00000210: 1aa8 a8be eb10 743f e7dd a03d 7dc9 cf3d
00000220: a7a6 d1bd 0597 7bbe 35c2 dc3d 7023 a8bc
00000230: b103 d6be f26a 933d 30cf fa3d 2db9 143d
00000240: ecb1 cabd 629e 883e 445a ad3d 0a31 483f
00000250: 50ab 6fbd 4337 c83d 5014 8c3e 9c2b 3ebd
00000260: e298 493e dcef 4f3e d0dc 25be c2ab adbd
00000270: 2192 40be be48 993e 1a03 1fbc 0cee ea3c
00000280: 7c38 57bd 49b4 9dbd 061d 2dbd 639f 94bd
00000290: aa6c dd3c 9a86 f8be a656 42bf 0604 4a3e
000002a0: 0dd4 913d 335b ddbd 919b 4c3e 481e 713e
000002b0: c0cc 013d 04ba 1cbd de7c 0e3e 9b3e 02bf
000002c0: 493c 34bd cc50 32bf eedf 9dbe 4a08 d73b
000002d0: f255 303e 4a51 993e 6d3a 1fbd e8b2 71bd
000002e0: 70f8 593d e9a9 9d3d 11be 88be ed46 793e
000002f0: 9cde 02bd 1f02 1f3c 6e2f 1dbd 6ba6 5e3d
00000300: 71b2 423d ac4b a53d f231 573b 4487 1f3f
00000310: 1a21 de3d ed8e 0b3f 299f 0e3d 73a4 17be
00000320: 6906 323e 7614 f63d 90c8 c7bd d2df edbd
00000330: 8c8e febd e20e 763e db8b a43e 8ecd 4b3e
00000340: 8a61 7abe 7625 e23d 6d8b b7be 7049 31be
00000350: 9ae9 803d 295b dc3d 40c1 a73d 8b60 b33d
00000360: 614b a7be bc48 1abe 9e90 c93d f2d2 92bd
00000370: d1e6 9cbf 762d 0b3d 4997 81bc bd06 d1bd
00000380: 0d2d bc3e 59ef 033d 09c1 1bbf 74e7 243e
00000390: a47e 9ebe ef38 2abf c875 05bf db4b a83f
000003a0: 747b 59bc 8c6b 783d e3be 60bd 63e2 b2bd
000003b0: 75fc 0e3d 3ec0 a5bc 791e eebd 91b0 cb3e
000003c0: cfbb 5c3d 5e4c 393e 1ecf 6cbe 5c83 193d
000003d0: 1e7a 053d b60b 55be a64a cd3e a546 b1be
000003e0: efde 973d e06d 18bd 0ef2 86be 9c67 d6bd
000003f0: 90e6 e5b9 4d1e fd3d 927e ea3e 2eb8 9f3c
0.035696663 -0.041318107 -0.067404315 -0.02016628 -0.008840985 -0.23543565 -0.2588123 -0.045011073
0.138648 0.0855325 -0.441833 -0.108662486 -0.89344794 0.61216617 0.0622555 0.4585827
-0.226417 0.67085975 -0.24021281 0.85137814 0.115345925 0.04902825 -0.55764985 -0.29653674
0.023819698 0.044238724 -0.2859931 -0.38198197 0.055310693 0.1038142 0.13330328 -0.18423457
0.6767761 -0.5873369 0.019790592 -0.36289766 -0.5801593 0.06256624 0.18095683 -0.06652541
0.015163363 0.5275182 -0.10289409 0.32631385 -0.13767391 0.030583395 -0.5172789 -0.47140646
-0.7532477 -0.94837344 -0.23103814 -0.60825473 0.6725121 0.09204208 -1.0423696 0.9175111
-0.114004225 -0.1313835 0.2848607 -0.20708065 0.19781032 0.06074998 -0.17178608 -0.07558586
0.12702836 -0.098442115 0.01921032 0.125905 0.13787231 -0.77058655 0.061809205 -0.14563474
0.19119395 0.052167512 -0.106350966 -0.10908192 -0.007617566 0.11490884 -0.019087821 -0.047045622
-0.005953032 -0.15807705 -0.01534188 -0.05864243 0.017061703 0.13330606 -0.112979814 -0.09545458
0.04827453 -0.116454706 -0.21882445 -0.06261512 0.054681063 0.0404219 0.010070122 0.079578534
0.20785111 0.022604357 -0.031239087 -0.075970694 -0.07923071 -0.011145126 0.53524435 -0.03905286
0.12072317 0.082260564 -0.34852475 -0.08095156 -0.5489545 0.10756451 -0.11504848 -0.11734162
-0.011404452 0.030588144 -0.2936382 0.110607155 0.04011957 -0.011950797 0.14084336 -0.18054463
1.8126918 -0.010754954 -0.051426895 0.0023421424 -0.5675759 -0.01767152 -0.032730233 0.034498796
-0.5464571 -0.4528746 0.067292415 0.3635486 -0.3294075 0.95338315 0.078548245 0.10145853
-0.102368645 -0.24569328 0.107792296 -0.02052471 -0.4179969 0.071981326 0.12246549 0.03630941
-0.09897217 0.26683336 0.084644824 0.7819983 -0.058512986 0.09776165 0.27359247 -0.046428308
0.19687226 0.20306343 -0.16197515 -0.08480026 -0.18805744 0.2993831 -0.009705329 0.028677963
-0.052544102 -0.07700402 -0.042264007 -0.07256963 0.027029354 -0.48540193 -0.75913465 0.19728097
0.071205236 -0.108084105 0.19981219 0.23546708 0.031689405 -0.038263336 0.1391482 -0.5087678
-0.044002805 -0.69654536 -0.30834907 0.0065622674 0.17220286 0.2994483 -0.03887408 -0.05900851
0.053215444 0.076984234 -0.2670751 0.24343462 -0.031950578 0.009705096 -0.03837531 0.054357927
0.047533456 0.08071074 0.0032836166 0.62315774 0.10846157 0.5451496 0.034819756 -0.14808826
0.17385258 0.12015621 -0.09755051 -0.11614956 -0.124295324 0.24029115 0.3213795 0.19902632
-0.2445127 0.11042301 -0.3584856 -0.1731317 0.06294556 0.10759575 0.081911564 0.087586485
-0.32674697 -0.15066808 0.09842037 -0.07169141 -1.225794 0.0339789 -0.015819209 -0.10206363
0.3675312 0.03221068 -0.60841423 0.16103917 -0.30955994 -0.66493124 -0.52132845 1.3148149
-0.013274062 0.06064944 -0.054869544 -0.08734586 0.03490873 -0.02023327 -0.11626906 0.39783147
0.053890046 0.18095538 -0.23125884 0.03747879 0.032587163 -0.20805249 0.40096015 -0.3462421
0.07415568 -0.03721416 -0.26356548 -0.10468981 -0.00043850066 0.12359295 0.4579969 0.019497003

encoder.mean_encoder.bias f4 [10]
00000000: 482c 39bd 69a5 ffbc 4a61 443c a516 9dbc
00000010: 2fcb 143c 3fa3 4bbd 5628 9abc cdbc 84bd
00000020: 6fcf 0abd f5d3 01be
-0.045208246 -0.031206803 0.011986086 -0.019175837 0.009081646 -0.04971623 -0.018818062 -0.064813234
-0.03388923 -0.12678511

encoder.var_encoder.weight f4 [10, 64]
00000000: 08ff 5abd ff4b 1a3e 85e0 333d 51cf d0bd
00000010: a569 afbc c79b bd3c a868 093e cad4 db3d
00000020: c9f3 5bbd d8a7 19bc d8cc 623d 21e3 49be
00000030: e455 59bd 6d79 c7bc 36c5 9bbc 80fd 193d
00000040: 179f 773d e78c 94bc f11f eb3d 1b7b 69bd
00000050: 57e8 1a3d 9752 643c 07ac 013e 15f8 403c
00000060: 7712 bd3c 4fc6 413d ad59 9d3d 7094 a83a
00000070: fa89 e93d 5209 8cbd a4cd 963c 3db7 c8bc
00000080: 4dfb 2e3d 8783 a93e e4fa e5bb 652e 1e3e
00000090: 79e3 a93d 3484 983c f896 863d 860e b33c
000000a0: af0d 7d3d 1817 573d 0506 57bd 4a1e 8ebc
000000b0: 3478 243e 56a8 193b d655 a23d 82e4 593d
000000c0: 1502 76bb a2f9 c43c 35f9 e53b e366 193e
000000d0: 2b29 bf3c 5781 233e 3bae 69bb c2c1 abbd
000000e0: b904 79bd 4ff7 c9bc 7102 d33d f473 f5bb
000000f0: 77e6 123d 5410 e8bc dc91 113e 7959 5a3c
00000100: 00a1 313d 80cf a93c 186c b2bd c503 6f3d
00000110: ad95 4abd 1816 6a3e dd85 2a3d d1d9 86bd
00000120: 0601 b4bd c2fc 883b 6678 f0ba 25ea e8bd
00000130: 5d1f 58bd 8f90 d13d 3115 4b3d 72eb b8bc
00000140: 8f86 c7bc 4094 453c 0578 0d3d 7db7 dd3d
00000150: a358 283e b925 88bd 02b7 72ba a748 913d
00000160: a636 87bc 1525 803e 271e bc3d f54f 5fbc
00000170: 6cf9 c43b a979 7ebd 52a6 67bd 66d0 7c3d
00000180: e354 033d 477e f3bd 8dcc 8f3d b131 d23d
00000190: f26d 1e3c 08a2 963d 74b1 a5be 345b 72bd
000001a0: 808b eebc 64e3 b4bc f677 093e 1ed9 183e
000001b0: 6fd2 983e 15ad 08bd da55 08bc e731 b3bc
000001c0: eb66 c63d 8755 9e3d d33f a83e f262 28be
000001d0: 7efc e53d 7b07 e6bd 4a63 bbbd 722f dd3b
000001e0: 8022 7b38 4b7c b6bc 807f 03bd fa2a 1d3c
000001f0: d6a0 ce3e fe4d a83e 2534 8fbd 1d33 563c
00000200: fe76 153e 8088 e23e 345a b7bc bee3 5d3d
00000210: 120f 023f cf3b bc3d 9c97 89bd df6c 9c3c
00000220: 9a5b e23c 32b5 cf3c 870b d3bc 8325 e2bc
00000230: e446 d73c b90a 85bc 1de9 2e3d 8091 adbb
00000240: 2010 25bd fcea a43d 948e 333e d6d3 a73d
00000250: 4150 8dbd e7f6 27b9 6012 a9bb 9ed2 0a3e
00000260: 80e1 eebb 4b9e 56be 3ae1 823e 3c6c b1bb
00000270: a096 9fbc b4a5 4d3d ae73 243d b733 553c
00000280: 3da8 b53d 36a9 843d d7e7 ab3c 6b3b fd3d
00000290: ba9f 9c3c 9f49 103d 3076 05bd 0a1c 06bd
000002a0: b5ce 963d 8c63 c5bc c861 dbbd be2b fd3d
000002b0: 54c5 f23c dad4 873d 3077 97bc 52b2 1bbc
000002c0: b8ff 70bd dbaf bdbc 90eb b83e c0d1 5f3b
000002d0: 8de2 673c 5af0 6bbd 2a51 513b c084 84bd
000002e0: c344 b73b 1c75 693c c895 383c 42df 5ebd
000002f0: 531a 033e 32bf 063e fe04 0c3e 1638 573d
00000300: e45d a33d 48db 953c d023 9339 0c12 41bc
00000310: 95b1 973d 9e61 3a3e ada3 173e b4d9 cf3d
00000320: 75b1 f4bd 250a 923c 8e1d d13d c97e 8bbc
00000330: f791 07bd d818 cf3c 6622 21bd 3a76 19bd
00000340: 7ca1 163c b7d6 5abd 5c73 d6bb 0e2a 7e3d
00000350: 76a9 05bd b4ea 1c3e 7bc0 f93d 1b13 d5bc
00000360: 210e 983e f3f9 b83b bd44 753d 4917 093d
00000370: ab61 b53d 6c5a 81bd a808 01be a768 933e
00000380: 8ce9 c13c 01d2 af3d 1c64 d73e b973 6bbc
00000390: 7d7f 7d3d 332c ba3d d504 d43d ff2b 6e3d
000003a0: 9980 e93c 149f a93d fa2b 953c 76d4 313e
000003b0: 9963 773d a4bd 173d db7a 5c3c 66e3 853c
000003c0: e0de 37bd 3a10 6cbc a9b4 273d 9386 11bd
000003d0: a296 04bd 5d21 453e 0171 a63d 4ae8 c13d
000003e0: d178 233d 8efc 77bc fa1d 783d b740 0abd
000003f0: 3a66 5b3d ebff b13d f89e 593d 0dcd 34bd
-0.053465873 0.15068053 0.04391529 -0.101957925 -0.02141268 0.02314557 0.1341883 0.10733946
-0.05369929 -0.009378396 0.055371135 -0.19715549 -0.053060427 -0.024349893 -0.019014936 0.037595272
0.060454454 -0.018133594 0.11480702 -0.05700217 0.037819233 0.013935707 0.1266328 0.011777897
0.023080094 0.047308262 0.0768312 0.0012861621 0.1140327 -0.06837715 0.018408604 -0.024501437
0.042720128 0.3310816 -0.007018434 0.15447386 0.0829534 0.018617727 0.06571764 0.021857511
0.061780628 0.05251226 -0.052495975 -0.017348427 0.16061479 0.0023446283 0.07926528 0.053196438
-0.0037537862 0.024044815 0.007018233 0.14980654 0.02333506 0.15967308 -0.0035656828 -0.08386566
-0.06079552 -0.024654059 0.103032 -0.0074906293 0.03586432 -0.028328098 0.14215797 0.013326996
0.043366432 0.020728827 -0.087120235 0.058353204 -0.04945915 0.2285999 0.04163157 -0.06584514
-0.08789258 0.0041805217 -0.0018346428 -0.113727845 -0.052764285 0.102326505 0.049580757 -0.022573207
-0.024356155 0.012059271 0.034538288 0.10826013 0.16440062 -0.0664782 -0.00092588377 0.070939355
-0.01650555 0.2502829 0.091854386 -0.013629903 0.0060111787 -0.062127743 -0.0565551 0.06172218
0.032063376 -0.1188932 0.07021437 0.10263384 0.009669768 0.07355124 -0.32361948 -0.05916901
-0.029119253 -0.022081085 0.13424668 0.14926574 0.29848048 -0.03336819 -0.00832125 -0.021874381
0.09687599 0.07731157 0.32861194 -0.16443995 0.112298 -0.112318955 -0.09149797 0.0067500407
5.9875194e-05 -0.022276064 -0.032104015 0.009592766 0.40357083 0.32872003 -0.06992368 0.01307371
0.14596173 0.44244766 -0.02238188 0.05417227 0.50804245 0.09191095 -0.0671837 0.019094883
0.02763157 0.025354955 -0.025762333 -0.027605778 0.02627892 -0.016240465 0.042702783 -0.005296886
-0.04029858 0.08052632 0.17534858 0.081947014 -0.06900073 -0.0001601834 -0.005159661 0.13556907
-0.0072900653 -0.20958821 0.2556246 -0.005414514 -0.019481003 0.050206855 0.040149383 0.013012818
0.088699795 0.06477587 0.020984573 0.12364849 0.019119132 0.03522646 -0.032583416 -0.032741584
0.07363645 -0.02409532 -0.1071201 0.12361859 0.029635109 0.06632395 -0.01848945 -0.009502964
-0.058837622 -0.023155143 0.3611722 0.003415212 0.014153135 -0.057602264 0.0031939247 -0.064706326
0.005592914 0.014249112 0.011266179 -0.054412134 0.1280301 0.13158873 0.1367378 0.052543722
0.079768926 0.018293038 0.00028064707 -0.011784088 0.07406918 0.182013 0.14808531 0.101489455
-0.1194791 0.017827103 0.10210715 -0.01702823 -0.033098187 0.025280401 -0.039339446 -0.037466265
0.009193774 -0.053427424 -0.0065445136 0.062051825 -0.032632314 0.15323907 0.12194916 -0.026010087
0.2969828 0.0056450306 0.059880007 0.033469472 0.08856519 -0.06316075 -0.12600958 0.2879078
0.023670934 0.08584977 0.42068565 -0.014370852 0.06188916 0.090904616 0.10352484 0.058147427
0.028503703 0.08282295 0.018209446 0.17366204 0.060397718 0.03704609 0.013457025 0.016343784
-0.044890285 -0.014408166 0.040943775 -0.03552873 -0.032370217 0.19251008 0.081270225 0.09468134
0.03991014 -0.015135897 0.060575463 -0.033753123 0.053564288 0.086913906 0.05313012 -0.044140864

encoder.var_encoder.bias f4 [10]
00000000: de64 04bd 3bca 863b 982d bbbb ca5c efbb
00000010: 80d7 01ba e238 e23b 13c0 473c 5d4d 47bf
00000020: a880 cf3a ba74 09bf
-0.032322757 0.004113463 -0.0057122223 -0.0073047625 -0.00049530715 0.0069037536 0.01219179 -0.7785242
0.0015831189 -0.53693736

decoder.linear_latent.log_scale_weight f4 [20, 10]
00000000: 23f9 c4bf 6a62 98c0 32a0 e7bf 3796 1cc0
00000010: ae52 63c0 5345 78c0 d0a8 a5c0 855e b4be
00000020: 867e 92c0 3867 9abf 458b a3c0 ccb0 d3c0
00000030: 2016 bcc0 b59f 83c0 04ce b4c0 7080 90c0
00000040: 2024 cec0 3447 b3c0 b8e6 a9c0 10de 4440
00000050: eea4 2ec0 c193 8fc0 fc15 4ec0 8e1b 86c0
00000060: 83ab 20c0 aaf2 8ec0 7e89 78c0 35d4 1140
00000070: 3644 4fc0 c765 e83e e646 dcbf 3cc4 6fc0
00000080: 4d21 25c0 bbe4 38c0 92ee 9cc0 7e63 5fc0
00000090: b349 bbc0 3f68 c3bf e6be a2c0 44c7 9ebf
000000a0: ee9d a6c0 69d7 aebf ae52 86c0 167f b6c0
000000b0: 0d6d 83c0 e22b b4c0 ab81 a4c0 9049 b9c0
000000c0: eb42 a8c0 fb81 d03e 5fa6 8dc0 0e25 90c0
000000d0: 5b6f 0ec1 45f7 95c0 bb19 97c0 e38a ebc0
000000e0: 5d57 7ec0 8ebf 12be 845e d4c0 4d17 2340
000000f0: c069 b1c0 cee0 c1c0 0498 35c0 b9b8 05c1
00000100: bd34 91c0 be3d 85c0 fe1d 53c0 4fce dd3f
00000110: 153b 5bc0 fe32 3dbf 7ac2 e2bf 8275 a6c0
00000120: 7413 63c0 6a34 7bc0 0aab 8ec0 af93 8ec0
00000130: d7c2 97c0 22a0 a6bf 7223 82c0 2a50 483f
00000140: 0b9f 9abf c819 25c0 b862 2ec0 6bf3 52c0
00000150: c932 31c0 4818 3fc0 c46d 53c0 ccd9 ad3f
00000160: ce1c 49c0 8e8e c2c0 abf1 bcbf fb26 82c0
00000170: 9f0f 5cc0 1230 39c0 5c73 7cc0 67b0 80c0
00000180: d1a0 6cc0 a557 8dbd 3d84 3fc0 7ee5 9b3e
00000190: 2399 c6bf 3dc2 6dc0 524c 87c0 3f4d 28c0
000001a0: 5dd2 80c0 6bda 8bc0 2476 3fc0 a143 3cc0
000001b0: 9a4f 89c0 8779 a1bf f965 aac0 77a2 acc0
000001c0: 493f 8fc0 3fcf 3cc0 4b60 84c0 e237 f3c0
000001d0: c421 b2c0 5071 6b3e 9a69 80c0 5435 efbe
000001e0: 7f49 99bf d8dc 8ac0 3564 10c0 4486 53c0
000001f0: 239e 3cc0 aa9a 67c0 c4f3 7ac0 1eef 2b3e
00000200: 268a 6cc0 a13e b9bf 1387 d4c0 7da8 a3c0
00000210: a7c2 bdc0 f4c1 d0c0 0d84 abc0 5faf efc0
00000220: 04ad 73c0 36c7 a33f be5c cdc0 29a9 d0c0
00000230: 35a7 a4c0 1966 bac0 cf32 e4c0 d996 dac0
00000240: afad bbc0 ab9d c7c0 3cee 82c0 4b30 c53f
00000250: a6c1 1cc0 cb28 d0c0 0d6e f7c0 6016 62c0
00000260: e32c b4c0 e1a4 81c0 2e8c 8ac0 d83b e5bf
00000270: a293 85c0 be0b 883d fcd5 89c0 c235 d83e
00000280: c5cc 3ec0 8770 6ec0 f1f7 b7c0 ac8d 44c0
00000290: b571 a7c0 105d c1c0 c670 1cc0 fcc3 5a3f
000002a0: dcdf cac0 3739 abbf b8b9 7cbf 07b6 81c0
000002b0: 903f 52c0 d39e 33c0 8b60 1cc0 d634 80c0
000002c0: 7a37 8bc0 0d69 b9bf 85e4 f0c0 d218 03c0
000002d0: 828c bcc0 e31c 9fc0 6e90 61c0 15ec a4c0
000002e0: aa94 43c0 9c4c bdc0 e518 45c0 72b3 1c40
000002f0: 7745 7bc0 e366 d4be f37f a0bf bc5e 31c0
00000300: b9e2 fabf 7e8e 2cc0 1aeb 61c0 29c3 39c0
00000310: ed6b 3cc0 139e 8b3f 2fb2 9fc0 122b 0cbf
-1.538853 -4.7620134 -1.8095763 -2.4466684 -3.5519214 -3.8792312 -5.176857 -0.35228363
-4.5779448 -1.206275 -5.1107507 -6.6153316 -5.877701 -4.1132455 -5.6501484 -4.5156784
-6.44191 -5.602442 -5.309414 3.0760536 -2.7288165 -4.4867864 -3.2200918 -4.1908636
-2.5104682 -4.467122 -3.8833919 2.278577 -3.2385383 0.4539015 -1.7209136 -3.7463522
-2.5801575 -2.8889606 -4.9041224 -3.4904475 -5.8527465 -1.5266188 -5.085803 -1.2404561
-5.2067785 -1.3659488 -4.1975927 -5.7030134 -4.107062 -5.630357 -5.1408286 -5.79023
-5.2581687 0.40724167 -4.426559 -4.5045233 -8.902186 -4.6864343 -4.721891 -7.360704
-3.9740822 -0.14330885 -6.6365376 2.5482972 -5.544159 -6.058692 -2.8374033 -8.357598
-4.537688 -4.163787 -3.2987056 1.7328585 -3.425481 -0.7390593 -1.77156 -5.201844
-3.5480623 -3.925074 -4.458379 -4.455528 -4.742534 -1.3017619 -4.066827 0.7824732
-1.2079786 -2.5796986 -2.7247753 -3.296107 -2.7687247 -2.985857 -3.3035746 1.3582091
-3.142383 -6.0799017 -1.4761251 -4.0672584 -3.4384534 -2.893559 -3.944541 -4.0215335
-3.6973155 -0.069014825 -2.9924462 0.30448526 -1.5515484 -3.7149804 -4.2280664 -2.6297147
-4.025679 -4.3704123 -2.9915857 -2.9416277 -4.290967 -1.2615212 -5.324948 -5.394832
-4.4764752 -2.9501493 -4.1367545 -7.6005716 -5.566622 0.22992444 -4.012891 -0.46720374
-1.1975554 -4.3394585 -2.2561162 -3.30507 -2.947152 -3.618815 -3.9211283 0.16790435
-3.695932 -1.4472238 -6.6414886 -5.1143174 -5.9300113 -6.523676 -5.3598695 -7.4901576
-3.807435 1.2795169 -6.417571 -6.5206494 -5.145411 -5.824963 -7.131202 -6.830914
-5.8649516 -6.2379966 -4.0915813 1.5405363 -2.4493194 -6.5049796 -7.732184 -3.5326157
-5.6304793 -4.051377 -4.329612 -1.7908888 -4.1742716 0.06642865 -4.307371 0.42228514
-2.9812481 -3.7256181 -5.7490163 -3.071147 -5.2326303 -6.04261 -2.4443831 0.854553
-6.3398266 -1.3376836 -0.98720884 -4.05347 -3.2851295 -2.8065689 -2.4433925 -4.0064497
-4.350522 -1.4485184 -7.5278955 -2.04839 -5.892152 -4.972276 -3.5244403 -5.1538186
-3.0559487 -5.9156017 -3.0796444 2.4484525 -3.9261148 -0.41484746 -1.2539047 -2.7714071
-1.960044 -2.696197 -3.5299745 -2.9025366 -2.9440873 1.0907615 -4.990501 -0.5475322

decoder.linear_latent.bias f4 [20]
00000000: 58e9 a5c0 3238 12c0 84e8 6cc0 a7be 6ac0
00000010: f201 c5bf 23d6 29c0 c6fa 94bf 2a81 49c0
00000020: 1a7e b0c0 9cec 64c0 4be1 8fc0 08b4 86bf
00000030: 4262 90c0 978e 2d3e e34b 813f b486 bcbe
00000040: 88e5 e3bf c32c 8cc0 0845 babf 435d bac0
-5.1847343 -2.28468 -3.7016916 -3.6678865 -1.5391219 -2.6536949 -1.163903 -3.1485085
-5.5153933 -3.5769415 -4.4962516 -1.0523691 -4.5119944 0.16948925 1.0101284 -0.3682152
-1.7804422 -4.380464 -1.4552317 -5.8238845
