vlpi/tmp.pth (torch_old, 22160 bytes, 20 tensors)

model_state f4 [32, 45]
0	0x3be4a50b	0.0069776825
1	0xbda78960	-0.08180499
2	0xbe88192c	-0.26581705
3	0xbe38d6ff	-0.18050765
4	0x3cda28a5	0.026630709
5	0xbdcc547d	-0.09977052
6	0xbe9086a4	-0.28227723
7	0xbdd36861	-0.10322643
8	0x3f6c77a6	0.9237007
9	0xbcf3cd9e	-0.029761132
10	0xbd429dab	-0.047513645
11	0xbe51c4ac	-0.2048518
12	0x3c8de6fd	0.017322058
13	0xbf4ba54c	-0.795491
14	0xbd1ffa3d	-0.039057005
15	0xbf7d219d	-0.98879415
16	0xbf3c3454	-0.73517346
17	0x3cd43aaa	0.02590688
18	0x3da34c73	0.07973566
19	0xbf5f6b13	-0.8727276
20	0xbef7f08e	-0.48425716
21	0xbe1f0aa7	-0.15531407
22	0xbf7eaba9	-0.9948068
23	0x3c6b34e6	0.014355874
24	0x3e419eed	0.18908282
25	0xbd92da05	-0.0717049
26	0x3e960a04	0.29304516
27	0xbe9efb50	-0.3105111
28	0xbf644b8a	-0.89177763
29	0xbf3197f3	-0.6937248
30	0xbc902a66	-0.017598342
31	0xbbeb28fe	-0.0071765175
32	0x3dd4bf31	0.10388029
33	0x3dd86209	0.10565574
34	0x3ddf452f	0.109018676
35	0x3c41fd1d	0.011840132
36	0xbc144ca9	-0.00905148
37	0x3c4332a0	0.011913925
38	0x3d00d15d	0.031449664
39	0x3c969898	0.01838331
40	0x3ce7e744	0.028308518
41	0x3cfa3b4e	0.030545857
42	0x3d090e6c	0.03346102
43	0x3cf7318e	0.030174997
44	0x3d2e1333	0.04249878
45	0xbf51d516	-0.8196577
46	0xbf074d77	-0.52852577
47	0xbee6b70f	-0.45061538
48	0xbea4abaf	-0.32162234
49	0xbcecbb58	-0.028897926
50	0xbd3fcb18	-0.046824545
51	0xbec54d31	-0.38535455
52	0xbe028029	-0.12744202
53	0x3ea9d478	0.33169913
54	0xbc1e2859	-0.009653174
55	0xbdf23407	-0.1182633
56	0xbe903bff	-0.28170773
57	0xbc46e9fe	-0.012140749
58	0xbf91478e	-1.1349962
59	0xbe58169f	-0.2110238
60	0xbf83218a	-1.024461
61	0xbeccce46	-0.40001124
62	0x3d78f15e	0.06077706
63	0xbbbd29ab	-0.0057727895
64	0xbf2ff5ac	-0.6873424
65	0xbe98d8d6	-0.29852933
66	0x3c4bccc4	0.012438957
67	0xbecfe23f	-0.406023
68	0xbd38a0a5	-0.045075078
69	0xbe017212	-0.1264117
70	0xbc9239bc	-0.017849796
71	0xbec83877	-0.3910558
72	0xbe1ba90b	-0.15201204
73	0xbf1605a0	-0.58602333
74	0xbeecbc2d	-0.46237317
75	0xbdcf6cc9	-0.10128171
76	0xbd84fac0	-0.06493139
77	0x3dec2733	0.11530914
78	0x3de5194a	0.11186464
79	0x3e4a12be	0.19733712
80	0xbdc40960	-0.09572101
81	0xbe14e34c	-0.14539832
82	0xbdf12ae6	-0.1177576
83	0xbdb98759	-0.09059019
84	0xbdb4ec9e	-0.08834194
85	0xbe2537c1	-0.1613455
86	0xbd1ed00b	-0.038772624
87	0xbdb46afb	-0.088094674
88	0xbcc23775	-0.023708085
89	0xbdbbc657	-0.0916869
90	0xbeb0180a	-0.3439334
91	0xbeed6cdd	-0.4637212
92	0xbf03fffe	-0.5156249
93	0xbe940437	-0.28909466
94	0x3e696ecd	0.22796173
95	0xbdd743aa	-0.10510953
96	0xbe8d4e86	-0.2759897
97	0x3e54d3eb	0.20783965
98	0xbece5d74	-0.40305674
99	0x3ee0614d	0.43824235
100	0xbf07c38b	-0.5303275
101	0xbc2f7ad8	-0.010710441
102	0x3eeb0a7e	0.45906442
103	0x3e401020	0.18756151
104	0xbea4943e	-0.3214435
105	0xbd7c3ad9	-0.06157956
106	0xbed6d6f3	-0.41960868
107	0xbe5a074f	-0.2129185
108	0x3e6d20e7	0.23157082
109	0x3e3d6e54	0.18499118
110	0xbebf5aa1	-0.37373832
111	0xbf0148cd	-0.5050171
112	0xbe2ccd53	-0.168752
113	0xbea7a529	-0.32743195
114	0x3e5584a9	0.20851387
115	0x3de3ef51	0.1112963
116	0xbee78d7f	-0.4522514
117	0x3eefc95a	0.46833307
118	0xbf0cffcc	-0.55077815
119	0xbb84eedf	-0.004056796
120	0x3e972642	0.29521376
121	0xbed6bc74	-0.41940653
122	0xbec548d6	-0.38532132
123	0x3e571b6b	0.21006553
124	0xbdcc9ba6	-0.09990625
125	0xbe8d1888	-0.27557778
126	0x3ed0ba12	0.4076696
127	0xbed61bcb	-0.4181808
128	0x3d6d96d9	0.058005188
129	0xbe960587	-0.29301092
130	0x3e93ab92	0.28841835
131	0xbe52a9a2	-0.20572522
132	0xbe2db111	-0.16962077
133	0xbec38c1e	-0.38192838
134	0x3dda2296	0.10651128
135	0x3e9f71ce	0.31141514
136	0xbf402277	-0.7505259
137	0xbec7614b	-0.38941416
138	0xbf256798	-0.64611197
139	0x3c763ee2	0.015029641
140	0x3dcbf00e	0.09957896
141	0xbf287f03	-0.65818805
142	0xbea5fab9	-0.3241785
143	0xbe878846	-0.26471156
144	0xbd382819	-0.044960115
145	0xbdc5ab19	-0.09651775
146	0xbe52fbf2	-0.20603922
147	0xbca80d83	-0.020514255
148	0xbf737753	-0.9510395
149	0xbe2183a6	-0.15772876
150	0xbf6c5c0f	-0.9232797
151	0xbf5a770d	-0.8533791
152	0xbd0a344e	-0.033741288
153	0xbe1f2a55	-0.15543492
154	0xbf676603	-0.9039003
155	0xbf08401d	-0.5322283
156	0x3e05fe61	0.13085319
157	0xbf25020d	-0.64456254
158	0xbda26b11	-0.079305775
159	0xbd2f5ca1	-0.042812947
160	0xbd135419	-0.035968874
161	0x3f22517c	0.63405585
162	0xbe9d3ae5	-0.30708995
163	0xbf6ee829	-0.93323
164	0xbf2804b1	-0.6563216
165	0xbd96c140	-0.07361078
166	0xbd893aa5	-0.06700639
167	0x3da6e095	0.081483044
168	0x3da09b5d	0.07842133
169	0x3ced5ee4	0.028975911
170	0x3cccad95	0.024985114
171	0x3c0ce345	0.008599107
172	0x3db9825e	0.09058069
173	0x3c98d972	0.018658374
174	0xbd18685f	-0.03720891
175	0xbd7e23b7	-0.06204578
176	0xbd1127e7	-0.035438444
177	0xbd30606f	-0.043060716
178	0xb976213e	-0.00023472772
179	0xbd453caa	-0.048153557
180	0x3ed5fbc0	0.41793633
181	0x3d0813fc	0.033222184
182	0x3e1cc313	0.1530879
183	0xbe7c49e6	-0.24637565
184	0xbe8596df	-0.26091668
185	0x3cd88c60	0.026434124
186	0x3de981e7	0.1140173
187	0x3e3dfc4a	0.18553272
188	0x3e844a17	0.25837776
189	0x3eeaba79	0.45845392
190	0x3dcfb7d9	0.10142488
191	0xbe0fe25b	-0.14051192
192	0x3eea179c	0.45721138
193	0xbd69c0d1	-0.05706865
194	0xbeb7caeb	-0.35897002
195	0xbe10acf3	-0.14128475
196	0x3c1e2369	0.009651997
197	0xbe8be5da	-0.273238
198	0xbf053ce6	-0.5204605
199	0xbdfcee3c	-0.12350127
200	0xbe3c1523	-0.18367438
201	0x3ec9db8d	0.39425316
202	0xbdb15ae7	-0.08659916
203	0xbe971b1d	-0.29512873
204	0xbed0c3ba	-0.40774328
205	0xbf1b71f1	-0.60720736
206	0x3e9bbe69	0.3041871
207	0xbed58c9c	-0.4170884
208	0xbd7655e0	-0.06014049
209	0xbd5b509c	-0.053543672
210	0xbef1b4b4	-0.47208178
211	0x3ec04dc3	0.37559327
212	0xbe9f987c	-0.31171024
213	0x3e2df079	0.16986264
214	0x3f20f59f	0.6287479
215	0xbeaebd94	-0.34129012
216	0xbe729c4d	-0.23692437
217	0xbebf233a	-0.37331563
218	0x3ec803f3	0.39065513
219	0xbe749d2f	-0.23888086
220	0x3ea1fb58	0.31637073
221	0xbec96005	-0.3933107
222	0xbee23f3d	-0.44188872
223	0x3ee04758	0.4380443
224	0xbed534b5	-0.41641775
225	0x3ed6e8cc	0.41974485
226	0x3f140789	0.57824
227	0x3f0754f6	0.52864015
228	0x3f10ed6f	0.56612295
229	0xbd1151cc	-0.0354784
230	0x3df8fe8e	0.121579275
231	0x3f205068	0.6262269
232	0x3e85ad28	0.2610867
233	0x3ed3da99	0.41377714
234	0xbc8b5368	-0.017007545
235	0x3d1ff981	0.039056305
236	0x3e82e8f8	0.25568366
237	0xbe528e89	-0.20562185
238	0x3ed8840c	0.42288244
239	0x3ebc61b7	0.367933
240	0x3f918559	1.136882
241	0x3f3cc6cc	0.7374084
242	0x3d3f42ab	0.04669444
243	0x3df21a8e	0.11821471
244	0x3f51ebc0	0.8200035
245	0x3f258090	0.64649296
246	0x3ceccedc	0.028907232
247	0x3f2d6958	0.67738867
248	0x3cbfb8ec	0.023403607
249	0xbeb45c2d	-0.35226575
250	0xbe27d206	-0.16388711
251	0x3f4c81ba	0.7988545
252	0xbe7de62c	-0.24794835
253	0x3f356f5c	0.70873046
254	0x3f217b20	0.630785
255	0x3de4ed9f	0.11178135

model_state f4 [32]
0	0x3e8e2c09	0.2776797
1	0x3e8dd627	0.27702448
2	0xbe7b1873	-0.24521045
3	0xbee915fa	-0.4552458
4	0x3ea58d79	0.32334498
5	0xbf0da469	-0.55328995
6	0xbfa09ca2	-1.25478
7	0x3d0804ef	0.03320783
8	0x3e8df5b4	0.2772652
9	0x3eb79ca3	0.35861692
10	0x3e077f1c	0.13232082
11	0x3e8d55fa	0.27604657
12	0xbe23d6ef	-0.1599996
13	0xbe8254df	-0.25455377
14	0x3ea37105	0.31922165
15	0xbf0bb21b	-0.5456864
16	0x3ef6a513	0.48172817
17	0x3f7406da	0.95322955
18	0x3f94bccc	1.1620116
19	0xbecda630	-0.40165854
20	0x3e251ab6	0.1612347
21	0xbe4c337b	-0.19941513
22	0x3ebcada5	0.3685123
23	0x3f10c899	0.5655609
24	0xbe984531	-0.2974029
25	0x3e196835	0.14981158
26	0x3ebefbbd	0.37301436
27	0xbe876df9	-0.2645109
28	0x3e888eea	0.26671535
29	0x3e425d36	0.1898087
30	0xbe0634df	-0.13106106
31	0xbeaff69b	-0.34367833

model_state f4 [32]
0	0x3ffb9605	1.9655157
1	0x3f0699dc	0.5257852
2	0xbd0963bc	-0.03354238
3	0x3f4ea6da	0.80723345
4	0xbd1af598	-0.037831873
5	0x3edcca99	0.4312332
6	0xbf24ac2e	-0.64325225
7	0x3f348860	0.7052059
8	0x3f0ff4b5	0.5623277
9	0xbd87d2c3	-0.066319965
10	0x3f71165d	0.9417475
11	0x3f29e2ab	0.6636149
12	0x3e24e469	0.16102757
13	0xbee77d21	-0.45212653
14	0x3fc69b4b	1.5516142
15	0x3f2c1bd0	0.6722994
16	0x3feea152	1.8642981
17	0xbec31d57	-0.38108322
18	0x3f4d49eb	0.80190915
19	0x3f43b9b3	0.7645523
20	0x3f7012ea	0.9377886
21	0xbf00ecec	-0.50361514
22	0x3ef39b02	0.475792
23	0x3fe54d3c	1.7914195
24	0x3ef9adb8	0.4876535
25	0x3fdffbe8	1.7498751
26	0x3efff80d	0.49993935
27	0x3f05f0bc	0.52320457
28	0x3f24b996	0.6434568
29	0x3f143bd0	0.57903767
30	0x3c95a36c	0.018266402
31	0x3c7c1083	0.015384796

model_state f4 [32]
0	0x3e8fd1c9	0.2808974
1	0x3f3c365b	0.7352044
2	0xbeb0f4c9	-0.34561756
3	0x3f466665	0.7749999
4	0xbecae520	-0.39627934
5	0xbf00db44	-0.5033457
6	0x3f2085f3	0.6270439
7	0x3ebb05cb	0.36527857
8	0xbf6519ad	-0.89492303
9	0xbec7a514	-0.38993132
10	0x3ef6ecbf	0.48227498
11	0x3ebd391e	0.3695764
12	0xbef2b815	-0.47406068
13	0xbf0f0ce2	-0.5587903
14	0x3ea85e90	0.32884645
15	0x3eb93be0	0.36178493
16	0x3ea9d54d	0.33170548
17	0xbf334232	-0.7002288
18	0x3ece34c0	0.4027462
19	0x3ec0e469	0.37674263
20	0x3efc9726	0.49334067
21	0xbf1793e5	-0.59210044
22	0xbf20eae1	-0.62858397
23	0x3ebe2a58	0.3714168
24	0x3f263b49	0.6493421
25	0xbf984ae6	-1.1897857
26	0xbf1c05fb	-0.60946625
27	0xbf463826	-0.77429426
28	0x3eb7c81c	0.3589486
29	0x3f38902f	0.72095007
30	0xbee91bfd	-0.45529166
31	0xbecd0f57	-0.40050766

model_state f4 [32]
0	0xbeeaaaf4	-0.45833552
1	0xbf21ae0a	-0.6315619
2	0xbf11876d	-0.5684727
3	0xbfb1db64	-1.3895078
4	0x3dea263d	0.114330746
5	0x3f110503	0.5664827
6	0xbc8fe49a	-0.01756506
7	0x3f8e1ae9	1.1101962
8	0x3f77b275	0.9675668
9	0x3dab54ce	0.083657846
10	0x3f80e375	1.0069414
11	0x3fba5a36	1.455878
12	0xbd02df66	-0.03195133
13	0xbf78f775	-0.9725259
14	0xbf132bc9	-0.57488686
15	0x3ecddbe9	0.4020684
16	0xbe96a554	-0.2942301
17	0xbdb22266	-0.08697967
18	0x3ffb057d	1.961105
19	0x3eed9a0e	0.46406597
20	0x3f612fda	0.8796364
21	0xbf6acce4	-0.9171889
22	0x3f8b9bdf	1.0906943
23	0xbf027953	-0.50966376
24	0xbf72ad29	-0.9479547
25	0x3f3d8756	0.7403463
26	0x3fa038a9	1.2517291
27	0x3f1e6ad3	0.6188175
28	0x3fafa3d7	1.3721875
29	0xbf16f9e7	-0.5897507
30	0x3d620e6e	0.055189542
31	0xbe89b009	-0.26892117

model_state f4 [32]
0	0x4018ca7a	2.3873582
1	0x4007c0ec	2.12115
2	0x3eafec29	0.34359863
3	0x40253a12	2.5816693
4	0x3f00375b	0.50084466
5	0x40023d9d	2.0350106
6	0x4088f187	4.2794833
7	0x400e6b37	2.2252939
8	0x3fd4f8dd	1.6638447
9	0x3eec9801	0.4620972
10	0x400d6352	2.209187
11	0x401eb8f0	2.4800377
12	0x3eea323e	0.45741457
13	0x3fe6bfd2	1.8027289
14	0x4043aa14	3.0572557
15	0x401c5e40	2.4432526
16	0x400a564f	2.1615179
17	0x405d180c	3.4545927
18	0x3fc31775	1.5241534
19	0x3ffb2d80	1.962326
20	0x40026479	2.0373824
21	0x3fc0b2f0	1.5054607
22	0x3fa961a6	1.3232925
23	0x402682d0	2.6017342
24	0x3fd17faa	1.6367085
25	0x3f95da55	1.1707255
26	0x3fae90a3	1.363789
27	0x4016190d	2.345279
28	0x4036fd27	2.8592012
29	0x3fe8e067	1.8193482
30	0x3f11e19b	0.5698487
31	0x3ec6a14d	0.38794938

model_state f4 [32, 47]
0	0x3e7d4a1b	0.247353
1	0x3eafa9a6	0.3430912
2	0xbe3109c4	-0.17288882
3	0x3ee84e1e	0.453721
4	0xbe87f1a7	-0.26551554
5	0xbec64df2	-0.38731343
6	0x3e42e521	0.19032718
7	0xbf053879	-0.52039295
8	0xbe5e95fb	-0.217369
9	0xbe9e1b7b	-0.3088034
10	0xbea776ed	-0.3270792
11	0xbda5e85c	-0.0810096
12	0xbdef2c2b	-0.11678346
13	0x3d56af33	0.052413177
14	0x3e5a6c24	0.21330315
15	0xbed03b9a	-0.40670472
16	0x3eca31f7	0.39491245
17	0xbeaa6803	-0.3328248
18	0xbec4f5c2	-0.38468748
19	0xbedf6296	-0.43629903
20	0xbec07e22	-0.37596232
21	0xbec51f2e	-0.3850035
22	0xbebf493a	-0.37360555
23	0x3ef3d000	0.4761963
24	0xbf086675	-0.5328134
25	0x3d8b788e	0.06810103
26	0x3de6d3f4	0.112708956
27	0xbe3daa5a	-0.18522015
28	0xbeaac988	-0.3335688
29	0xbe6fc542	-0.23415092
30	0xbeb8d394	-0.3609892
31	0x3e91552b	0.2838529
32	0x3ed78308	0.42092156
33	0xbebeb4cc	-0.37247312
34	0x3eaa930c	0.33315313
35	0x3ef81523	0.48453626
36	0xbeef7177	-0.46766254
37	0xbec5bc73	-0.38620338
38	0xbf1cf290	-0.6130762
39	0xbdd5c725	-0.104383744
40	0xbe834dab	-0.25645193
41	0x3e923f62	0.28563982
42	0xbf31bc8d	-0.6942833
43	0xbebfb411	-0.37442067
44	0x3eda8c0d	0.42684975
45	0x3eb903d8	0.36135745
46	0xbec94bf2	-0.39315754
47	0xbd139445	-0.036030073
48	0xbc08e579	-0.008355492
49	0x3d9a7139	0.07541127
50	0x3a7e1f30	0.00096939784
51	0xbe851504	-0.25992596
52	0xbca7a54a	-0.020464558
53	0xbc0244b7	-0.007950953
54	0xbfd2507a	-1.643081
55	0x3eb6eb50	0.35726404
56	0xbec23bf2	-0.3793636
57	0xbf8d52a6	-1.1040847
58	0xbfccc7b9	-1.599845
59	0xbe0f471b	-0.13991968
60	0x3f03fa66	0.5155395
61	0xbc98e769	-0.018665032
62	0xbfd2c5d4	-1.6466622
63	0xbd6fb202	-0.05851937
64	0x3ebd840b	0.37014803
65	0xbfca3f19	-1.5800506
66	0xbfba3724	-1.4548078
67	0xbf942684	-1.1574254
68	0x3efc34f8	0.49259162
69	0x3e9d7fa3	0.30761442
70	0xbd450c2a	-0.048107304
71	0xbd066d8f	-0.032819327
72	0x3ec733b6	0.3890664
73	0x3e091002	0.13385013
74	0x3efcc4e9	0.4936898
75	0xbfe0c317	-1.7559537
76	0x3d100dff	0.035169598
77	0xbe7843ad	-0.24244566
78	0x3dc1837b	0.09448906
79	0x3dd4784a	0.10374506
80	0x3db49670	0.08817756
81	0x3d5a3ca6	0.053280495
82	0x3cf9624f	0.030442385
83	0x3d08cc19	0.033397768
84	0x3c9241fd	0.017853731
85	0x3c496d92	0.01229419
86	0x3c8b45ef	0.01700112
87	0xbd460b1f	-0.04835045
88	0xbd0d66de	-0.03452193
89	0xbd3ce61f	-0.046117898
90	0xbc14994c	-0.009069752
91	0xbcc5aac0	-0.024129272
92	0xbab754fb	-0.0013987118
93	0xbcf75456	-0.030191582
94	0xbf16827f	-0.5879287
95	0xbe2bdc3d	-0.16783233
96	0xbe9763b3	-0.29568252
97	0xbe17a890	-0.14810395
98	0x3eb27f45	0.34862724
99	0x3edf438a	0.43606216
100	0xbe219ea2	-0.1578317
101	0x3e46bc40	0.19407749
102	0x3efb61c1	0.49098018
103	0xbe2eba52	-0.17063263
104	0x3ec43702	0.38323218
105	0x3e901997	0.28144524
106	0xbc8f0801	-0.017459871
107	0x3f294cc3	0.66132754
108	0xbf2acba2	-0.6671697
109	0x3e5ad942	0.2137194
110	0xbf0b06c6	-0.5430721
111	0x3f93fac8	1.1560907
112	0x3e75b1fb	0.23993675
113	0x3e8395f5	0.25700346
114	0x3e3d0704	0.18459707
115	0x3e9c9d85	0.30588928
116	0x3eed0d90	0.4629941
117	0xbf015868	-0.5052552
118	0xbe4665b7	-0.19374739
119	0x3f664780	0.8995285
120	0x3e9304eb	0.2871469
121	0x3f13d643	0.5774881
122	0x3e3a856b	0.18214957
123	0xbe60b9f3	-0.21945934
124	0x3e61c119	0.22046317
125	0x3e1866ef	0.14883016
126	0xbdad0bcd	-0.084495164
127	0xbd66a4d1	-0.056309525
128	0x3d6264a6	0.055271767
129	0xbcc5c118	-0.024139926
130	0xbd3d1f6d	-0.046172548
131	0x3ae5d45c	0.0017534602
132	0xbe7fa7ff	-0.24966429
133	0x3e8e8e28	0.27842832
134	0x3de1bf7c	0.11022851
135	0x3d126082	0.03573657
136	0xbc92a0b2	-0.017898891
137	0x3c962c6c	0.018331729
138	0x3e142193	0.14465933
139	0x3c15a477	0.00913345
140	0x3dc422f5	0.0957698
141	0x3d390942	0.045174845
142	0xbf663e01	-0.8993836
143	0x3e80d69f	0.25163743
144	0xbf400cd5	-0.7501958
145	0x3e59d5e3	0.21272998
146	0x3f1b7f46	0.6074108
147	0xbf707484	-0.9392779
148	0x3da689e7	0.081317715
149	0x3ef3010d	0.4746174
150	0x3e978dcd	0.29600373
151	0xbf1f32ee	-0.6218709
152	0x3d62c01c	0.05535899
153	0x3e85d608	0.26139855
154	0x3f0dda92	0.55411637
155	0xbcaca38f	-0.021074085
156	0x3d8cdc8e	0.06878005
157	0x3c6ed02d	0.014576
158	0x3f128bb7	0.5724444
159	0x3d1b7445	0.03795268
160	0x3d8dde57	0.069271736
161	0x3d8856f0	0.06657207
162	0x3f01dbaf	0.50725836
163	0x3f09e645	0.5386699
164	0x3bd5f34d	0.006529248
165	0xbf774c42	-0.96600735
166	0xbf26fbf1	-0.6522818
167	0x3eeb51b2	0.45960766
168	0x3f140511	0.5782023
169	0x3dcc2c98	0.09969443
170	0xbf618157	-0.8808798
171	0x3e70d1d7	0.23517548
172	0xbebd26e7	-0.36943743
173	0x3cc74426	0.024324488
174	0xba78e3f2	-0.0009494416
175	0x3d8da41c	0.06916067
176	0xbc00e0ca	-0.007866094
177	0x3d1c7819	0.03820047
178	0x3da08b57	0.07839077
179	0x3b6a003e	0.003570571
180	0x3d333142	0.043748148
181	0x3cde1f35	0.02711449
182	0x3c2ff0fa	0.010738606
183	0xbcc62629	-0.024188118
184	0x3d5292bb	0.051409464
185	0x3d0bc227	0.034120705
186	0x3d7b39b1	0.061334316
187	0x3d0f6b5e	0.035014503
188	0xbf14b313	-0.58085746
189	0xbf49d3a1	-0.78838545
190	0xbe1a928a	-0.15094963
191	0xbf664c8b	-0.89960545
192	0x3e837bf9	0.2568052
193	0x3ed7123c	0.420061
194	0xbf8f65eb	-1.1202978
195	0xbdc377ec	-0.09544358
196	0x3f1354a4	0.57551026
197	0xba0f608e	-0.0005469405
198	0x3dbd1b64	0.0923374
199	0xbd83265b	-0.064038
200	0x3e153f52	0.14574936
201	0x3edaabec	0.4270929
202	0xbf5945fa	-0.848724
203	0xbd5380dd	-0.051636565
204	0xbf2f81e7	-0.6855759
205	0x3fa6a849	1.3020107
206	0xbddc7520	-0.10764527
207	0xbd403471	-0.046925012
208	0xbd8076c7	-0.06272655
209	0x3ea46b17	0.32112953
210	0x3ed92350	0.42409754
211	0xbf732e3e	-0.94992435
212	0xbf5660f4	-0.8374169
213	0x3ed88e1c	0.4229592
214	0x3ec541cd	0.38526765
215	0x3f082879	0.53186756
216	0xbdb581ec	-0.08862671
217	0xbf49baf4	-0.7880089
218	0x3e32e703	0.17470936
219	0xbb286e55	-0.0025700529
220	0xbd9baacc	-0.07600936
221	0xbc7446c7	-0.014909453
222	0xbda2f65d	-0.07957146
223	0x3c2e4450	0.010636404
224	0x3d18fb81	0.037349228
225	0xbe02670f	-0.12734626
226	0xbe25e367	-0.16200028
227	0x3dd0a62b	0.10187944
228	0xbd52e1b1	-0.051484767
229	0xbcb9603a	-0.022628892
230	0xbbb72d69	-0.00559013
231	0x3dca134d	0.098669626
232	0xbd6945ee	-0.056951456
233	0x3c169f78	0.009193294
234	0x3cddd186	0.027077448
235	0x3e92a2fb	0.2863997
236	0x3e649389	0.22321905
237	0xbe2a96ad	-0.16659041
238	0x3e206521	0.15663578
239	0xbe977174	-0.29578745
240	0xbedcbbee	-0.4311213
241	0x3eda3d01	0.42624667
242	0xbeeb6336	-0.4597413
243	0xbecff745	-0.4061834
244	0xbe319b89	-0.17344488
245	0xbe9718d0	-0.29511118
246	0xbe36c7e5	-0.17849691
247	0xbe1cf37f	-0.15327261
248	0x3eb4ab58	0.35286975
249	0x3ecfacbe	0.4056148
250	0xbe7a80d7	-0.24463211
251	0x3e3d3c73	0.18480091
252	0xbeb98542	-0.3623448
253	0xbeb1ac9c	-0.34702003
254	0xbed815e8	-0.42204213
255	0xbe461474	-0.1934374

model_state f4 [32]
0	0x3e4a72e3	0.19770388
1	0xbef926fe	-0.4866256
2	0xbdc21e6c	-0.09478459
3	0xbedc7107	-0.43054983
4	0xbf03606f	-0.5131902
5	0xbe20fe82	-0.15722087
6	0x3d884629	0.06654007
7	0xbccd0b46	-0.02502979
8	0xbe82065a	-0.2539547
9	0xbf30e7aa	-0.6910349
10	0x3c8165a5	0.015795538
11	0x3f2e6f4e	0.6813859
12	0x3e8f4602	0.279831
13	0xbe9177ff	-0.28411862
14	0xbf1e2163	-0.61769694
15	0x3eb0b062	0.3450957
16	0xbe2c4caf	-0.16826127
17	0x3e54f391	0.20796038
18	0x3e665999	0.22495116
19	0x3e815fb3	0.25268325
20	0x3ec605fc	0.3867644
21	0xbf1b3838	-0.6063266
22	0xbe157591	-0.1459563
23	0xbef5817b	-0.47950348
24	0x3ea4baad	0.32173672
25	0xbe6a07a2	-0.22854474
26	0xbd9a1aad	-0.07524619
27	0xbed4a52f	-0.41532275
28	0x3eee86e2	0.46587282
29	0xbf124261	-0.57132536
30	0xbe778763	-0.2417274
31	0x3ed4504a	0.41467506

model_state f4 [32]
0	0x3e0afdef	0.1357343
1	0x3f624278	0.88382673
2	0x3e69e931	0.22842862
3	0x3eb0c566	0.34525603
4	0x3ee572b3	0.4481407
5	0x3e9749a5	0.29548374
6	0x3ed27f6f	0.4111285
7	0x3e48627c	0.19568819
8	0xbd59d2e1	-0.053179625
9	0xbeaa07a6	-0.3320896
10	0xbd680688	-0.056646854
11	0x3eacc605	0.33744827
12	0x3dc2e7e5	0.095168866
13	0x3f7dfe57	0.99216217
14	0x3e4c6920	0.19961977
15	0x3e7815ce	0.24227068
16	0xbf2bbcf6	-0.67085207
17	0x3f706ae0	0.9391308
18	0x3e9523ed	0.29128972
19	0x3e948bea	0.29012996
20	0xbe50ec28	-0.20402586
21	0x3f757362	0.95879185
22	0x3ed0c7f3	0.4077755
23	0x3f27a8b8	0.6549182
24	0x3ecde7c0	0.40215874
25	0x3e91c3d1	0.2846971
26	0x3e6a42c7	0.22877036
27	0x3f64f110	0.8943033
28	0x3ebb1c05	0.36544815
29	0x3f03f9b8	0.51552916
30	0x3e55c8ef	0.20877431
31	0xbe117431	-0.1420448

model_state f4 [32]
0	0xbea5bdfd	-0.32371512
1	0xbe830ad6	-0.25594205
2	0x3c70365b	0.014661397
3	0xbef019bb	-0.4689463
4	0xbeb94973	-0.3618885
5	0xbf0f4399	-0.5596252
6	0xbe8a12c5	-0.26967445
7	0xbb850704	-0.004059674
8	0xbf01ce35	-0.5070527
9	0xbf158d91	-0.5841914
10	0xbe9c1557	-0.3048503
11	0xbda5776c	-0.080794185
12	0xbf14879a	-0.5801941
13	0xbe9d26a2	-0.30693537
14	0x3b95b6fe	0.0045689335
15	0x3c9fd3a0	0.01951009
16	0xbe090628	-0.13381255
17	0xbe81a729	-0.25322846
18	0xbc854f01	-0.016273024
19	0xbdd229cc	-0.10261878
20	0xbec716de	-0.38884634
21	0xbe4d38a2	-0.20041135
22	0xbea270d1	-0.31726697
23	0xbdba3ed3	-0.09094014
24	0xbe999b8e	-0.3000149
25	0xbe6d8281	-0.23194315
26	0x3c1cbe13	0.009566802
27	0xbe480f8d	-0.19537182
28	0xbe07e044	-0.13269144
29	0xbe619cd0	-0.22032475
30	0xbce7b7cc	-0.028285883
31	0xbec806db	-0.3906773

model_state f4 [32]
0	0x3f1ec2b0	0.6201582
1	0xc0a4920a	-5.142827
2	0xbfc18968	-1.5120058
3	0xc07ab3b4	-3.9172182
4	0xc0d74b38	-6.727932
5	0x3e0c4ac0	0.1370039
6	0xc0a6b400	-5.2094727
7	0xc045a9f1	-3.0884974
8	0x3f1ffe60	0.6249752
9	0x401ed784	2.481904
10	0x3f934ce1	1.1507837
11	0xc04dfd40	-3.2185822
12	0x3f7bf534	0.98421025
13	0xc09374b2	-4.607995
14	0xc052bd17	-3.2927911
15	0xbf966c6a	-1.1751835
16	0x40742633	3.8148315
17	0xc08dd5a3	-4.4323287
18	0xc035ba63	-2.8395011
19	0xc0ff42e4	-7.9769154
20	0x3f899e57	1.0751446
21	0xc0b1719a	-5.5451174
22	0xc0db7bec	-6.858877
23	0xc095bdbd	-4.6794114
24	0xc0bead69	-5.958668
25	0xc0e06e38	-7.0134544
26	0xbfeae1a4	-1.835011
27	0xc08f0dd4	-4.470438
28	0xc0b5ecda	-5.6851625
29	0xc105d33c	-8.364071
30	0xc02fa767	-2.7445924
31	0x3ff099ac	1.8796897

model_state f4 [32]
0	0x4131a56b	11.102885
1	0x42869d42	67.307144
2	0x41a43122	20.52399
3	0x406d0abc	3.7037802
4	0x41945677	18.54222
5	0x41435cf6	12.210196
6	0x41716052	15.086016
7	0x41f55bd8	30.669846
8	0x41df1f07	27.89015
9	0x40474f9c	3.114234
10	0x3fd228c4	1.6418691
11	0x41c46aa2	24.552067
12	0x40c93344	6.287508
13	0x42471707	49.772488
14	0x41e4f65a	28.620289
15	0x41c39920	24.449768
16	0x426cb1e6	59.17373
17	0x42843ad0	66.11487
18	0x41c00975	24.004618
19	0x41bd56c4	23.667366
20	0x41296852	10.587969
21	0x42b8e1ce	92.441025
22	0x41b3491a	22.410694
23	0x428cb0ba	70.34517
24	0x419fea25	19.989328
25	0x41b5bea9	22.718096
26	0x41b189cc	22.192284
27	0x4271f029	60.48453
28	0x41b97d0e	23.186062
29	0x41b05d38	22.045517
30	0x41e79d13	28.951696
31	0x412bf798	10.747948

encoder.mean_encoder.weight f4 [1, 32]
0	0xbcbc7ad1	-0.023007782
1	0xbf125d66	-0.57173765
2	0x3e37e332	0.17957762
3	0x3eb34e35	0.35020605
4	0x3e4743c7	0.19459449
5	0x3d21d5a4	0.039510384
6	0x3e303af8	0.17209995
7	0x3e5ae8cc	0.21377867
8	0x3ddef91d	0.10887358
9	0x3ed68842	0.4190083
10	0xbe8c1f63	-0.27367696
11	0x3e197b6d	0.1498849
12	0x3cc68c08	0.024236694
13	0xbf0e5669	-0.556006
14	0x3e579108	0.21051419
15	0x3e2e967d	0.17049594
16	0xbf05ef30	-0.52318096
17	0xbf004cf0	-0.501174
18	0x3e1f0fea	0.15533414
19	0x3e1b858b	0.15187661
20	0xbe286e2c	-0.16448277
21	0xbec66f55	-0.38756815
22	0x3e4cfdcd	0.20018692
23	0xbeeb88a3	-0.46002683
24	0x3e47bec1	0.1950636
25	0x3e97e083	0.29663476
26	0x3e376394	0.1790908
27	0xbed50c67	-0.41611025
28	0x3e0df6f1	0.13863732
29	0x3dd0667d	0.10175798
30	0x3e55c184	0.20874602
31	0xbe627e9d	-0.22118612

encoder.var_encoder.weight f4 [1, 32]
0	0x3c94f6fa	0.018184174
1	0x3ec5e8b5	0.38654104
2	0x3c9bf2d2	0.019036684
3	0x3d2d5d68	0.042325407
4	0x3d436a89	0.04770902
5	0x3d1f6246	0.03891208
6	0x3d392210	0.0451985
7	0xbce2717e	-0.027642008
8	0x3f085621	0.5325642
9	0x3da0873a	0.078382924
10	0xbd93d7e8	-0.07218915
11	0xbcc4430b	-0.02395775
12	0xbe1eac09	-0.15495314
13	0x3eb8dd90	0.3610654
14	0x3c3f4f48	0.011676617
15	0x3c515ab6	0.012777975
16	0x3eb8943e	0.360506
17	0x3eab6f57	0.33483383
18	0xbc08ce28	-0.008349933
19	0xbe63dc1e	-0.22251937
20	0x3cb94e58	0.022620365
21	0x3e891bda	0.26779062
22	0x3b98f457	0.0046677995
23	0x3ea1a05a	0.3156765
24	0x3d158054	0.036499336
25	0x3ddebcb5	0.10875837
26	0x3c7c92f7	0.0154158985
27	0x3e89fa8b	0.26948962
28	0xbd8830f6	-0.066499636
29	0xbe0ad289	-0.13556875
30	0x3d60b870	0.054863393
31	0xbeb658ff	-0.35614774

mean f4 [30]
0	0xc07437f2	-3.8159146
1	0xc065c1df	-3.589958
2	0xc0321e62	-2.7831044
3	0xc03d2c9d	-2.955848
4	0xbfd2531b	-1.6431612
5	0xc09839c9	-4.757054
6	0xc067160c	-3.6107206
7	0xc0704d8b	-3.7547328
8	0xc0857ea0	-4.171707
9	0xc026f293	-2.6085556
10	0xbf8bfbfa	-1.0936272
11	0xbfdddda9	-1.733327
12	0xc0336ced	-2.8035233
13	0xbfb26173	-1.3935989
14	0xc06d5647	-3.708391
15	0xc0004669	-2.0042975
16	0xc037d91e	-2.8726268
17	0xc00584b8	-2.0862255
18	0xc05e190f	-3.4702795
19	0xc00f5bf5	-2.2399876
20	0xc04f58ad	-3.2397873
21	0xc069d5b5	-3.6536686
22	0xc059a48c	-3.4006681
23	0xc02a844b	-2.6643245
24	0xc070a469	-3.7600348
25	0xc011fd94	-2.2811022
26	0xc08d4082	-4.4141245
27	0xc06cad3e	-3.6980739
28	0xc04db39a	-3.214087
29	0xc00787fe	-2.1176753

scale f4 [30]
0	0x3deb9a8a	0.11504085
1	0x3dc1eb3a	0.09468694
2	0x3d1acd52	0.037793465
3	0x3d7f2b88	0.062297374
4	0x3cf4a4b2	0.02986369
5	0x3ead702b	0.3387464
6	0x3d6d7fde	0.05798327
7	0x3de5b17c	0.11215493
8	0x3e4c6437	0.19960104
9	0x3d2e0eaa	0.042494453
10	0x3cd6c62d	0.026217544
11	0x3d1c21d5	0.038118202
12	0x3d4f6fae	0.050643615
13	0x3d24f1b2	0.04026956
14	0x3dd7a98f	0.105303876
15	0x3d3c9066	0.046036147
16	0x3cfe1227	0.031014515
17	0x3d37ccd4	0.044873074
18	0x3d8d5743	0.069014095
19	0x3d6ee2bb	0.058321696
20	0x3d9515a4	0.07279518
21	0x3ded7ccc	0.11596069
22	0x3d212ade	0.039347522
23	0x3d824d9c	0.06362459
24	0x3e043e5b	0.12914412
25	0x3d57083c	0.052498087
26	0x3deef51a	0.11667843
27	0x3e03af44	0.12859827
28	0x3d855f78	0.0651235
29	0x3d21b4dd	0.039479125

mean f4 [12, 30]
0	0x3af85f62	0.0018949325
1	0xbb115c3b	-0.0022180218
2	0xbcc70e53	-0.024298823
3	0x3bccaf83	0.0062465086
4	0x3beef20f	0.007292039
5	0xbc1a48e3	-0.009416792
6	0x3bd82d42	0.006597192
7	0xbba68851	-0.005082168
8	0x37d75480	2.5669346e-05
9	0x3b1affe2	0.0023651053
10	0x3d092632	0.03348369
11	0x3c578b8a	0.013155827
12	0xbc81df2a	-0.015853483
13	0xbb27abf3	-0.0025584667
14	0x3c2a5102	0.01039529
15	0xbc30fbc6	-0.010802215
16	0xbc9dc530	-0.019259065
17	0xbaa988b8	-0.0012934422
18	0xbbce4244	-0.0062945206
19	0x3b9cf1be	0.00478956
20	0x3b45f70e	0.003020707
21	0x3b0b7a6c	0.0021282686
22	0xbcb8d842	-0.022564057
23	0xbb606738	-0.003424121
24	0xbb917bb7	-0.004439797
25	0xbc7cc273	-0.01542722
26	0xbc5d3c1d	-0.013503102
27	0xbc25d6be	-0.010121999
28	0x3ca056bf	0.019572614
29	0x3d18e3fd	0.0373268
30	0x3be217aa	0.0068997936
31	0x3882a28a	6.229158e-05
32	0x3c168337	0.0091865575
33	0x3c00a797	0.0078524565
34	0xbb09bfef	-0.0021018942
35	0xbc28e31f	-0.010308056
36	0x3bfcf732	0.0077198977
37	0xbb7e64ed	-0.003881748
38	0x3bd77af1	0.006575935
39	0x3c63d5e3	0.013905975
40	0x3c3b043e	0.011414586
41	0x3c33978a	0.010961423
42	0xbc62e681	-0.013848902
43	0xbba2aefd	-0.004964708
44	0xbbf1ba51	-0.007376947
45	0xbc045be0	-0.008078545
46	0xbd0e0b97	-0.03467902
47	0xbb25a0fe	-0.002527296
48	0xbb514b5a	-0.0031935782
49	0x3cf3942f	0.029733745
50	0xbb45f226	-0.0030204146
51	0x3c524b3b	0.012835319
52	0xbccb8547	-0.024843825
53	0xbba0a628	-0.00490262
54	0xbb6960f6	-0.0035610772
55	0x3c2852f0	0.01027368
56	0xbbc7ee7a	-0.0061014267
57	0x3c722873	0.014780152
58	0xbd1e7aaf	-0.03869122
59	0xbbc4d3f6	-0.006006713
60	0xbc7553a3	-0.014973554
61	0xbb805fff	-0.0039176936
62	0xbc35c7b9	-0.011094981
63	0xbabde411	-0.0014487525
64	0xbbdbfd22	-0.0067135254
65	0xbb94d628	-0.004542131
66	0xbba3d75a	-0.005000037
67	0x3bf89e43	0.0075872256
68	0xbb73c21b	-0.0037194553
69	0xbcae5d29	-0.021284657
70	0xbd5cf0f1	-0.053940717
71	0x3ce0139e	0.027353104
72	0x3c75c761	0.015001149
73	0x3ca73c10	0.020414382
74	0x3bcc2312	0.0062297666
75	0x3b1b6570	0.0023711585
76	0xbcba2742	-0.022723798
77	0x3ca2ae2c	0.019858442
78	0x3c55be55	0.013045867
79	0xbc2cca6a	-0.010546306
80	0x3c288cc8	0.010287471
81	0x3b3189ef	0.0027090271
82	0xbc925ff7	-0.017868025
83	0xbc0e6131	-0.008690164
84	0x3c4f6738	0.012658887
85	0x3b8ee143	0.0043603494
86	0xbb859081	-0.004076064
87	0xbcc8c88d	-0.024509693
88	0x3b952846	0.00455192
89	0x3cb4e47f	0.022081612
90	0x3b8448d1	0.0040370007
91	0x3bb00aad	0.0053723664
92	0x3bdded3e	0.0067726662
93	0x39e066f8	0.00042801327
94	0x3b61ac72	0.003443506
95	0xbc442bcb	-0.011973332
96	0xbb7f6432	-0.0038969633
97	0x3bdc0739	0.006714728
98	0x3b73a232	0.0037175533
99	0x3a83afeb	0.0010046934
100	0xbb8cf8f3	-0.004302138
101	0x3c0607ec	0.0081806
102	0xbb77ce9d	-0.003781236
103	0x3cab8081	0.020935299
104	0x3a676f63	0.00088285486
105	0xbc4222de	-0.011849133
106	0xbc2fdc26	-0.01073364
107	0x3ba6152b	0.0050684414
108	0x3c2ce633	0.010552931
109	0x3c407348	0.011746235
110	0x3b67c3d1	0.0035364518
111	0x3bdc41ce	0.0067217117
112	0xba644496	-0.000870773
113	0x3b9fb84f	0.004874266
114	0xbb0f8de1	-0.0021904635
115	0x3c3fa8e9	0.011697986
116	0x3bb3bbb1	0.005485021
117	0xba8f7068	-0.0010943534
118	0xbc685778	-0.01418101
119	0xbbaf05f4	-0.005341286
120	0xba4eb0e7	-0.0007884637
121	0x3be02fc1	0.00684163
122	0xbbe63ce0	-0.0070263
123	0xbb35513f	-0.0027666835
124	0xbb92cfee	-0.0044803536
125	0x3b947854	0.004530946
126	0xb90236f8	-0.00012418244
127	0xbc89cef9	-0.016822325
128	0x3c3b6696	0.011438033
129	0x3bafb784	0.005362453
130	0x3be77519	0.0070635197
131	0xbc5cce82	-0.01347697
132	0x3bec2c33	0.0072074174
133	0x3b71ed7e	0.0036915238
134	0xbb565444	-0.0032704035
135	0xbb584fea	-0.0033006617
136	0xbc56ee4d	-0.013118339
137	0xbc11a667	-0.008889771
138	0x3a74f6f8	0.00093446625
139	0x3c03ca9b	0.00804391
140	0xbc14b8f3	-0.009077298
141	0xbc6dfa06	-0.014524942
142	0xbc50dc91	-0.0127479
143	0xbc3c53f2	-0.0114946235
144	0xbb626cc9	-0.0034549704
145	0x3c7f4d78	0.015582435
146	0xbc0af418	-0.008481048
147	0x3bdc25ce	0.006718374
148	0xbb05fd41	-0.002044514
149	0xba33fc04	-0.00068658614
150	0xbaa4d74e	-0.0012576373
151	0xbc64d27f	-0.013966202
152	0x3cd0c543	0.025484687
153	0x3c269a78	0.010168664
154	0x3b9d660f	0.004803426
155	0xb9cbd31f	-0.00038876475
156	0xbac741d1	-0.001520211
157	0x3a91ac90	0.001111405
158	0x3b245b54	0.002507885
159	0x3bc2bebc	0.0059431475
160	0xbbeeca0c	-0.0072872695
161	0xbbe9ca62	-0.0071347216
162	0x3a300b8b	0.0006715587
163	0xbc2f8f55	-0.010715325
164	0x3c035cde	0.008017747
165	0xbb93ae64	-0.004506873
166	0xbcb48965	-0.022038171
167	0x3c833807	0.016017927
168	0x3ab38e86	0.0013699092
169	0xbd1d94f6	-0.03847214
170	0xbc818446	-0.015810143
171	0x39b304d2	0.00034145132
172	0x3c1cd354	0.009571869
173	0x3bb328c4	0.005467506
174	0xbc740e87	-0.014896042
175	0x3c47396f	0.012159689
176	0xbbc4d72d	-0.0060070963
177	0xbb8f279d	-0.004368736
178	0x3c210b0e	0.009829296
179	0x3c11d460	0.008900732
180	0xbb63fe08	-0.0034788866
181	0xbb0d2696	-0.0021537892
182	0xbc818733	-0.015811538
183	0xbccd621a	-0.025071193
184	0x3b0c02fa	0.002136408
185	0xbb86be52	-0.0041120434
186	0xb9974dc8	-0.00028858916
187	0x3ca1cd1c	0.019751124
188	0x3b1c30d8	0.0023832824
189	0xba44574d	-0.00074898155
190	0xbc2167c6	-0.009851402
191	0xbb237d31	-0.0024946446
192	0xbb4a7754	-0.003089388
193	0xbc29ab71	-0.010355816
194	0x3bef846d	0.0073094876
195	0x3b8387ab	0.0040139756
196	0x3c9ee345	0.01939548
197	0xbc295b34	-0.010336686
198	0x3bf6b2b6	0.007528628
199	0xbc42bf66	-0.011886453
200	0x3c1957e4	0.009359334
201	0xbc893cd6	-0.016752642
202	0xbafb20f0	-0.0019159596
203	0x3bb2bfdb	0.005455
204	0x3be09ba6	0.0068544922
205	0xbc00afff	-0.007854461
206	0xbb773d6a	-0.0037725815
207	0xbce30be6	-0.027715635
208	0xbbdd3710	-0.0067509487
209	0xbcd8fc94	-0.026487626
210	0xbbd3ce7f	-0.0064638252
211	0xbb2da61d	-0.0026496716
212	0xba926fef	-0.0011172275
213	0x3c016d19	0.007899546
214	0x3bbb2f34	0.005712414
215	0x3c19c4d6	0.009385308
216	0x3b38b5c2	0.0028184508
217	0x3c5e92b7	0.013584784
218	0x3c179fbe	0.009254394
219	0xbc84aeab	-0.01619657
220	0xbd069856	-0.032860123
221	0x3c6581a4	0.0140079595
222	0xba72d774	-0.00092636724
223	0xbb8471f1	-0.004041903
224	0xbb6df270	-0.0036307834
225	0xba82ca82	-0.0009978565
226	0xbbd57f82	-0.0065154443
227	0x3a5de6db	0.0008464881
228	0x3cc526d0	0.024066359
229	0xbb6a9331	-0.00357933
230	0x3cad65ca	0.0211667
231	0x3ae2886a	0.0017283086
232	0x3b81134e	0.003939069
233	0xbb2abb70	-0.0026051663
234	0xbb1e9c6d	-0.0024202124
235	0x3a6c68e6	0.00090183166
236	0x3aced299	0.0015779316
237	0x3b364a56	0.0027815304
238	0x3c382b12	0.0112407375
239	0x3c5a030d	0.013306391
240	0x3c3ec6d1	0.011644081
241	0xbb8a0788	-0.0042123236
242	0xbcfbc34f	-0.030732779
243	0x3b4db694	0.0031389343
244	0xbc928542	-0.017885808
245	0x3a407f77	0.00073432125
246	0x39958a04	0.00028522324
247	0xbc5e3212	-0.013561742
248	0x3a5cb216	0.0008418871
249	0x39f337ca	0.00046390138
250	0x3c5f596c	0.01363216
251	0xbc5a0582	-0.013306977
252	0xbbfa85a6	-0.0076453267
253	0x3c73d3a3	0.014882001
254	0x39941be8	0.00028249552
255	0xbb960292	-0.004577943

scale f4 [12, 30]
0	0x3cc74164	0.024323173
1	0x3cbe1e2c	0.023207746
2	0x3c6a32a6	0.014294302
3	0x3c890ae8	0.016728833
4	0x3c283d66	0.010268545
5	0x3cd08e56	0.025458496
6	0x3ca11d7c	0.01966738
7	0x3ccbc20a	0.024872798
8	0x3cbf955f	0.023386655
9	0x3c87557d	0.016520256
10	0x3c0c06e6	0.008546567
11	0x3c25c208	0.010117061
12	0x3cb2169e	0.0217393
13	0x3c2da544	0.010598484
14	0x3ccdf43d	0.025140876
15	0x3c4bef12	0.0124471355
16	0x3c692139	0.014229112
17	0x3c799d05	0.01523519
18	0x3ccdc810	0.025119811
19	0x3c3fed71	0.011714325
20	0x3c8eabe5	0.01741595
21	0x3cb670cc	0.022270583
22	0x3c810627	0.015750004
23	0x3c9b77b1	0.018977972
24	0x3cd3d962	0.025860492
25	0x3c6350dd	0.01387426
26	0x3cc77b1e	0.024350699
27	0x3cc5982e	0.024120416
28	0x3c805af4	0.01566837
29	0x3c4ffe14	0.012694854
30	0x3cb377ca	0.021907706
31	0x3cc3626e	0.023850646
32	0x3c8588e7	0.016300632
33	0x3c903a9a	0.017606068
34	0x3c4b072c	0.012391847
35	0x3cca039e	0.024659928
36	0x3cb86a1a	0.02251153
37	0x3ccd244c	0.025041722
38	0x3ce4eebe	0.027945872
39	0x3c9f668c	0.019458078
40	0x3c2e56c8	0.010640807
41	0x3c5a612c	0.013328832
42	0x3cb73a9d	0.022366816
43	0x3c463431	0.012097404
44	0x3cce18ab	0.025158247
45	0x3c61cb08	0.013781317
46	0x3c82bafa	0.015958298
47	0x3c841705	0.016124258
48	0x3cc46fec	0.02397915
49	0x3c62cea5	0.013843213
50	0x3c9d28c4	0.019184478
51	0x3ccf6f46	0.025321614
52	0x3c925cde	0.017866548
53	0x3ca74fcb	0.02042379
54	0x3cc6ea3b	0.024281612
55	0x3c9bd4a4	0.019022293
56	0x3cbaf358	0.022821113
57	0x3ccfcad7	0.025365276
58	0x3c7722b0	0.015083954
59	0x3c5aa307	0.013344533
60	0x3ccba434	0.024858572
61	0x3cbebb43	0.023282653
62	0x3c8b9242	0.017037515
63	0x3c9e1d57	0.0193011
64	0x3c5b9682	0.013402583
65	0x3cd5e3e4	0.026109643
66	0x3cbf381c	0.023342185
67	0x3ccddcb3	0.025129652
68	0x3cceaf4b	0.02523007
69	0x3ca9de80	0.02073598
70	0x3c294f5e	0.010333864
71	0x3c3c90c8	0.011509128
72	0x3cb1e504	0.021715648
73	0x3c58fa5f	0.013243287
74	0x3cc33e0e	0.0238333
75	0x3c5e9156	0.0135844555
76	0x3c86a86d	0.016437734
77	0x3c7ef0f0	0.015560374
78	0x3cd3bc22	0.025846545
79	0x3c6f310c	0.014599096
80	0x3ca65f37	0.020309074
81	0x3ccb32df	0.02480453
82	0x3c941cb0	0.018080086
83	0x3ca502d6	0.020142954
84	0x3cccc716	0.024997275
85	0x3c9e60ee	0.019333329
86	0x3ccf8ff6	0.0253372
87	0x3ccf5140	0.025307298
88	0x3c95d984	0.018292196
89	0x3c80a9b4	0.01570592
90	0x3cc4596d	0.023968423
91	0x3cc1ef80	0.023673773
92	0x3ccf5940	0.025311112
93	0x3cc84e33	0.02445135
94	0x3cd01ec0	0.025405288
95	0x3ccceb08	0.025014415
96	0x3cd0b4d7	0.025476856
97	0x3cd0eaeb	0.025502643
98	0x3cdb3b7c	0.026761763
99	0x3cc38323	0.023866242
100	0x3cb8d280	0.022561312
101	0x3cbff5aa	0.023432571
102	0x3cca08b9	0.024662362
103	0x3cbc0fc0	0.022956729
104	0x3cc3f21e	0.023919161
105	0x3cc46ec6	0.023978602
106	0x3ccf11be	0.025277015
107	0x3cc4e517	0.02403502
108	0x3cd53bd5	0.026029507
109	0x3ccaec8c	0.024770997
110	0x3cc89b06	0.024487983
111	0x3cd11bba	0.025525916
112	0x3cbfb4df	0.023401676
113	0x3cc1b9da	0.023648191
114	0x3cc2715e	0.023735698
115	0x3cd7c33f	0.026338218
116	0x3ccf0373	0.0252702
117	0x3cc72b59	0.024312662
118	0x3cd1b950	0.02560106
119	0x3cd81448	0.026376858
120	0x3ccd0e00	0.02503109
121	0x3cc50720	0.024051249
122	0x3cc18139	0.023621188
123	0x3cceb9c0	0.025235057
124	0x3cc0fbc1	0.023557546
125	0x3ccfb59a	0.025355149
126	0x3cc5890c	0.0241132
127	0x3cd48d2b	0.02594622
128	0x3cc985f8	0.024600014
129	0x3cc239c3	0.023709184
130	0x3cb3cb74	0.0219476
131	0x3cbe1eae	0.023207989
132	0x3cd49d31	0.025953861
133	0x3cb27e78	0.02178882
134	0x3cdb7ced	0.026792968
135	0x3cb5c6ba	0.022189487
136	0x3cc59017	0.024116559
137	0x3cd1b345	0.025598178
138	0x3cc8dd3e	0.024519559
139	0x3cb96cca	0.022634882
140	0x3cc9081f	0.024540005
141	0x3cd0d9dc	0.025494508
142	0x3cca1711	0.024669202
143	0x3cbe24fc	0.023210995
144	0x3cc1dabe	0.023663875
145	0x3cc52a68	0.024068072
146	0x3cc9536e	0.024575915
147	0x3cd53d46	0.026030194
148	0x3cb826d7	0.022479458
149	0x3cc4def3	0.024032092
150	0x3cc498a8	0.023998573
151	0x3cb62966	0.022236537
152	0x3c894275	0.016755322
153	0x3ca73968	0.020413116
154	0x3c642df0	0.013926968
155	0x3cc302db	0.023805073
156	0x3cc56eed	0.024100745
157	0x3ccf680f	0.025318174
158	0x3cc0fefe	0.02355909
159	0x3cae64b2	0.02128825
160	0x3c3f68f8	0.011682741
161	0x3c6e5d60	0.0145486295
162	0x3cc49775	0.023998002
163	0x3c59b56a	0.013287881
164	0x3cc3681b	0.023853352
165	0x3c802208	0.015641227
166	0x3c89062c	0.016726576
167	0x3c7dd3ff	0.015492438
168	0x3ccab8a1	0.024746241
169	0x3c818dcd	0.015814686
170	0x3caf4b33	0.021398162
171	0x3cc3d214	0.023903884
172	0x3caa6962	0.020802204
173	0x3cb1324d	0.02163043
174	0x3cccb4b4	0.02498851
175	0x3c9bb40a	0.019006748
176	0x3ccfc36c	0.02536174
177	0x3cb7fbe6	0.022458982
178	0x3c95c90e	0.018284347
179	0x3c62c5d1	0.013841108
180	0x3cd49d45	0.025953898
181	0x3cd700ec	0.026245557
182	0x3ca19852	0.019725952
183	0x3cb21e24	0.021742888
184	0x3c7c7d6f	0.015410765
185	0x3ce4eae6	0.02794404
186	0x3cb81738	0.022472009
187	0x3cc3150e	0.02381375
188	0x3cd484f4	0.025942303
189	0x3cb55c64	0.022138782
190	0x3c5622b1	0.0130697945
191	0x3c80d1df	0.015725074
192	0x3cb61986	0.022228967
193	0x3c73dfd4	0.014884908
194	0x3cc91153	0.024544394
195	0x3c85a399	0.016313361
196	0x3ca5d0b9	0.020241128
197	0x3c90f0f9	0.01769303
198	0x3cc06670	0.023486346
199	0x3c8d3901	0.017239096
200	0x3caa99fe	0.020825382
201	0x3cc0ce67	0.02353592
202	0x3c97eef8	0.018546566
203	0x3cb4114c	0.021980904
204	0x3cc067a2	0.023486916
205	0x3ca82fd3	0.020530617
206	0x3cc4f4a8	0.024042442
207	0x3cd32461	0.025774183
208	0x3c99c084	0.018768556
209	0x3c890534	0.016726114
210	0x3cc6bc81	0.024259808
211	0x3cc1a8f5	0.023640135
212	0x3cb2bf77	0.021819813
213	0x3cba2314	0.022721805
214	0x3caad608	0.020854011
215	0x3cd4d75f	0.025981603
216	0x3cc7242d	0.024309242
217	0x3cc89d4c	0.024489067
218	0x3ccfd66f	0.025370805
219	0x3cd1e23d	0.025620574
220	0x3c9439ef	0.018094031
221	0x3ca44c9c	0.020056061
222	0x3cbf68b6	0.02336536
223	0x3ca1b0cf	0.01973763
224	0x3ccba424	0.024858542
225	0x3cae13b6	0.021249633
226	0x3cb6fa26	0.022336077
227	0x3cab6e0d	0.0209265
228	0x3cc9283b	0.024555316
229	0x3ca97c06	0.020689022
230	0x3cce0bd0	0.025152117
231	0x3cc44a75	0.023961285
232	0x3cb5d8bc	0.022198074
233	0x3cbfb408	0.023401275
234	0x3ccb7f6a	0.02484103
235	0x3cb2c805	0.021823892
236	0x3cc60e92	0.02417687
237	0x3cc0697a	0.023487795
238	0x3caea9d6	0.021321218
239	0x3c93165a	0.017954994
240	0x3cc15988	0.023602262
241	0x3ccd765c	0.025080852
242	0x3cc10f37	0.023566825
243	0x3cc4a3d4	0.0240039
244	0x3cbebdd0	0.023283869
245	0x3cc236c0	0.023707747
246	0x3cbe4e9e	0.023230847
247	0x3cce3029	0.025169449
248	0x3cbd7b3c	0.023130052
249	0x3cc06b01	0.023488523
250	0x3cb4a024	0.022049017
251	0x3ca88218	0.020569846
252	0x3ccfa02b	0.025344929
253	0x3cb7f014	0.022453345
254	0x3cbb20c8	0.02284278
255	0x3cc0722b	0.02349194

mean f4 [1, 30]
0	0x3e985f5d	0.29760256
1	0x3f0ea9d4	0.5572789
2	0x3f7eb067	0.9948792
3	0x3f3f4683	0.7471697
4	0x3ab6c907	0.0013945409
5	0xbc0f492a	-0.008745471
6	0x3f32c43a	0.6983067
7	0x3dc1fcba	0.09472032
8	0x3e6c5628	0.23079741
9	0x3ca12387	0.019670261
10	0x3e6fd4ad	0.23420973
11	0x3f2c4f8b	0.6730887
12	0x3d9d6d94	0.07686916
13	0x401e4221	2.4727862
14	0x3d5aa84f	0.053383168
15	0x401cee6b	2.4520519
16	0x3fbe58ba	1.4870827
17	0xbcb4eb2f	-0.0220848
18	0x3df5553a	0.11979146
19	0x4007e7a7	2.123514
20	0x3f7017cf	0.9378633
21	0x3e841f0d	0.2580494
22	0x3fb07a7f	1.3787383
23	0x3d1f2543	0.038853895
24	0x3d44d9ec	0.04805939
25	0xbafd7bba	-0.0019339242
26	0x3f71edd0	0.945035
27	0x3e30e964	0.17276531
28	0x3fc6fc07	1.5545663
29	0x3fe03cb0	1.751852

scale f4 [1, 30]
0	0x3db341ac	0.0875276
1	0x3d564c45	0.05231883
2	0x3d2fc92d	0.042916466
3	0x3d3b7c75	0.04577299
4	0x3d3a600e	0.04550176
5	0x3e5ac0d9	0.21362628
6	0x3d427df0	0.047483385
7	0x3e165dc2	0.14684203
8	0x3e06da06	0.13169107
9	0x3d7f742e	0.062366657
10	0x3ceee44e	0.029161599
11	0x3d2460ef	0.040131506
12	0x3d994308	0.07483488
13	0x3db76830	0.08955419
14	0x3db8bfd3	0.090209626
15	0x3d3e6cad	0.04649036
16	0x3cfce986	0.030873071
17	0x3d40aba1	0.047038678
18	0x3d7644a3	0.06012405
19	0x3d20575c	0.039145812
20	0x3d0a1537	0.03371164
21	0x3dfbd35f	0.12296175
22	0x3d6060d4	0.054779842
23	0x3d8a5371	0.067541964
24	0x3e1f8bf4	0.15580732
25	0x3d271293	0.040789198
26	0x3d95ef01	0.07320977
27	0x3dc70269	0.097172566
28	0x3cebae0e	0.02876952
29	0x3d0e43a3	0.034732472
